{"modelTopology":{"node":[{"input":[],"attr":{"value":{"tensor":{"floatVal":[],"doubleVal":[],"intVal":[],"stringVal":[],"scomplexVal":[],"int64Val":[],"boolVal":[],"uint32Val":[],"uint64Val":[],"dtype":3,"tensorShape":{"dim":[{"size":"1"}]}}},"dtype":{"type":3}},"name":"Postprocessor/BatchMultiClassNonMaxSuppression/map/TensorArrayUnstack_1/strided_slice/stack_1","op":"Const"},{"input":[],"attr":{"value":{"tensor":{"floatVal":[],"doubleVal":[],"intVal":[],"stringVal":[],"scomplexVal":[],"int64Val":[],"boolVal":[],"uint32Val":[],"uint64Val":[],"dtype":3,"tensorShape":{"dim":[{"size":"1"}]}}},"dtype":{"type":3}},"name":"Postprocessor/BatchMultiClassNonMaxSuppression/map/TensorArrayUnstack_1/strided_slice/stack","op":"Const"},{"input":[],"attr":{"value":{"tensor":{"floatVal":[],"doubleVal":[],"intVal":[],"stringVal":[],"scomplexVal":[],"int64Val":[],"boolVal":[],"uint32Val":[],"uint64Val":[],"dtype":3,"tensorShape":{"dim":[]}}},"dtype":{"type":3}},"name":"BoxPredictor_0/stack_1/2","op":"Const"},{"input":[],"attr":{"value":{"tensor":{"floatVal":[],"doubleVal":[],"intVal":[],"stringVal":[],"scomplexVal":[],"int64Val":[],"boolVal":[],"uint32Val":[],"uint64Val":[],"dtype":3,"tensorShape":{"dim":[]}}},"dtype":{"type":3}},"name":"BoxPredictor_0/stack/3","op":"Const"},{"input":[],"attr":{"value":{"tensor":{"floatVal":[],"doubleVal":[],"intVal":[],"stringVal":[],"scomplexVal":[],"int64Val":[],"boolVal":[],"uint32Val":[],"uint64Val":[],"dtype":3,"tensorShape":{"dim":[]}}},"dtype":{"type":3}},"name":"Postprocessor/BatchMultiClassNonMaxSuppression/mul/y","op":"Const"},{"input":[],"attr":{"dtype":{"type":3},"value":{"tensor":{"floatVal":[],"doubleVal":[],"intVal":[],"stringVal":[],"scomplexVal":[],"int64Val":[],"boolVal":[],"uint32Val":[],"uint64Val":[],"dtype":3,"tensorShape":{"dim":[]}}}},"name":"Postprocessor/BatchMultiClassNonMaxSuppression/map/TensorArrayStack/range/delta","op":"Const"},{"input":[],"attr":{"value":{"tensor":{"floatVal":[],"doubleVal":[],"intVal":[],"stringVal":[],"scomplexVal":[],"int64Val":[],"boolVal":[],"uint32Val":[],"uint64Val":[],"dtype":3,"tensorShape":{"dim":[]}}},"dtype":{"type":3}},"name":"BoxPredictor_5/stack_1/1","op":"Const"},{"input":[],"attr":{"value":{"tensor":{"floatVal":[],"doubleVal":[],"intVal":[],"stringVal":[],"scomplexVal":[],"int64Val":[],"boolVal":[],"uint32Val":[],"uint64Val":[],"dtype":1,"tensorShape":{"dim":[{"size":"128"}]}}},"dtype":{"type":1}},"name":"FeatureExtractor/MobilenetV1/Conv2d_13_pointwise_2_Conv2d_5_3x3_s2_128/BatchNorm/FusedBatchNorm/Offset","op":"Const"},{"input":[],"attr":{"value":{"tensor":{"floatVal":[],"doubleVal":[],"intVal":[],"stringVal":[],"scomplexVal":[],"int64Val":[],"boolVal":[],"uint32Val":[],"uint64Val":[],"dtype":1,"tensorShape":{"dim":[{"size":"3"},{"size":"3"},{"size":"64"},{"size":"128"}]}}},"dtype":{"type":1}},"name":"FeatureExtractor/MobilenetV1/Conv2d_13_pointwise_2_Conv2d_5_3x3_s2_128/Conv2D/merged_input","op":"Const"},{"input":[],"attr":{"value":{"tensor":{"floatVal":[],"doubleVal":[],"intVal":[],"stringVal":[],"scomplexVal":[],"int64Val":[],"boolVal":[],"uint32Val":[],"uint64Val":[],"dtype":1,"tensorShape":{"dim":[]}}},"dtype":{"type":1}},"name":"add_6/y","op":"Const"},{"input":[],"attr":{"dtype":{"type":4},"shape":{"shape":{"dim":[{"size":"-1"},{"size":"-1"},{"size":"-1"},{"size":"3"}]}}},"name":"image_tensor","op":"Placeholder"},{"input":[],"attr":{"value":{"tensor":{"floatVal":[],"doubleVal":[],"intVal":[],"stringVal":[],"scomplexVal":[],"int64Val":[],"boolVal":[],"uint32Val":[],"uint64Val":[],"dtype":3,"tensorShape":{"dim":[]}}},"dtype":{"type":3}},"name":"Postprocessor/BatchMultiClassNonMaxSuppression/map/TensorArrayStack/range/start","op":"Const"},{"input":[],"attr":{"value":{"tensor":{"floatVal":[],"doubleVal":[],"intVal":[],"stringVal":[],"scomplexVal":[],"int64Val":[],"boolVal":[],"uint32Val":[],"uint64Val":[],"dtype":1,"tensorShape":{"dim":[]}}},"dtype":{"type":1}},"name":"Preprocessor/mul/x","op":"Const"},{"input":[],"attr":{"value":{"tensor":{"floatVal":[],"doubleVal":[],"intVal":[],"stringVal":[],"scomplexVal":[],"int64Val":[],"boolVal":[],"uint32Val":[],"uint64Val":[],"dtype":1,"tensorShape":{"dim":[{"size":"64"}]}}},"dtype":{"type":1}},"name":"FeatureExtractor/MobilenetV1/Conv2d_13_pointwise_1_Conv2d_5_1x1_64/BatchNorm/FusedBatchNorm/Offset","op":"Const"},{"input":[],"attr":{"value":{"tensor":{"floatVal":[],"doubleVal":[],"intVal":[],"stringVal":[],"scomplexVal":[],"int64Val":[],"boolVal":[],"uint32Val":[],"uint64Val":[],"dtype":1,"tensorShape":{"dim":[{"size":"1"},{"size":"1"},{"size":"256"},{"size":"64"}]}}},"dtype":{"type":1}},"name":"FeatureExtractor/MobilenetV1/Conv2d_13_pointwise_1_Conv2d_5_1x1_64/Conv2D/merged_input","op":"Const"},{"input":[],"attr":{"value":{"tensor":{"floatVal":[],"doubleVal":[],"intVal":[],"stringVal":[],"scomplexVal":[],"int64Val":[],"boolVal":[],"uint32Val":[],"uint64Val":[],"dtype":1,"tensorShape":{"dim":[{"size":"256"}]}}},"dtype":{"type":1}},"name":"FeatureExtractor/MobilenetV1/Conv2d_13_pointwise_2_Conv2d_4_3x3_s2_256/BatchNorm/FusedBatchNorm/Offset","op":"Const"},{"input":[],"attr":{"value":{"tensor":{"floatVal":[],"doubleVal":[],"intVal":[],"stringVal":[],"scomplexVal":[],"int64Val":[],"boolVal":[],"uint32Val":[],"uint64Val":[],"dtype":1,"tensorShape":{"dim":[{"size":"3"},{"size":"3"},{"size":"128"},{"size":"256"}]}}},"dtype":{"type":1}},"name":"FeatureExtractor/MobilenetV1/Conv2d_13_pointwise_2_Conv2d_4_3x3_s2_256/Conv2D/merged_input","op":"Const"},{"input":[],"attr":{"value":{"tensor":{"floatVal":[],"doubleVal":[],"intVal":[],"stringVal":[],"scomplexVal":[],"int64Val":[],"boolVal":[],"uint32Val":[],"uint64Val":[],"dtype":1,"tensorShape":{"dim":[{"size":"128"}]}}},"dtype":{"type":1}},"name":"FeatureExtractor/MobilenetV1/Conv2d_13_pointwise_1_Conv2d_4_1x1_128/BatchNorm/FusedBatchNorm/Offset","op":"Const"},{"input":[],"attr":{"dtype":{"type":1},"value":{"tensor":{"floatVal":[],"doubleVal":[],"intVal":[],"stringVal":[],"scomplexVal":[],"int64Val":[],"boolVal":[],"uint32Val":[],"uint64Val":[],"dtype":1,"tensorShape":{"dim":[{"size":"1"},{"size":"1"},{"size":"256"},{"size":"128"}]}}}},"name":"FeatureExtractor/MobilenetV1/Conv2d_13_pointwise_1_Conv2d_4_1x1_128/Conv2D/merged_input","op":"Const"},{"input":[],"attr":{"value":{"tensor":{"floatVal":[],"doubleVal":[],"intVal":[],"stringVal":[],"scomplexVal":[],"int64Val":[],"boolVal":[],"uint32Val":[],"uint64Val":[],"dtype":1,"tensorShape":{"dim":[{"size":"256"}]}}},"dtype":{"type":1}},"name":"FeatureExtractor/MobilenetV1/Conv2d_13_pointwise_2_Conv2d_3_3x3_s2_256/BatchNorm/FusedBatchNorm/Offset","op":"Const"},{"input":[],"attr":{"value":{"tensor":{"floatVal":[],"doubleVal":[],"intVal":[],"stringVal":[],"scomplexVal":[],"int64Val":[],"boolVal":[],"uint32Val":[],"uint64Val":[],"dtype":1,"tensorShape":{"dim":[{"size":"3"},{"size":"3"},{"size":"128"},{"size":"256"}]}}},"dtype":{"type":1}},"name":"FeatureExtractor/MobilenetV1/Conv2d_13_pointwise_2_Conv2d_3_3x3_s2_256/Conv2D/merged_input","op":"Const"},{"input":[],"attr":{"value":{"tensor":{"floatVal":[],"doubleVal":[],"intVal":[],"stringVal":[],"scomplexVal":[],"int64Val":[],"boolVal":[],"uint32Val":[],"uint64Val":[],"dtype":1,"tensorShape":{"dim":[{"size":"128"}]}}},"dtype":{"type":1}},"name":"FeatureExtractor/MobilenetV1/Conv2d_13_pointwise_1_Conv2d_3_1x1_128/BatchNorm/FusedBatchNorm/Offset","op":"Const"},{"input":[],"attr":{"value":{"tensor":{"floatVal":[],"doubleVal":[],"intVal":[],"stringVal":[],"scomplexVal":[],"int64Val":[],"boolVal":[],"uint32Val":[],"uint64Val":[],"dtype":1,"tensorShape":{"dim":[{"size":"1"},{"size":"1"},{"size":"512"},{"size":"128"}]}}},"dtype":{"type":1}},"name":"FeatureExtractor/MobilenetV1/Conv2d_13_pointwise_1_Conv2d_3_1x1_128/Conv2D/merged_input","op":"Const"},{"input":[],"attr":{"value":{"tensor":{"floatVal":[],"doubleVal":[],"intVal":[],"stringVal":[],"scomplexVal":[],"int64Val":[],"boolVal":[],"uint32Val":[],"uint64Val":[],"dtype":1,"tensorShape":{"dim":[{"size":"512"}]}}},"dtype":{"type":1}},"name":"FeatureExtractor/MobilenetV1/Conv2d_13_pointwise_2_Conv2d_2_3x3_s2_512/BatchNorm/FusedBatchNorm/Offset","op":"Const"},{"input":[],"attr":{"value":{"tensor":{"floatVal":[],"doubleVal":[],"intVal":[],"stringVal":[],"scomplexVal":[],"int64Val":[],"boolVal":[],"uint32Val":[],"uint64Val":[],"dtype":1,"tensorShape":{"dim":[{"size":"3"},{"size":"3"},{"size":"256"},{"size":"512"}]}}},"dtype":{"type":1}},"name":"FeatureExtractor/MobilenetV1/Conv2d_13_pointwise_2_Conv2d_2_3x3_s2_512/Conv2D/merged_input","op":"Const"},{"input":[],"attr":{"value":{"tensor":{"floatVal":[],"doubleVal":[],"intVal":[],"stringVal":[],"scomplexVal":[],"int64Val":[],"boolVal":[],"uint32Val":[],"uint64Val":[],"dtype":1,"tensorShape":{"dim":[{"size":"256"}]}}},"dtype":{"type":1}},"name":"FeatureExtractor/MobilenetV1/Conv2d_13_pointwise_1_Conv2d_2_1x1_256/BatchNorm/FusedBatchNorm/Offset","op":"Const"},{"input":[],"attr":{"value":{"tensor":{"floatVal":[],"doubleVal":[],"intVal":[],"stringVal":[],"scomplexVal":[],"int64Val":[],"boolVal":[],"uint32Val":[],"uint64Val":[],"dtype":1,"tensorShape":{"dim":[{"size":"1"},{"size":"1"},{"size":"1024"},{"size":"256"}]}}},"dtype":{"type":1}},"name":"FeatureExtractor/MobilenetV1/Conv2d_13_pointwise_1_Conv2d_2_1x1_256/Conv2D/merged_input","op":"Const"},{"input":[],"attr":{"value":{"tensor":{"floatVal":[],"doubleVal":[],"intVal":[],"stringVal":[],"scomplexVal":[],"int64Val":[],"boolVal":[],"uint32Val":[],"uint64Val":[],"dtype":1,"tensorShape":{"dim":[{"size":"1024"}]}}},"dtype":{"type":1}},"name":"FeatureExtractor/MobilenetV1/MobilenetV1/Conv2d_13_pointwise/BatchNorm/FusedBatchNorm/Offset","op":"Const"},{"input":[],"attr":{"value":{"tensor":{"floatVal":[],"doubleVal":[],"intVal":[],"stringVal":[],"scomplexVal":[],"int64Val":[],"boolVal":[],"uint32Val":[],"uint64Val":[],"dtype":1,"tensorShape":{"dim":[{"size":"1"},{"size":"1"},{"size":"1024"},{"size":"1024"}]}}},"dtype":{"type":1}},"name":"FeatureExtractor/MobilenetV1/MobilenetV1/Conv2d_13_pointwise/Conv2D/merged_input","op":"Const"},{"input":[],"attr":{"value":{"tensor":{"floatVal":[],"doubleVal":[],"intVal":[],"stringVal":[],"scomplexVal":[],"int64Val":[],"boolVal":[],"uint32Val":[],"uint64Val":[],"dtype":1,"tensorShape":{"dim":[{"size":"1024"}]}}},"dtype":{"type":1}},"name":"FeatureExtractor/MobilenetV1/MobilenetV1/Conv2d_13_depthwise/BatchNorm/FusedBatchNorm/Offset","op":"Const"},{"input":[],"attr":{"value":{"tensor":{"floatVal":[],"doubleVal":[],"intVal":[],"stringVal":[],"scomplexVal":[],"int64Val":[],"boolVal":[],"uint32Val":[],"uint64Val":[],"dtype":1,"tensorShape":{"dim":[{"size":"1024"}]}}},"dtype":{"type":1}},"name":"FeatureExtractor/MobilenetV1/MobilenetV1/Conv2d_13_depthwise/BatchNorm/FusedBatchNorm/Scaled","op":"Const"},{"input":[],"attr":{"value":{"tensor":{"floatVal":[],"doubleVal":[],"intVal":[],"stringVal":[],"scomplexVal":[],"int64Val":[],"boolVal":[],"uint32Val":[],"uint64Val":[],"dtype":1,"tensorShape":{"dim":[{"size":"3"},{"size":"3"},{"size":"1024"},{"size":"1"}]}}},"dtype":{"type":1}},"name":"FeatureExtractor/MobilenetV1/Conv2d_13_depthwise/depthwise_weights","op":"Const"},{"input":[],"attr":{"dtype":{"type":1},"value":{"tensor":{"floatVal":[],"doubleVal":[],"intVal":[],"stringVal":[],"scomplexVal":[],"int64Val":[],"boolVal":[],"uint32Val":[],"uint64Val":[],"dtype":1,"tensorShape":{"dim":[{"size":"1024"}]}}}},"name":"FeatureExtractor/MobilenetV1/MobilenetV1/Conv2d_12_pointwise/BatchNorm/FusedBatchNorm/Offset","op":"Const"},{"input":[],"attr":{"value":{"tensor":{"floatVal":[],"doubleVal":[],"intVal":[],"stringVal":[],"scomplexVal":[],"int64Val":[],"boolVal":[],"uint32Val":[],"uint64Val":[],"dtype":1,"tensorShape":{"dim":[{"size":"1"},{"size":"1"},{"size":"512"},{"size":"1024"}]}}},"dtype":{"type":1}},"name":"FeatureExtractor/MobilenetV1/MobilenetV1/Conv2d_12_pointwise/Conv2D/merged_input","op":"Const"},{"input":[],"attr":{"value":{"tensor":{"floatVal":[],"doubleVal":[],"intVal":[],"stringVal":[],"scomplexVal":[],"int64Val":[],"boolVal":[],"uint32Val":[],"uint64Val":[],"dtype":1,"tensorShape":{"dim":[{"size":"512"}]}}},"dtype":{"type":1}},"name":"FeatureExtractor/MobilenetV1/MobilenetV1/Conv2d_12_depthwise/BatchNorm/FusedBatchNorm/Offset","op":"Const"},{"input":[],"attr":{"value":{"tensor":{"floatVal":[],"doubleVal":[],"intVal":[],"stringVal":[],"scomplexVal":[],"int64Val":[],"boolVal":[],"uint32Val":[],"uint64Val":[],"dtype":1,"tensorShape":{"dim":[{"size":"512"}]}}},"dtype":{"type":1}},"name":"FeatureExtractor/MobilenetV1/MobilenetV1/Conv2d_12_depthwise/BatchNorm/FusedBatchNorm/Scaled","op":"Const"},{"input":[],"attr":{"value":{"tensor":{"floatVal":[],"doubleVal":[],"intVal":[],"stringVal":[],"scomplexVal":[],"int64Val":[],"boolVal":[],"uint32Val":[],"uint64Val":[],"dtype":1,"tensorShape":{"dim":[{"size":"3"},{"size":"3"},{"size":"512"},{"size":"1"}]}}},"dtype":{"type":1}},"name":"FeatureExtractor/MobilenetV1/Conv2d_12_depthwise/depthwise_weights","op":"Const"},{"input":[],"attr":{"value":{"tensor":{"floatVal":[],"doubleVal":[],"intVal":[],"stringVal":[],"scomplexVal":[],"int64Val":[],"boolVal":[],"uint32Val":[],"uint64Val":[],"dtype":1,"tensorShape":{"dim":[{"size":"512"}]}}},"dtype":{"type":1}},"name":"FeatureExtractor/MobilenetV1/MobilenetV1/Conv2d_11_pointwise/BatchNorm/FusedBatchNorm/Offset","op":"Const"},{"input":[],"attr":{"value":{"tensor":{"floatVal":[],"doubleVal":[],"intVal":[],"stringVal":[],"scomplexVal":[],"int64Val":[],"boolVal":[],"uint32Val":[],"uint64Val":[],"dtype":1,"tensorShape":{"dim":[{"size":"1"},{"size":"1"},{"size":"512"},{"size":"512"}]}}},"dtype":{"type":1}},"name":"FeatureExtractor/MobilenetV1/MobilenetV1/Conv2d_11_pointwise/Conv2D/merged_input","op":"Const"},{"input":[],"attr":{"value":{"tensor":{"floatVal":[],"doubleVal":[],"intVal":[],"stringVal":[],"scomplexVal":[],"int64Val":[],"boolVal":[],"uint32Val":[],"uint64Val":[],"dtype":1,"tensorShape":{"dim":[{"size":"512"}]}}},"dtype":{"type":1}},"name":"FeatureExtractor/MobilenetV1/MobilenetV1/Conv2d_11_depthwise/BatchNorm/FusedBatchNorm/Offset","op":"Const"},{"input":[],"attr":{"dtype":{"type":1},"value":{"tensor":{"floatVal":[],"doubleVal":[],"intVal":[],"stringVal":[],"scomplexVal":[],"int64Val":[],"boolVal":[],"uint32Val":[],"uint64Val":[],"dtype":1,"tensorShape":{"dim":[{"size":"512"}]}}}},"name":"FeatureExtractor/MobilenetV1/MobilenetV1/Conv2d_11_depthwise/BatchNorm/FusedBatchNorm/Scaled","op":"Const"},{"input":[],"attr":{"value":{"tensor":{"floatVal":[],"doubleVal":[],"intVal":[],"stringVal":[],"scomplexVal":[],"int64Val":[],"boolVal":[],"uint32Val":[],"uint64Val":[],"dtype":1,"tensorShape":{"dim":[{"size":"3"},{"size":"3"},{"size":"512"},{"size":"1"}]}}},"dtype":{"type":1}},"name":"FeatureExtractor/MobilenetV1/Conv2d_11_depthwise/depthwise_weights","op":"Const"},{"input":[],"attr":{"value":{"tensor":{"floatVal":[],"doubleVal":[],"intVal":[],"stringVal":[],"scomplexVal":[],"int64Val":[],"boolVal":[],"uint32Val":[],"uint64Val":[],"dtype":1,"tensorShape":{"dim":[{"size":"512"}]}}},"dtype":{"type":1}},"name":"FeatureExtractor/MobilenetV1/MobilenetV1/Conv2d_10_pointwise/BatchNorm/FusedBatchNorm/Offset","op":"Const"},{"input":[],"attr":{"value":{"tensor":{"floatVal":[],"doubleVal":[],"intVal":[],"stringVal":[],"scomplexVal":[],"int64Val":[],"boolVal":[],"uint32Val":[],"uint64Val":[],"dtype":1,"tensorShape":{"dim":[{"size":"1"},{"size":"1"},{"size":"512"},{"size":"512"}]}}},"dtype":{"type":1}},"name":"FeatureExtractor/MobilenetV1/MobilenetV1/Conv2d_10_pointwise/Conv2D/merged_input","op":"Const"},{"input":[],"attr":{"value":{"tensor":{"floatVal":[],"doubleVal":[],"intVal":[],"stringVal":[],"scomplexVal":[],"int64Val":[],"boolVal":[],"uint32Val":[],"uint64Val":[],"dtype":1,"tensorShape":{"dim":[{"size":"512"}]}}},"dtype":{"type":1}},"name":"FeatureExtractor/MobilenetV1/MobilenetV1/Conv2d_10_depthwise/BatchNorm/FusedBatchNorm/Offset","op":"Const"},{"input":[],"attr":{"value":{"tensor":{"floatVal":[],"doubleVal":[],"intVal":[],"stringVal":[],"scomplexVal":[],"int64Val":[],"boolVal":[],"uint32Val":[],"uint64Val":[],"dtype":1,"tensorShape":{"dim":[{"size":"512"}]}}},"dtype":{"type":1}},"name":"FeatureExtractor/MobilenetV1/MobilenetV1/Conv2d_10_depthwise/BatchNorm/FusedBatchNorm/Scaled","op":"Const"},{"input":[],"attr":{"dtype":{"type":1},"value":{"tensor":{"floatVal":[],"doubleVal":[],"intVal":[],"stringVal":[],"scomplexVal":[],"int64Val":[],"boolVal":[],"uint32Val":[],"uint64Val":[],"dtype":1,"tensorShape":{"dim":[{"size":"3"},{"size":"3"},{"size":"512"},{"size":"1"}]}}}},"name":"FeatureExtractor/MobilenetV1/Conv2d_10_depthwise/depthwise_weights","op":"Const"},{"input":[],"attr":{"value":{"tensor":{"floatVal":[],"doubleVal":[],"intVal":[],"stringVal":[],"scomplexVal":[],"int64Val":[],"boolVal":[],"uint32Val":[],"uint64Val":[],"dtype":1,"tensorShape":{"dim":[{"size":"512"}]}}},"dtype":{"type":1}},"name":"FeatureExtractor/MobilenetV1/MobilenetV1/Conv2d_9_pointwise/BatchNorm/FusedBatchNorm/Offset","op":"Const"},{"input":[],"attr":{"value":{"tensor":{"floatVal":[],"doubleVal":[],"intVal":[],"stringVal":[],"scomplexVal":[],"int64Val":[],"boolVal":[],"uint32Val":[],"uint64Val":[],"dtype":1,"tensorShape":{"dim":[{"size":"1"},{"size":"1"},{"size":"512"},{"size":"512"}]}}},"dtype":{"type":1}},"name":"FeatureExtractor/MobilenetV1/MobilenetV1/Conv2d_9_pointwise/Conv2D/merged_input","op":"Const"},{"input":[],"attr":{"value":{"tensor":{"floatVal":[],"doubleVal":[],"intVal":[],"stringVal":[],"scomplexVal":[],"int64Val":[],"boolVal":[],"uint32Val":[],"uint64Val":[],"dtype":1,"tensorShape":{"dim":[{"size":"512"}]}}},"dtype":{"type":1}},"name":"FeatureExtractor/MobilenetV1/MobilenetV1/Conv2d_9_depthwise/BatchNorm/FusedBatchNorm/Offset","op":"Const"},{"input":[],"attr":{"dtype":{"type":1},"value":{"tensor":{"floatVal":[],"doubleVal":[],"intVal":[],"stringVal":[],"scomplexVal":[],"int64Val":[],"boolVal":[],"uint32Val":[],"uint64Val":[],"dtype":1,"tensorShape":{"dim":[{"size":"512"}]}}}},"name":"FeatureExtractor/MobilenetV1/MobilenetV1/Conv2d_9_depthwise/BatchNorm/FusedBatchNorm/Scaled","op":"Const"},{"input":[],"attr":{"value":{"tensor":{"floatVal":[],"doubleVal":[],"intVal":[],"stringVal":[],"scomplexVal":[],"int64Val":[],"boolVal":[],"uint32Val":[],"uint64Val":[],"dtype":1,"tensorShape":{"dim":[{"size":"3"},{"size":"3"},{"size":"512"},{"size":"1"}]}}},"dtype":{"type":1}},"name":"FeatureExtractor/MobilenetV1/Conv2d_9_depthwise/depthwise_weights","op":"Const"},{"input":[],"attr":{"value":{"tensor":{"floatVal":[],"doubleVal":[],"intVal":[],"stringVal":[],"scomplexVal":[],"int64Val":[],"boolVal":[],"uint32Val":[],"uint64Val":[],"dtype":1,"tensorShape":{"dim":[{"size":"512"}]}}},"dtype":{"type":1}},"name":"FeatureExtractor/MobilenetV1/MobilenetV1/Conv2d_8_pointwise/BatchNorm/FusedBatchNorm/Offset","op":"Const"},{"input":[],"attr":{"value":{"tensor":{"floatVal":[],"doubleVal":[],"intVal":[],"stringVal":[],"scomplexVal":[],"int64Val":[],"boolVal":[],"uint32Val":[],"uint64Val":[],"dtype":1,"tensorShape":{"dim":[{"size":"1"},{"size":"1"},{"size":"512"},{"size":"512"}]}}},"dtype":{"type":1}},"name":"FeatureExtractor/MobilenetV1/MobilenetV1/Conv2d_8_pointwise/Conv2D/merged_input","op":"Const"},{"input":[],"attr":{"value":{"tensor":{"floatVal":[],"doubleVal":[],"intVal":[],"stringVal":[],"scomplexVal":[],"int64Val":[],"boolVal":[],"uint32Val":[],"uint64Val":[],"dtype":1,"tensorShape":{"dim":[{"size":"512"}]}}},"dtype":{"type":1}},"name":"FeatureExtractor/MobilenetV1/MobilenetV1/Conv2d_8_depthwise/BatchNorm/FusedBatchNorm/Offset","op":"Const"},{"input":[],"attr":{"value":{"tensor":{"floatVal":[],"doubleVal":[],"intVal":[],"stringVal":[],"scomplexVal":[],"int64Val":[],"boolVal":[],"uint32Val":[],"uint64Val":[],"dtype":1,"tensorShape":{"dim":[{"size":"512"}]}}},"dtype":{"type":1}},"name":"FeatureExtractor/MobilenetV1/MobilenetV1/Conv2d_8_depthwise/BatchNorm/FusedBatchNorm/Scaled","op":"Const"},{"input":[],"attr":{"value":{"tensor":{"floatVal":[],"doubleVal":[],"intVal":[],"stringVal":[],"scomplexVal":[],"int64Val":[],"boolVal":[],"uint32Val":[],"uint64Val":[],"dtype":1,"tensorShape":{"dim":[{"size":"3"},{"size":"3"},{"size":"512"},{"size":"1"}]}}},"dtype":{"type":1}},"name":"FeatureExtractor/MobilenetV1/Conv2d_8_depthwise/depthwise_weights","op":"Const"},{"input":[],"attr":{"value":{"tensor":{"floatVal":[],"doubleVal":[],"intVal":[],"stringVal":[],"scomplexVal":[],"int64Val":[],"boolVal":[],"uint32Val":[],"uint64Val":[],"dtype":1,"tensorShape":{"dim":[{"size":"512"}]}}},"dtype":{"type":1}},"name":"FeatureExtractor/MobilenetV1/MobilenetV1/Conv2d_7_pointwise/BatchNorm/FusedBatchNorm/Offset","op":"Const"},{"input":[],"attr":{"value":{"tensor":{"floatVal":[],"doubleVal":[],"intVal":[],"stringVal":[],"scomplexVal":[],"int64Val":[],"boolVal":[],"uint32Val":[],"uint64Val":[],"dtype":1,"tensorShape":{"dim":[{"size":"1"},{"size":"1"},{"size":"512"},{"size":"512"}]}}},"dtype":{"type":1}},"name":"FeatureExtractor/MobilenetV1/MobilenetV1/Conv2d_7_pointwise/Conv2D/merged_input","op":"Const"},{"input":[],"attr":{"value":{"tensor":{"floatVal":[],"doubleVal":[],"intVal":[],"stringVal":[],"scomplexVal":[],"int64Val":[],"boolVal":[],"uint32Val":[],"uint64Val":[],"dtype":1,"tensorShape":{"dim":[{"size":"512"}]}}},"dtype":{"type":1}},"name":"FeatureExtractor/MobilenetV1/MobilenetV1/Conv2d_7_depthwise/BatchNorm/FusedBatchNorm/Offset","op":"Const"},{"input":[],"attr":{"value":{"tensor":{"floatVal":[],"doubleVal":[],"intVal":[],"stringVal":[],"scomplexVal":[],"int64Val":[],"boolVal":[],"uint32Val":[],"uint64Val":[],"dtype":1,"tensorShape":{"dim":[{"size":"512"}]}}},"dtype":{"type":1}},"name":"FeatureExtractor/MobilenetV1/MobilenetV1/Conv2d_7_depthwise/BatchNorm/FusedBatchNorm/Scaled","op":"Const"},{"input":[],"attr":{"value":{"tensor":{"floatVal":[],"doubleVal":[],"intVal":[],"stringVal":[],"scomplexVal":[],"int64Val":[],"boolVal":[],"uint32Val":[],"uint64Val":[],"dtype":1,"tensorShape":{"dim":[{"size":"3"},{"size":"3"},{"size":"512"},{"size":"1"}]}}},"dtype":{"type":1}},"name":"FeatureExtractor/MobilenetV1/Conv2d_7_depthwise/depthwise_weights","op":"Const"},{"input":[],"attr":{"dtype":{"type":1},"value":{"tensor":{"floatVal":[],"doubleVal":[],"intVal":[],"stringVal":[],"scomplexVal":[],"int64Val":[],"boolVal":[],"uint32Val":[],"uint64Val":[],"dtype":1,"tensorShape":{"dim":[{"size":"512"}]}}}},"name":"FeatureExtractor/MobilenetV1/MobilenetV1/Conv2d_6_pointwise/BatchNorm/FusedBatchNorm/Offset","op":"Const"},{"input":[],"attr":{"dtype":{"type":1},"value":{"tensor":{"floatVal":[],"doubleVal":[],"intVal":[],"stringVal":[],"scomplexVal":[],"int64Val":[],"boolVal":[],"uint32Val":[],"uint64Val":[],"dtype":1,"tensorShape":{"dim":[{"size":"1"},{"size":"1"},{"size":"256"},{"size":"512"}]}}}},"name":"FeatureExtractor/MobilenetV1/MobilenetV1/Conv2d_6_pointwise/Conv2D/merged_input","op":"Const"},{"input":[],"attr":{"value":{"tensor":{"floatVal":[],"doubleVal":[],"intVal":[],"stringVal":[],"scomplexVal":[],"int64Val":[],"boolVal":[],"uint32Val":[],"uint64Val":[],"dtype":1,"tensorShape":{"dim":[{"size":"256"}]}}},"dtype":{"type":1}},"name":"FeatureExtractor/MobilenetV1/MobilenetV1/Conv2d_6_depthwise/BatchNorm/FusedBatchNorm/Offset","op":"Const"},{"input":[],"attr":{"value":{"tensor":{"floatVal":[],"doubleVal":[],"intVal":[],"stringVal":[],"scomplexVal":[],"int64Val":[],"boolVal":[],"uint32Val":[],"uint64Val":[],"dtype":1,"tensorShape":{"dim":[{"size":"256"}]}}},"dtype":{"type":1}},"name":"FeatureExtractor/MobilenetV1/MobilenetV1/Conv2d_6_depthwise/BatchNorm/FusedBatchNorm/Scaled","op":"Const"},{"input":[],"attr":{"dtype":{"type":1},"value":{"tensor":{"floatVal":[],"doubleVal":[],"intVal":[],"stringVal":[],"scomplexVal":[],"int64Val":[],"boolVal":[],"uint32Val":[],"uint64Val":[],"dtype":1,"tensorShape":{"dim":[{"size":"3"},{"size":"3"},{"size":"256"},{"size":"1"}]}}}},"name":"FeatureExtractor/MobilenetV1/Conv2d_6_depthwise/depthwise_weights","op":"Const"},{"input":[],"attr":{"dtype":{"type":1},"value":{"tensor":{"floatVal":[],"doubleVal":[],"intVal":[],"stringVal":[],"scomplexVal":[],"int64Val":[],"boolVal":[],"uint32Val":[],"uint64Val":[],"dtype":1,"tensorShape":{"dim":[{"size":"256"}]}}}},"name":"FeatureExtractor/MobilenetV1/MobilenetV1/Conv2d_5_pointwise/BatchNorm/FusedBatchNorm/Offset","op":"Const"},{"input":[],"attr":{"value":{"tensor":{"floatVal":[],"doubleVal":[],"intVal":[],"stringVal":[],"scomplexVal":[],"int64Val":[],"boolVal":[],"uint32Val":[],"uint64Val":[],"dtype":1,"tensorShape":{"dim":[{"size":"1"},{"size":"1"},{"size":"256"},{"size":"256"}]}}},"dtype":{"type":1}},"name":"FeatureExtractor/MobilenetV1/MobilenetV1/Conv2d_5_pointwise/Conv2D/merged_input","op":"Const"},{"input":[],"attr":{"value":{"tensor":{"floatVal":[],"doubleVal":[],"intVal":[],"stringVal":[],"scomplexVal":[],"int64Val":[],"boolVal":[],"uint32Val":[],"uint64Val":[],"dtype":1,"tensorShape":{"dim":[{"size":"256"}]}}},"dtype":{"type":1}},"name":"FeatureExtractor/MobilenetV1/MobilenetV1/Conv2d_5_depthwise/BatchNorm/FusedBatchNorm/Offset","op":"Const"},{"input":[],"attr":{"value":{"tensor":{"floatVal":[],"doubleVal":[],"intVal":[],"stringVal":[],"scomplexVal":[],"int64Val":[],"boolVal":[],"uint32Val":[],"uint64Val":[],"dtype":1,"tensorShape":{"dim":[{"size":"256"}]}}},"dtype":{"type":1}},"name":"FeatureExtractor/MobilenetV1/MobilenetV1/Conv2d_5_depthwise/BatchNorm/FusedBatchNorm/Scaled","op":"Const"},{"input":[],"attr":{"value":{"tensor":{"floatVal":[],"doubleVal":[],"intVal":[],"stringVal":[],"scomplexVal":[],"int64Val":[],"boolVal":[],"uint32Val":[],"uint64Val":[],"dtype":1,"tensorShape":{"dim":[{"size":"3"},{"size":"3"},{"size":"256"},{"size":"1"}]}}},"dtype":{"type":1}},"name":"FeatureExtractor/MobilenetV1/Conv2d_5_depthwise/depthwise_weights","op":"Const"},{"input":[],"attr":{"value":{"tensor":{"floatVal":[],"doubleVal":[],"intVal":[],"stringVal":[],"scomplexVal":[],"int64Val":[],"boolVal":[],"uint32Val":[],"uint64Val":[],"dtype":1,"tensorShape":{"dim":[{"size":"256"}]}}},"dtype":{"type":1}},"name":"FeatureExtractor/MobilenetV1/MobilenetV1/Conv2d_4_pointwise/BatchNorm/FusedBatchNorm/Offset","op":"Const"},{"input":[],"attr":{"value":{"tensor":{"floatVal":[],"doubleVal":[],"intVal":[],"stringVal":[],"scomplexVal":[],"int64Val":[],"boolVal":[],"uint32Val":[],"uint64Val":[],"dtype":1,"tensorShape":{"dim":[{"size":"1"},{"size":"1"},{"size":"128"},{"size":"256"}]}}},"dtype":{"type":1}},"name":"FeatureExtractor/MobilenetV1/MobilenetV1/Conv2d_4_pointwise/Conv2D/merged_input","op":"Const"},{"input":[],"attr":{"dtype":{"type":1},"value":{"tensor":{"floatVal":[],"doubleVal":[],"intVal":[],"stringVal":[],"scomplexVal":[],"int64Val":[],"boolVal":[],"uint32Val":[],"uint64Val":[],"dtype":1,"tensorShape":{"dim":[{"size":"128"}]}}}},"name":"FeatureExtractor/MobilenetV1/MobilenetV1/Conv2d_4_depthwise/BatchNorm/FusedBatchNorm/Offset","op":"Const"},{"input":[],"attr":{"dtype":{"type":1},"value":{"tensor":{"floatVal":[],"doubleVal":[],"intVal":[],"stringVal":[],"scomplexVal":[],"int64Val":[],"boolVal":[],"uint32Val":[],"uint64Val":[],"dtype":1,"tensorShape":{"dim":[{"size":"128"}]}}}},"name":"FeatureExtractor/MobilenetV1/MobilenetV1/Conv2d_4_depthwise/BatchNorm/FusedBatchNorm/Scaled","op":"Const"},{"input":[],"attr":{"dtype":{"type":1},"value":{"tensor":{"floatVal":[],"doubleVal":[],"intVal":[],"stringVal":[],"scomplexVal":[],"int64Val":[],"boolVal":[],"uint32Val":[],"uint64Val":[],"dtype":1,"tensorShape":{"dim":[{"size":"3"},{"size":"3"},{"size":"128"},{"size":"1"}]}}}},"name":"FeatureExtractor/MobilenetV1/Conv2d_4_depthwise/depthwise_weights","op":"Const"},{"input":[],"attr":{"dtype":{"type":1},"value":{"tensor":{"floatVal":[],"doubleVal":[],"intVal":[],"stringVal":[],"scomplexVal":[],"int64Val":[],"boolVal":[],"uint32Val":[],"uint64Val":[],"dtype":1,"tensorShape":{"dim":[{"size":"128"}]}}}},"name":"FeatureExtractor/MobilenetV1/MobilenetV1/Conv2d_3_pointwise/BatchNorm/FusedBatchNorm/Offset","op":"Const"},{"input":[],"attr":{"value":{"tensor":{"floatVal":[],"doubleVal":[],"intVal":[],"stringVal":[],"scomplexVal":[],"int64Val":[],"boolVal":[],"uint32Val":[],"uint64Val":[],"dtype":1,"tensorShape":{"dim":[{"size":"1"},{"size":"1"},{"size":"128"},{"size":"128"}]}}},"dtype":{"type":1}},"name":"FeatureExtractor/MobilenetV1/MobilenetV1/Conv2d_3_pointwise/Conv2D/merged_input","op":"Const"},{"input":[],"attr":{"value":{"tensor":{"floatVal":[],"doubleVal":[],"intVal":[],"stringVal":[],"scomplexVal":[],"int64Val":[],"boolVal":[],"uint32Val":[],"uint64Val":[],"dtype":1,"tensorShape":{"dim":[{"size":"128"}]}}},"dtype":{"type":1}},"name":"FeatureExtractor/MobilenetV1/MobilenetV1/Conv2d_3_depthwise/BatchNorm/FusedBatchNorm/Offset","op":"Const"},{"input":[],"attr":{"value":{"tensor":{"floatVal":[],"doubleVal":[],"intVal":[],"stringVal":[],"scomplexVal":[],"int64Val":[],"boolVal":[],"uint32Val":[],"uint64Val":[],"dtype":1,"tensorShape":{"dim":[{"size":"128"}]}}},"dtype":{"type":1}},"name":"FeatureExtractor/MobilenetV1/MobilenetV1/Conv2d_3_depthwise/BatchNorm/FusedBatchNorm/Scaled","op":"Const"},{"input":[],"attr":{"value":{"tensor":{"floatVal":[],"doubleVal":[],"intVal":[],"stringVal":[],"scomplexVal":[],"int64Val":[],"boolVal":[],"uint32Val":[],"uint64Val":[],"dtype":1,"tensorShape":{"dim":[{"size":"3"},{"size":"3"},{"size":"128"},{"size":"1"}]}}},"dtype":{"type":1}},"name":"FeatureExtractor/MobilenetV1/Conv2d_3_depthwise/depthwise_weights","op":"Const"},{"input":[],"attr":{"value":{"tensor":{"floatVal":[],"doubleVal":[],"intVal":[],"stringVal":[],"scomplexVal":[],"int64Val":[],"boolVal":[],"uint32Val":[],"uint64Val":[],"dtype":1,"tensorShape":{"dim":[{"size":"128"}]}}},"dtype":{"type":1}},"name":"FeatureExtractor/MobilenetV1/MobilenetV1/Conv2d_2_pointwise/BatchNorm/FusedBatchNorm/Offset","op":"Const"},{"input":[],"attr":{"value":{"tensor":{"floatVal":[],"doubleVal":[],"intVal":[],"stringVal":[],"scomplexVal":[],"int64Val":[],"boolVal":[],"uint32Val":[],"uint64Val":[],"dtype":1,"tensorShape":{"dim":[{"size":"1"},{"size":"1"},{"size":"64"},{"size":"128"}]}}},"dtype":{"type":1}},"name":"FeatureExtractor/MobilenetV1/MobilenetV1/Conv2d_2_pointwise/Conv2D/merged_input","op":"Const"},{"input":[],"attr":{"value":{"tensor":{"floatVal":[],"doubleVal":[],"intVal":[],"stringVal":[],"scomplexVal":[],"int64Val":[],"boolVal":[],"uint32Val":[],"uint64Val":[],"dtype":1,"tensorShape":{"dim":[{"size":"64"}]}}},"dtype":{"type":1}},"name":"FeatureExtractor/MobilenetV1/MobilenetV1/Conv2d_2_depthwise/BatchNorm/FusedBatchNorm/Offset","op":"Const"},{"input":[],"attr":{"value":{"tensor":{"floatVal":[],"doubleVal":[],"intVal":[],"stringVal":[],"scomplexVal":[],"int64Val":[],"boolVal":[],"uint32Val":[],"uint64Val":[],"dtype":1,"tensorShape":{"dim":[{"size":"64"}]}}},"dtype":{"type":1}},"name":"FeatureExtractor/MobilenetV1/MobilenetV1/Conv2d_2_depthwise/BatchNorm/FusedBatchNorm/Scaled","op":"Const"},{"input":[],"attr":{"value":{"tensor":{"floatVal":[],"doubleVal":[],"intVal":[],"stringVal":[],"scomplexVal":[],"int64Val":[],"boolVal":[],"uint32Val":[],"uint64Val":[],"dtype":1,"tensorShape":{"dim":[{"size":"3"},{"size":"3"},{"size":"64"},{"size":"1"}]}}},"dtype":{"type":1}},"name":"FeatureExtractor/MobilenetV1/Conv2d_2_depthwise/depthwise_weights","op":"Const"},{"input":[],"attr":{"value":{"tensor":{"floatVal":[],"doubleVal":[],"intVal":[],"stringVal":[],"scomplexVal":[],"int64Val":[],"boolVal":[],"uint32Val":[],"uint64Val":[],"dtype":1,"tensorShape":{"dim":[{"size":"64"}]}}},"dtype":{"type":1}},"name":"FeatureExtractor/MobilenetV1/MobilenetV1/Conv2d_1_pointwise/BatchNorm/FusedBatchNorm/Offset","op":"Const"},{"input":[],"attr":{"value":{"tensor":{"floatVal":[],"doubleVal":[],"intVal":[],"stringVal":[],"scomplexVal":[],"int64Val":[],"boolVal":[],"uint32Val":[],"uint64Val":[],"dtype":1,"tensorShape":{"dim":[{"size":"1"},{"size":"1"},{"size":"32"},{"size":"64"}]}}},"dtype":{"type":1}},"name":"FeatureExtractor/MobilenetV1/MobilenetV1/Conv2d_1_pointwise/Conv2D/merged_input","op":"Const"},{"input":[],"attr":{"value":{"tensor":{"floatVal":[],"doubleVal":[],"intVal":[],"stringVal":[],"scomplexVal":[],"int64Val":[],"boolVal":[],"uint32Val":[],"uint64Val":[],"dtype":1,"tensorShape":{"dim":[{"size":"32"}]}}},"dtype":{"type":1}},"name":"FeatureExtractor/MobilenetV1/MobilenetV1/Conv2d_1_depthwise/BatchNorm/FusedBatchNorm/Offset","op":"Const"},{"input":[],"attr":{"dtype":{"type":1},"value":{"tensor":{"floatVal":[],"doubleVal":[],"intVal":[],"stringVal":[],"scomplexVal":[],"int64Val":[],"boolVal":[],"uint32Val":[],"uint64Val":[],"dtype":1,"tensorShape":{"dim":[{"size":"32"}]}}}},"name":"FeatureExtractor/MobilenetV1/MobilenetV1/Conv2d_1_depthwise/BatchNorm/FusedBatchNorm/Scaled","op":"Const"},{"input":[],"attr":{"value":{"tensor":{"floatVal":[],"doubleVal":[],"intVal":[],"stringVal":[],"scomplexVal":[],"int64Val":[],"boolVal":[],"uint32Val":[],"uint64Val":[],"dtype":1,"tensorShape":{"dim":[{"size":"3"},{"size":"3"},{"size":"32"},{"size":"1"}]}}},"dtype":{"type":1}},"name":"FeatureExtractor/MobilenetV1/Conv2d_1_depthwise/depthwise_weights","op":"Const"},{"input":[],"attr":{"value":{"tensor":{"floatVal":[],"doubleVal":[],"intVal":[],"stringVal":[],"scomplexVal":[],"int64Val":[],"boolVal":[],"uint32Val":[],"uint64Val":[],"dtype":1,"tensorShape":{"dim":[{"size":"32"}]}}},"dtype":{"type":1}},"name":"FeatureExtractor/MobilenetV1/MobilenetV1/Conv2d_0/BatchNorm/FusedBatchNorm/Offset","op":"Const"},{"input":[],"attr":{"value":{"tensor":{"floatVal":[],"doubleVal":[],"intVal":[],"stringVal":[],"scomplexVal":[],"int64Val":[],"boolVal":[],"uint32Val":[],"uint64Val":[],"dtype":1,"tensorShape":{"dim":[{"size":"3"},{"size":"3"},{"size":"3"},{"size":"32"}]}}},"dtype":{"type":1}},"name":"FeatureExtractor/MobilenetV1/MobilenetV1/Conv2d_0/Conv2D/merged_input","op":"Const"},{"input":[],"attr":{"value":{"tensor":{"floatVal":[],"doubleVal":[],"intVal":[],"stringVal":[],"scomplexVal":[],"int64Val":[],"boolVal":[],"uint32Val":[],"uint64Val":[],"dtype":1,"tensorShape":{"dim":[{"size":"24"}]}}},"dtype":{"type":1}},"name":"BoxPredictor_5/BoxEncodingPredictor/biases","op":"Const"},{"input":[],"attr":{"value":{"tensor":{"floatVal":[],"doubleVal":[],"intVal":[],"stringVal":[],"scomplexVal":[],"int64Val":[],"boolVal":[],"uint32Val":[],"uint64Val":[],"dtype":1,"tensorShape":{"dim":[{"size":"1"},{"size":"1"},{"size":"128"},{"size":"24"}]}}},"dtype":{"type":1}},"name":"BoxPredictor_5/BoxEncodingPredictor/weights","op":"Const"},{"input":[],"attr":{"value":{"tensor":{"floatVal":[],"doubleVal":[],"intVal":[],"stringVal":[],"scomplexVal":[],"int64Val":[],"boolVal":[],"uint32Val":[],"uint64Val":[],"dtype":3,"tensorShape":{"dim":[]}}},"dtype":{"type":3}},"name":"BoxPredictor_4/stack_1/1","op":"Const"},{"input":[],"attr":{"value":{"tensor":{"floatVal":[],"doubleVal":[],"intVal":[],"stringVal":[],"scomplexVal":[],"int64Val":[],"boolVal":[],"uint32Val":[],"uint64Val":[],"dtype":1,"tensorShape":{"dim":[{"size":"24"}]}}},"dtype":{"type":1}},"name":"BoxPredictor_4/BoxEncodingPredictor/biases","op":"Const"},{"input":[],"attr":{"value":{"tensor":{"floatVal":[],"doubleVal":[],"intVal":[],"stringVal":[],"scomplexVal":[],"int64Val":[],"boolVal":[],"uint32Val":[],"uint64Val":[],"dtype":1,"tensorShape":{"dim":[{"size":"1"},{"size":"1"},{"size":"256"},{"size":"24"}]}}},"dtype":{"type":1}},"name":"BoxPredictor_4/BoxEncodingPredictor/weights","op":"Const"},{"input":[],"attr":{"value":{"tensor":{"floatVal":[],"doubleVal":[],"intVal":[],"stringVal":[],"scomplexVal":[],"int64Val":[],"boolVal":[],"uint32Val":[],"uint64Val":[],"dtype":3,"tensorShape":{"dim":[]}}},"dtype":{"type":3}},"name":"BoxPredictor_0/stack_1/1","op":"Const"},{"input":[],"attr":{"value":{"tensor":{"floatVal":[],"doubleVal":[],"intVal":[],"stringVal":[],"scomplexVal":[],"int64Val":[],"boolVal":[],"uint32Val":[],"uint64Val":[],"dtype":1,"tensorShape":{"dim":[{"size":"12"}]}}},"dtype":{"type":1}},"name":"BoxPredictor_0/BoxEncodingPredictor/biases","op":"Const"},{"input":[],"attr":{"value":{"tensor":{"floatVal":[],"doubleVal":[],"intVal":[],"stringVal":[],"scomplexVal":[],"int64Val":[],"boolVal":[],"uint32Val":[],"uint64Val":[],"dtype":1,"tensorShape":{"dim":[{"size":"1"},{"size":"1"},{"size":"512"},{"size":"12"}]}}},"dtype":{"type":1}},"name":"BoxPredictor_0/BoxEncodingPredictor/weights","op":"Const"},{"input":[],"attr":{"value":{"tensor":{"floatVal":[],"doubleVal":[],"intVal":[],"stringVal":[],"scomplexVal":[],"int64Val":[],"boolVal":[],"uint32Val":[],"uint64Val":[],"dtype":3,"tensorShape":{"dim":[]}}},"dtype":{"type":3}},"name":"BoxPredictor_3/stack_1/1","op":"Const"},{"input":[],"attr":{"value":{"tensor":{"floatVal":[],"doubleVal":[],"intVal":[],"stringVal":[],"scomplexVal":[],"int64Val":[],"boolVal":[],"uint32Val":[],"uint64Val":[],"dtype":1,"tensorShape":{"dim":[{"size":"24"}]}}},"dtype":{"type":1}},"name":"BoxPredictor_3/BoxEncodingPredictor/biases","op":"Const"},{"input":[],"attr":{"value":{"tensor":{"floatVal":[],"doubleVal":[],"intVal":[],"stringVal":[],"scomplexVal":[],"int64Val":[],"boolVal":[],"uint32Val":[],"uint64Val":[],"dtype":1,"tensorShape":{"dim":[{"size":"1"},{"size":"1"},{"size":"256"},{"size":"24"}]}}},"dtype":{"type":1}},"name":"BoxPredictor_3/BoxEncodingPredictor/weights","op":"Const"},{"input":[],"attr":{"value":{"tensor":{"floatVal":[],"doubleVal":[],"intVal":[],"stringVal":[],"scomplexVal":[],"int64Val":[],"boolVal":[],"uint32Val":[],"uint64Val":[],"dtype":3,"tensorShape":{"dim":[]}}},"dtype":{"type":3}},"name":"BoxPredictor_1/stack_1/1","op":"Const"},{"input":[],"attr":{"value":{"tensor":{"floatVal":[],"doubleVal":[],"intVal":[],"stringVal":[],"scomplexVal":[],"int64Val":[],"boolVal":[],"uint32Val":[],"uint64Val":[],"dtype":1,"tensorShape":{"dim":[{"size":"24"}]}}},"dtype":{"type":1}},"name":"BoxPredictor_1/BoxEncodingPredictor/biases","op":"Const"},{"input":[],"attr":{"value":{"tensor":{"floatVal":[],"doubleVal":[],"intVal":[],"stringVal":[],"scomplexVal":[],"int64Val":[],"boolVal":[],"uint32Val":[],"uint64Val":[],"dtype":1,"tensorShape":{"dim":[{"size":"1"},{"size":"1"},{"size":"1024"},{"size":"24"}]}}},"dtype":{"type":1}},"name":"BoxPredictor_1/BoxEncodingPredictor/weights","op":"Const"},{"input":[],"attr":{"value":{"tensor":{"floatVal":[],"doubleVal":[],"intVal":[],"stringVal":[],"scomplexVal":[],"int64Val":[],"boolVal":[],"uint32Val":[],"uint64Val":[],"dtype":3,"tensorShape":{"dim":[]}}},"dtype":{"type":3}},"name":"BoxPredictor_2/stack_1/1","op":"Const"},{"input":[],"attr":{"value":{"tensor":{"floatVal":[],"doubleVal":[],"intVal":[],"stringVal":[],"scomplexVal":[],"int64Val":[],"boolVal":[],"uint32Val":[],"uint64Val":[],"dtype":1,"tensorShape":{"dim":[{"size":"24"}]}}},"dtype":{"type":1}},"name":"BoxPredictor_2/BoxEncodingPredictor/biases","op":"Const"},{"input":[],"attr":{"value":{"tensor":{"floatVal":[],"doubleVal":[],"intVal":[],"stringVal":[],"scomplexVal":[],"int64Val":[],"boolVal":[],"uint32Val":[],"uint64Val":[],"dtype":1,"tensorShape":{"dim":[{"size":"1"},{"size":"1"},{"size":"512"},{"size":"24"}]}}},"dtype":{"type":1}},"name":"BoxPredictor_2/BoxEncodingPredictor/weights","op":"Const"},{"input":[],"attr":{"value":{"tensor":{"floatVal":[],"doubleVal":[],"intVal":[],"stringVal":[],"scomplexVal":[],"int64Val":[],"boolVal":[],"uint32Val":[],"uint64Val":[],"dtype":1,"tensorShape":{"dim":[]}}},"dtype":{"type":1}},"name":"ConstantFolding/Postprocessor/Decode/truediv_2_recip","op":"Const"},{"input":[],"attr":{"value":{"tensor":{"floatVal":[],"doubleVal":[],"intVal":[],"stringVal":[],"scomplexVal":[],"int64Val":[],"boolVal":[],"uint32Val":[],"uint64Val":[],"dtype":3,"tensorShape":{"dim":[{"size":"2"}]}}},"dtype":{"type":3}},"name":"Postprocessor/Reshape_1/shape","op":"Const"},{"input":[],"attr":{"value":{"tensor":{"floatVal":[],"doubleVal":[],"intVal":[],"stringVal":[],"scomplexVal":[],"int64Val":[],"boolVal":[],"uint32Val":[],"uint64Val":[],"dtype":1,"tensorShape":{"dim":[{"size":"1"},{"size":"1917"},{"size":"4"}]}}},"dtype":{"type":1}},"name":"Postprocessor/ExpandDims","op":"Const"},{"input":[],"attr":{"value":{"tensor":{"floatVal":[],"doubleVal":[],"intVal":[],"stringVal":[],"scomplexVal":[],"int64Val":[],"boolVal":[],"uint32Val":[],"uint64Val":[],"dtype":1,"tensorShape":{"dim":[]}}},"dtype":{"type":1}},"name":"ConstantFolding/Postprocessor/Decode/truediv_4_recip","op":"Const"},{"input":[],"attr":{"value":{"tensor":{"floatVal":[],"doubleVal":[],"intVal":[],"stringVal":[],"scomplexVal":[],"int64Val":[],"boolVal":[],"uint32Val":[],"uint64Val":[],"dtype":1,"tensorShape":{"dim":[]}}},"dtype":{"type":1}},"name":"ConstantFolding/Postprocessor/Decode/truediv_recip","op":"Const"},{"input":[],"attr":{"value":{"tensor":{"floatVal":[],"doubleVal":[],"intVal":[],"stringVal":[],"scomplexVal":[],"int64Val":[],"boolVal":[],"uint32Val":[],"uint64Val":[],"dtype":1,"tensorShape":{"dim":[{"size":"4"}]}}},"dtype":{"type":1}},"name":"Postprocessor/Const","op":"Const"},{"input":[],"attr":{"dtype":{"type":3},"value":{"tensor":{"floatVal":[],"doubleVal":[],"intVal":[],"stringVal":[],"scomplexVal":[],"int64Val":[],"boolVal":[],"uint32Val":[],"uint64Val":[],"dtype":3,"tensorShape":{"dim":[{"size":"3"}]}}}},"name":"Postprocessor/Slice/size","op":"Const"},{"input":[],"attr":{"value":{"tensor":{"floatVal":[],"doubleVal":[],"intVal":[],"stringVal":[],"scomplexVal":[],"int64Val":[],"boolVal":[],"uint32Val":[],"uint64Val":[],"dtype":3,"tensorShape":{"dim":[{"size":"3"}]}}},"dtype":{"type":3}},"name":"Postprocessor/Slice/begin","op":"Const"},{"input":[],"attr":{"value":{"tensor":{"floatVal":[],"doubleVal":[],"intVal":[],"stringVal":[],"scomplexVal":[],"int64Val":[],"boolVal":[],"uint32Val":[],"uint64Val":[],"dtype":1,"tensorShape":{"dim":[{"size":"12"}]}}},"dtype":{"type":1}},"name":"BoxPredictor_5/ClassPredictor/biases","op":"Const"},{"input":[],"attr":{"value":{"tensor":{"floatVal":[],"doubleVal":[],"intVal":[],"stringVal":[],"scomplexVal":[],"int64Val":[],"boolVal":[],"uint32Val":[],"uint64Val":[],"dtype":1,"tensorShape":{"dim":[{"size":"1"},{"size":"1"},{"size":"128"},{"size":"12"}]}}},"dtype":{"type":1}},"name":"BoxPredictor_5/ClassPredictor/weights","op":"Const"},{"input":[],"attr":{"dtype":{"type":1},"value":{"tensor":{"floatVal":[],"doubleVal":[],"intVal":[],"stringVal":[],"scomplexVal":[],"int64Val":[],"boolVal":[],"uint32Val":[],"uint64Val":[],"dtype":1,"tensorShape":{"dim":[{"size":"12"}]}}}},"name":"BoxPredictor_4/ClassPredictor/biases","op":"Const"},{"input":[],"attr":{"value":{"tensor":{"floatVal":[],"doubleVal":[],"intVal":[],"stringVal":[],"scomplexVal":[],"int64Val":[],"boolVal":[],"uint32Val":[],"uint64Val":[],"dtype":1,"tensorShape":{"dim":[{"size":"1"},{"size":"1"},{"size":"256"},{"size":"12"}]}}},"dtype":{"type":1}},"name":"BoxPredictor_4/ClassPredictor/weights","op":"Const"},{"input":[],"attr":{"dtype":{"type":1},"value":{"tensor":{"floatVal":[],"doubleVal":[],"intVal":[],"stringVal":[],"scomplexVal":[],"int64Val":[],"boolVal":[],"uint32Val":[],"uint64Val":[],"dtype":1,"tensorShape":{"dim":[{"size":"12"}]}}}},"name":"BoxPredictor_3/ClassPredictor/biases","op":"Const"},{"input":[],"attr":{"value":{"tensor":{"floatVal":[],"doubleVal":[],"intVal":[],"stringVal":[],"scomplexVal":[],"int64Val":[],"boolVal":[],"uint32Val":[],"uint64Val":[],"dtype":1,"tensorShape":{"dim":[{"size":"1"},{"size":"1"},{"size":"256"},{"size":"12"}]}}},"dtype":{"type":1}},"name":"BoxPredictor_3/ClassPredictor/weights","op":"Const"},{"input":[],"attr":{"value":{"tensor":{"floatVal":[],"doubleVal":[],"intVal":[],"stringVal":[],"scomplexVal":[],"int64Val":[],"boolVal":[],"uint32Val":[],"uint64Val":[],"dtype":1,"tensorShape":{"dim":[{"size":"12"}]}}},"dtype":{"type":1}},"name":"BoxPredictor_2/ClassPredictor/biases","op":"Const"},{"input":[],"attr":{"value":{"tensor":{"floatVal":[],"doubleVal":[],"intVal":[],"stringVal":[],"scomplexVal":[],"int64Val":[],"boolVal":[],"uint32Val":[],"uint64Val":[],"dtype":1,"tensorShape":{"dim":[{"size":"1"},{"size":"1"},{"size":"512"},{"size":"12"}]}}},"dtype":{"type":1}},"name":"BoxPredictor_2/ClassPredictor/weights","op":"Const"},{"input":[],"attr":{"value":{"tensor":{"floatVal":[],"doubleVal":[],"intVal":[],"stringVal":[],"scomplexVal":[],"int64Val":[],"boolVal":[],"uint32Val":[],"uint64Val":[],"dtype":1,"tensorShape":{"dim":[{"size":"12"}]}}},"dtype":{"type":1}},"name":"BoxPredictor_1/ClassPredictor/biases","op":"Const"},{"input":[],"attr":{"value":{"tensor":{"floatVal":[],"doubleVal":[],"intVal":[],"stringVal":[],"scomplexVal":[],"int64Val":[],"boolVal":[],"uint32Val":[],"uint64Val":[],"dtype":1,"tensorShape":{"dim":[{"size":"1"},{"size":"1"},{"size":"1024"},{"size":"12"}]}}},"dtype":{"type":1}},"name":"BoxPredictor_1/ClassPredictor/weights","op":"Const"},{"input":[],"attr":{"value":{"tensor":{"floatVal":[],"doubleVal":[],"intVal":[],"stringVal":[],"scomplexVal":[],"int64Val":[],"boolVal":[],"uint32Val":[],"uint64Val":[],"dtype":1,"tensorShape":{"dim":[{"size":"6"}]}}},"dtype":{"type":1}},"name":"BoxPredictor_0/ClassPredictor/biases","op":"Const"},{"input":[],"attr":{"value":{"tensor":{"floatVal":[],"doubleVal":[],"intVal":[],"stringVal":[],"scomplexVal":[],"int64Val":[],"boolVal":[],"uint32Val":[],"uint64Val":[],"dtype":1,"tensorShape":{"dim":[{"size":"1"},{"size":"1"},{"size":"512"},{"size":"6"}]}}},"dtype":{"type":1}},"name":"BoxPredictor_0/ClassPredictor/weights","op":"Const"},{"input":["image_tensor"],"attr":{"SrcT":{"type":4},"Truncate":{"b":false},"DstT":{"type":1}},"name":"ToFloat","op":"Cast"},{"input":["Postprocessor/BatchMultiClassNonMaxSuppression/map/TensorArrayStack/range/start"],"attr":{"T":{"type":3},"is_constant":{"b":false},"parallel_iterations":{"i":"10"},"frame_name":{"s":[80,114,101,112,114,111,99,101,115,115,111,114,47,109,97,112,47,119,104,105,108,101,47,119,104,105,108,101,95,99,111,110,116,101,120,116]}},"name":"Preprocessor/map/while/Enter","op":"Enter"},{"input":["Postprocessor/BatchMultiClassNonMaxSuppression/map/TensorArrayStack/range/start"],"attr":{"T":{"type":3},"is_constant":{"b":false},"parallel_iterations":{"i":"10"},"frame_name":{"s":[80,114,101,112,114,111,99,101,115,115,111,114,47,109,97,112,47,119,104,105,108,101,47,119,104,105,108,101,95,99,111,110,116,101,120,116]}},"name":"Preprocessor/map/while/Enter_1","op":"Enter"},{"input":["Postprocessor/BatchMultiClassNonMaxSuppression/map/TensorArrayStack/range/start"],"attr":{"T":{"type":3},"is_constant":{"b":false},"parallel_iterations":{"i":"32"},"frame_name":{"s":[80,111,115,116,112,114,111,99,101,115,115,111,114,47,66,97,116,99,104,77,117,108,116,105,67,108,97,115,115,78,111,110,77,97,120,83,117,112,112,114,101,115,115,105,111,110,47,109,97,112,47,119,104,105,108,101,47,119,104,105,108,101,95,99,111,110,116,101,120,116]}},"name":"Postprocessor/BatchMultiClassNonMaxSuppression/map/while/Enter","op":"Enter"},{"input":["Postprocessor/BatchMultiClassNonMaxSuppression/map/TensorArrayStack/range/start"],"attr":{"T":{"type":3},"is_constant":{"b":false},"parallel_iterations":{"i":"32"},"frame_name":{"s":[80,111,115,116,112,114,111,99,101,115,115,111,114,47,66,97,116,99,104,77,117,108,116,105,67,108,97,115,115,78,111,110,77,97,120,83,117,112,112,114,101,115,115,105,111,110,47,109,97,112,47,119,104,105,108,101,47,119,104,105,108,101,95,99,111,110,116,101,120,116]}},"name":"Postprocessor/BatchMultiClassNonMaxSuppression/map/while/Enter_1","op":"Enter"},{"input":["Postprocessor/Const"],"attr":{"T":{"type":1},"is_constant":{"b":true},"parallel_iterations":{"i":"32"},"frame_name":{"s":[80,111,115,116,112,114,111,99,101,115,115,111,114,47,66,97,116,99,104,77,117,108,116,105,67,108,97,115,115,78,111,110,77,97,120,83,117,112,112,114,101,115,115,105,111,110,47,109,97,112,47,119,104,105,108,101,47,119,104,105,108,101,95,99,111,110,116,101,120,116]}},"name":"Postprocessor/BatchMultiClassNonMaxSuppression/map/while/MultiClassNonMaxSuppression/ClipToWindow/unstack/Enter","op":"Enter"},{"input":["ToFloat"],"attr":{"T":{"type":1},"out_type":{"type":3}},"name":"Preprocessor/map/TensorArrayUnstack/Shape","op":"Shape"},{"input":["Preprocessor/map/while/Enter","Preprocessor/map/while/NextIteration"],"attr":{"T":{"type":3},"N":{"i":"2"}},"name":"Preprocessor/map/while/Merge","op":"Merge"},{"input":["Preprocessor/map/while/Enter_1","Preprocessor/map/while/NextIteration_1"],"attr":{"T":{"type":3},"N":{"i":"2"}},"name":"Preprocessor/map/while/Merge_1","op":"Merge"},{"input":["Postprocessor/BatchMultiClassNonMaxSuppression/map/while/Enter","Postprocessor/BatchMultiClassNonMaxSuppression/map/while/NextIteration"],"attr":{"T":{"type":3},"N":{"i":"2"}},"name":"Postprocessor/BatchMultiClassNonMaxSuppression/map/while/Merge","op":"Merge"},{"input":["Postprocessor/BatchMultiClassNonMaxSuppression/map/while/Enter_1","Postprocessor/BatchMultiClassNonMaxSuppression/map/while/NextIteration_1"],"attr":{"T":{"type":3},"N":{"i":"2"}},"name":"Postprocessor/BatchMultiClassNonMaxSuppression/map/while/Merge_1","op":"Merge"},{"input":["Preprocessor/map/TensorArrayUnstack/Shape","Postprocessor/BatchMultiClassNonMaxSuppression/map/TensorArrayUnstack_1/strided_slice/stack","Postprocessor/BatchMultiClassNonMaxSuppression/map/TensorArrayUnstack_1/strided_slice/stack_1","Postprocessor/BatchMultiClassNonMaxSuppression/map/TensorArrayUnstack_1/strided_slice/stack_1"],"attr":{"Index":{"type":3},"T":{"type":3},"shrink_axis_mask":{"i":"1"},"ellipsis_mask":{"i":"0"},"begin_mask":{"i":"0"},"new_axis_mask":{"i":"0"},"end_mask":{"i":"0"}},"name":"Preprocessor/map/TensorArrayUnstack/strided_slice","op":"StridedSlice"},{"input":["Preprocessor/map/TensorArrayUnstack/strided_slice"],"attr":{"frame_name":{"s":[80,114,101,112,114,111,99,101,115,115,111,114,47,109,97,112,47,119,104,105,108,101,47,119,104,105,108,101,95,99,111,110,116,101,120,116]},"T":{"type":3},"is_constant":{"b":true},"parallel_iterations":{"i":"10"}},"name":"Preprocessor/map/while/Less/Enter","op":"Enter"},{"input":["Preprocessor/map/TensorArrayUnstack/strided_slice"],"attr":{"tensor_array_name":{"s":[]},"dtype":{"type":1},"element_shape":{"shape":{"dim":[],"unknownRank":true}},"dynamic_size":{"b":false},"clear_after_read":{"b":true},"identical_element_shapes":{"b":true}},"name":"Preprocessor/map/TensorArray","op":"TensorArrayV3"},{"input":["Postprocessor/BatchMultiClassNonMaxSuppression/map/TensorArrayStack/range/start","Preprocessor/map/TensorArrayUnstack/strided_slice","Postprocessor/BatchMultiClassNonMaxSuppression/map/TensorArrayStack/range/delta"],"attr":{"Tidx":{"type":3}},"name":"Preprocessor/map/TensorArrayUnstack/range","op":"Range"},{"input":["Preprocessor/map/TensorArrayUnstack/strided_slice"],"attr":{"tensor_array_name":{"s":[]},"dtype":{"type":1},"element_shape":{"shape":{"dim":[],"unknownRank":true}},"clear_after_read":{"b":true},"dynamic_size":{"b":false},"identical_element_shapes":{"b":true}},"name":"Preprocessor/map/TensorArray_1","op":"TensorArrayV3"},{"input":["Preprocessor/map/while/Merge_1","Preprocessor/map/while/Less/Enter"],"attr":{"T":{"type":3}},"name":"Preprocessor/map/while/Less_1","op":"Less"},{"input":["Preprocessor/map/while/Merge","Preprocessor/map/while/Less/Enter"],"attr":{"T":{"type":3}},"name":"Preprocessor/map/while/Less","op":"Less"},{"input":["Preprocessor/map/TensorArray"],"attr":{"frame_name":{"s":[80,114,101,112,114,111,99,101,115,115,111,114,47,109,97,112,47,119,104,105,108,101,47,119,104,105,108,101,95,99,111,110,116,101,120,116]},"T":{"type":20},"is_constant":{"b":true},"parallel_iterations":{"i":"10"}},"name":"Preprocessor/map/while/TensorArrayReadV3/Enter","op":"Enter"},{"input":["Preprocessor/map/TensorArray","Preprocessor/map/TensorArrayUnstack/range","ToFloat","Preprocessor/map/TensorArray:1"],"attr":{"T":{"type":1}},"name":"Preprocessor/map/TensorArrayUnstack/TensorArrayScatter/TensorArrayScatterV3","op":"TensorArrayScatterV3"},{"input":["Preprocessor/map/TensorArray_1"],"attr":{"is_constant":{"b":true},"parallel_iterations":{"i":"10"},"frame_name":{"s":[80,114,101,112,114,111,99,101,115,115,111,114,47,109,97,112,47,119,104,105,108,101,47,119,104,105,108,101,95,99,111,110,116,101,120,116]},"T":{"type":20}},"name":"Preprocessor/map/while/TensorArrayWrite/TensorArrayWriteV3/Enter","op":"Enter"},{"input":["Preprocessor/map/TensorArray_1:1"],"attr":{"T":{"type":1},"is_constant":{"b":false},"parallel_iterations":{"i":"10"},"frame_name":{"s":[80,114,101,112,114,111,99,101,115,115,111,114,47,109,97,112,47,119,104,105,108,101,47,119,104,105,108,101,95,99,111,110,116,101,120,116]}},"name":"Preprocessor/map/while/Enter_2","op":"Enter"},{"input":["Preprocessor/map/while/Less","Preprocessor/map/while/Less_1"],"attr":{},"name":"Preprocessor/map/while/LogicalAnd","op":"LogicalAnd"},{"input":["Preprocessor/map/TensorArrayUnstack/TensorArrayScatter/TensorArrayScatterV3"],"attr":{"T":{"type":1},"is_constant":{"b":true},"parallel_iterations":{"i":"10"},"frame_name":{"s":[80,114,101,112,114,111,99,101,115,115,111,114,47,109,97,112,47,119,104,105,108,101,47,119,104,105,108,101,95,99,111,110,116,101,120,116]}},"name":"Preprocessor/map/while/TensorArrayReadV3/Enter_1","op":"Enter"},{"input":["Preprocessor/map/while/Enter_2","Preprocessor/map/while/NextIteration_2"],"attr":{"T":{"type":1},"N":{"i":"2"}},"name":"Preprocessor/map/while/Merge_2","op":"Merge"},{"input":["Preprocessor/map/while/LogicalAnd"],"attr":{},"name":"Preprocessor/map/while/LoopCond","op":"LoopCond"},{"input":["Preprocessor/map/while/Merge_2","Preprocessor/map/while/LoopCond"],"attr":{"T":{"type":1}},"name":"Preprocessor/map/while/Switch_2","op":"Switch"},{"input":["Preprocessor/map/while/Merge","Preprocessor/map/while/LoopCond"],"attr":{"T":{"type":3}},"name":"Preprocessor/map/while/Switch","op":"Switch"},{"input":["Preprocessor/map/while/Merge_1","Preprocessor/map/while/LoopCond"],"attr":{"T":{"type":3}},"name":"Preprocessor/map/while/Switch_1","op":"Switch"},{"input":["Preprocessor/map/while/Switch_2"],"attr":{"T":{"type":1}},"name":"Preprocessor/map/while/Exit_2","op":"Exit"},{"input":["Preprocessor/map/while/Switch:1"],"attr":{"T":{"type":3}},"name":"Preprocessor/map/while/Identity","op":"Identity"},{"input":["Preprocessor/map/while/TensorArrayReadV3/Enter","Preprocessor/map/while/Switch_1:1","Preprocessor/map/while/TensorArrayReadV3/Enter_1"],"attr":{"dtype":{"type":1}},"name":"Preprocessor/map/while/TensorArrayReadV3","op":"TensorArrayReadV3"},{"input":["Preprocessor/map/TensorArray_1","Preprocessor/map/while/Exit_2"],"attr":{},"name":"Preprocessor/map/TensorArrayStack/TensorArraySizeV3","op":"TensorArraySizeV3"},{"input":["^Preprocessor/map/while/Identity"],"attr":{"value":{"tensor":{"floatVal":[],"doubleVal":[],"intVal":[],"stringVal":[],"scomplexVal":[],"int64Val":[],"boolVal":[],"uint32Val":[],"uint64Val":[],"dtype":3,"tensorShape":{"dim":[]}}},"dtype":{"type":3}},"name":"Preprocessor/map/while/add/y","op":"Const"},{"input":["^Preprocessor/map/while/Identity"],"attr":{"value":{"tensor":{"floatVal":[],"doubleVal":[],"intVal":[],"stringVal":[],"scomplexVal":[],"int64Val":[],"boolVal":[],"uint32Val":[],"uint64Val":[],"dtype":3,"tensorShape":{"dim":[{"size":"2"}]}}},"dtype":{"type":3}},"name":"Preprocessor/map/while/ResizeImage/resize_images/size","op":"Const"},{"input":["^Preprocessor/map/while/Identity"],"attr":{"dtype":{"type":3},"value":{"tensor":{"floatVal":[],"doubleVal":[],"intVal":[],"stringVal":[],"scomplexVal":[],"int64Val":[],"boolVal":[],"uint32Val":[],"uint64Val":[],"dtype":3,"tensorShape":{"dim":[]}}}},"name":"Preprocessor/map/while/ResizeImage/resize_images/ExpandDims/dim","op":"Const"},{"input":["Postprocessor/BatchMultiClassNonMaxSuppression/map/TensorArrayStack/range/start","Preprocessor/map/TensorArrayStack/TensorArraySizeV3","Postprocessor/BatchMultiClassNonMaxSuppression/map/TensorArrayStack/range/delta"],"attr":{"Tidx":{"type":3}},"name":"Preprocessor/map/TensorArrayStack/range","op":"Range"},{"input":["Preprocessor/map/while/Switch_1:1","Preprocessor/map/while/add/y"],"attr":{"T":{"type":3}},"name":"Preprocessor/map/while/add_1","op":"Add"},{"input":["Preprocessor/map/while/Identity","Preprocessor/map/while/add/y"],"attr":{"T":{"type":3}},"name":"Preprocessor/map/while/add","op":"Add"},{"input":["Preprocessor/map/while/TensorArrayReadV3","Preprocessor/map/while/ResizeImage/resize_images/ExpandDims/dim"],"attr":{"Tdim":{"type":3},"T":{"type":1}},"name":"Preprocessor/map/while/ResizeImage/resize_images/ExpandDims","op":"ExpandDims"},{"input":["Preprocessor/map/TensorArray_1","Preprocessor/map/TensorArrayStack/range","Preprocessor/map/while/Exit_2"],"attr":{"dtype":{"type":1},"element_shape":{"shape":{"dim":[{"size":"300"},{"size":"300"},{"size":"3"}]}}},"name":"Preprocessor/map/TensorArrayStack/TensorArrayGatherV3","op":"TensorArrayGatherV3"},{"input":["Preprocessor/map/while/add_1"],"attr":{"T":{"type":3}},"name":"Preprocessor/map/while/NextIteration_1","op":"NextIteration"},{"input":["Preprocessor/map/while/add"],"attr":{"T":{"type":3}},"name":"Preprocessor/map/while/NextIteration","op":"NextIteration"},{"input":["Preprocessor/map/while/ResizeImage/resize_images/ExpandDims","Preprocessor/map/while/ResizeImage/resize_images/size"],"attr":{"align_corners":{"b":false},"T":{"type":1}},"name":"Preprocessor/map/while/ResizeImage/resize_images/ResizeBilinear","op":"ResizeBilinear"},{"input":["Preprocessor/mul/x","Preprocessor/map/TensorArrayStack/TensorArrayGatherV3"],"attr":{"T":{"type":1}},"name":"Preprocessor/mul","op":"Mul"},{"input":["Preprocessor/map/while/ResizeImage/resize_images/ResizeBilinear"],"attr":{"squeeze_dims":{"list":{"s":[],"i":["0"],"f":[],"b":[],"type":[],"shape":[],"tensor":[],"func":[]}},"T":{"type":1}},"name":"Preprocessor/map/while/ResizeImage/resize_images/Squeeze","op":"Squeeze"},{"input":["Preprocessor/mul","add_6/y"],"attr":{"T":{"type":1}},"name":"Preprocessor/sub","op":"Sub"},{"input":["Preprocessor/map/while/TensorArrayWrite/TensorArrayWriteV3/Enter","Preprocessor/map/while/Switch_1:1","Preprocessor/map/while/ResizeImage/resize_images/Squeeze","Preprocessor/map/while/Switch_2:1"],"attr":{"T":{"type":1}},"name":"Preprocessor/map/while/TensorArrayWrite/TensorArrayWriteV3","op":"TensorArrayWriteV3"},{"input":["^Preprocessor/sub"],"attr":{"value":{"tensor":{"floatVal":[],"doubleVal":[],"intVal":[],"stringVal":[],"scomplexVal":[],"int64Val":[],"boolVal":[],"uint32Val":[],"uint64Val":[],"dtype":3,"tensorShape":{"dim":[]}}},"dtype":{"type":3}},"name":"FeatureExtractor/MobilenetV1/zeros_6/packed/2","op":"Const"},{"input":["^Preprocessor/sub"],"attr":{"dtype":{"type":1},"value":{"tensor":{"floatVal":[],"doubleVal":[],"intVal":[],"stringVal":[],"scomplexVal":[],"int64Val":[],"boolVal":[],"uint32Val":[],"uint64Val":[],"dtype":1,"tensorShape":{"dim":[]}}}},"name":"FeatureExtractor/MobilenetV1/zeros_6/Const","op":"Const"},{"input":["^Preprocessor/sub"],"attr":{"value":{"tensor":{"floatVal":[],"doubleVal":[],"intVal":[],"stringVal":[],"scomplexVal":[],"int64Val":[],"boolVal":[],"uint32Val":[],"uint64Val":[],"dtype":3,"tensorShape":{"dim":[]}}},"dtype":{"type":3}},"name":"FeatureExtractor/MobilenetV1/zeros_6/packed/3","op":"Const"},{"input":["^Preprocessor/sub"],"attr":{"value":{"tensor":{"floatVal":[],"doubleVal":[],"intVal":[],"stringVal":[],"scomplexVal":[],"int64Val":[],"boolVal":[],"uint32Val":[],"uint64Val":[],"dtype":3,"tensorShape":{"dim":[]}}},"dtype":{"type":3}},"name":"FeatureExtractor/MobilenetV1/zeros_6/packed/1","op":"Const"},{"input":["^Preprocessor/sub"],"attr":{"value":{"tensor":{"floatVal":[],"doubleVal":[],"intVal":[],"stringVal":[],"scomplexVal":[],"int64Val":[],"boolVal":[],"uint32Val":[],"uint64Val":[],"dtype":3,"tensorShape":{"dim":[{"size":"1"}]}}},"dtype":{"type":3}},"name":"FeatureExtractor/MobilenetV1/strided_slice/stack_1","op":"Const"},{"input":["^Preprocessor/sub"],"attr":{"dtype":{"type":3},"value":{"tensor":{"floatVal":[],"doubleVal":[],"intVal":[],"stringVal":[],"scomplexVal":[],"int64Val":[],"boolVal":[],"uint32Val":[],"uint64Val":[],"dtype":3,"tensorShape":{"dim":[{"size":"1"}]}}}},"name":"FeatureExtractor/MobilenetV1/strided_slice/stack","op":"Const"},{"input":["^Preprocessor/sub"],"attr":{"value":{"tensor":{"floatVal":[],"doubleVal":[],"intVal":[],"stringVal":[],"scomplexVal":[],"int64Val":[],"boolVal":[],"uint32Val":[],"uint64Val":[],"dtype":3,"tensorShape":{"dim":[]}}},"dtype":{"type":3}},"name":"FeatureExtractor/MobilenetV1/zeros_4/packed/3","op":"Const"},{"input":["^Preprocessor/sub"],"attr":{"value":{"tensor":{"floatVal":[],"doubleVal":[],"intVal":[],"stringVal":[],"scomplexVal":[],"int64Val":[],"boolVal":[],"uint32Val":[],"uint64Val":[],"dtype":3,"tensorShape":{"dim":[]}}},"dtype":{"type":3}},"name":"FeatureExtractor/MobilenetV1/concat_6/axis","op":"Const"},{"input":["^Preprocessor/sub"],"attr":{"value":{"tensor":{"floatVal":[],"doubleVal":[],"intVal":[],"stringVal":[],"scomplexVal":[],"int64Val":[],"boolVal":[],"uint32Val":[],"uint64Val":[],"dtype":3,"tensorShape":{"dim":[]}}},"dtype":{"type":3}},"name":"FeatureExtractor/MobilenetV1/zeros_5/packed/1","op":"Const"},{"input":["^Preprocessor/sub"],"attr":{"value":{"tensor":{"floatVal":[],"doubleVal":[],"intVal":[],"stringVal":[],"scomplexVal":[],"int64Val":[],"boolVal":[],"uint32Val":[],"uint64Val":[],"dtype":3,"tensorShape":{"dim":[]}}},"dtype":{"type":3}},"name":"FeatureExtractor/MobilenetV1/zeros_3/packed/1","op":"Const"},{"input":["^Preprocessor/sub"],"attr":{"value":{"tensor":{"floatVal":[],"doubleVal":[],"intVal":[],"stringVal":[],"scomplexVal":[],"int64Val":[],"boolVal":[],"uint32Val":[],"uint64Val":[],"dtype":3,"tensorShape":{"dim":[]}}},"dtype":{"type":3}},"name":"FeatureExtractor/MobilenetV1/zeros/packed/3","op":"Const"},{"input":["^Preprocessor/sub"],"attr":{"value":{"tensor":{"floatVal":[],"doubleVal":[],"intVal":[],"stringVal":[],"scomplexVal":[],"int64Val":[],"boolVal":[],"uint32Val":[],"uint64Val":[],"dtype":3,"tensorShape":{"dim":[]}}},"dtype":{"type":3}},"name":"FeatureExtractor/MobilenetV1/zeros/packed/2","op":"Const"},{"input":["Preprocessor/sub","FeatureExtractor/MobilenetV1/MobilenetV1/Conv2d_0/Conv2D/merged_input"],"attr":{"strides":{"list":{"s":[],"i":["1","2","2","1"],"f":[],"b":[],"type":[],"shape":[],"tensor":[],"func":[]}},"data_format":{"s":[78,72,87,67]},"use_cudnn_on_gpu":{"b":true},"padding":{"s":[83,65,77,69]},"dilations":{"list":{"s":[],"i":["1","1","1","1"],"f":[],"b":[],"type":[],"shape":[],"tensor":[],"func":[]}},"T":{"type":1}},"name":"FeatureExtractor/MobilenetV1/MobilenetV1/Conv2d_0/BatchNorm/FusedBatchNorm/Mul","op":"Conv2D"},{"input":["^Preprocessor/sub"],"attr":{"value":{"tensor":{"floatVal":[],"doubleVal":[],"intVal":[],"stringVal":[],"scomplexVal":[],"int64Val":[],"boolVal":[],"uint32Val":[],"uint64Val":[],"dtype":3,"tensorShape":{"dim":[]}}},"dtype":{"type":3}},"name":"FeatureExtractor/MobilenetV1/zeros_2/packed/2","op":"Const"},{"input":["^Preprocessor/sub"],"attr":{"value":{"tensor":{"floatVal":[],"doubleVal":[],"intVal":[],"stringVal":[],"scomplexVal":[],"int64Val":[],"boolVal":[],"uint32Val":[],"uint64Val":[],"dtype":3,"tensorShape":{"dim":[]}}},"dtype":{"type":3}},"name":"FeatureExtractor/MobilenetV1/zeros_4/packed/2","op":"Const"},{"input":["Preprocessor/map/while/TensorArrayWrite/TensorArrayWriteV3"],"attr":{"T":{"type":1}},"name":"Preprocessor/map/while/NextIteration_2","op":"NextIteration"},{"input":["FeatureExtractor/MobilenetV1/MobilenetV1/Conv2d_0/BatchNorm/FusedBatchNorm/Mul","FeatureExtractor/MobilenetV1/MobilenetV1/Conv2d_0/BatchNorm/FusedBatchNorm/Offset"],"attr":{"T":{"type":1}},"name":"FeatureExtractor/MobilenetV1/MobilenetV1/Conv2d_0/BatchNorm/FusedBatchNorm","op":"Add"},{"input":["FeatureExtractor/MobilenetV1/MobilenetV1/Conv2d_0/BatchNorm/FusedBatchNorm"],"attr":{"T":{"type":1}},"name":"FeatureExtractor/MobilenetV1/MobilenetV1/Conv2d_0/Relu6","op":"Relu6"},{"input":["FeatureExtractor/MobilenetV1/MobilenetV1/Conv2d_0/Relu6","FeatureExtractor/MobilenetV1/Conv2d_1_depthwise/depthwise_weights"],"attr":{"dilations":{"list":{"s":[],"i":["1","1","1","1"],"f":[],"b":[],"type":[],"shape":[],"tensor":[],"func":[]}},"padding":{"s":[83,65,77,69]},"T":{"type":1},"data_format":{"s":[78,72,87,67]},"strides":{"list":{"s":[],"i":["1","1","1","1"],"f":[],"b":[],"type":[],"shape":[],"tensor":[],"func":[]}}},"name":"FeatureExtractor/MobilenetV1/MobilenetV1/Conv2d_1_depthwise/depthwise","op":"DepthwiseConv2dNative"},{"input":["FeatureExtractor/MobilenetV1/MobilenetV1/Conv2d_1_depthwise/depthwise","FeatureExtractor/MobilenetV1/MobilenetV1/Conv2d_1_depthwise/BatchNorm/FusedBatchNorm/Scaled"],"attr":{"T":{"type":1}},"name":"FeatureExtractor/MobilenetV1/MobilenetV1/Conv2d_1_depthwise/BatchNorm/FusedBatchNorm/Mul","op":"Mul"},{"input":["FeatureExtractor/MobilenetV1/MobilenetV1/Conv2d_1_depthwise/BatchNorm/FusedBatchNorm/Mul","FeatureExtractor/MobilenetV1/MobilenetV1/Conv2d_1_depthwise/BatchNorm/FusedBatchNorm/Offset"],"attr":{"T":{"type":1}},"name":"FeatureExtractor/MobilenetV1/MobilenetV1/Conv2d_1_depthwise/BatchNorm/FusedBatchNorm","op":"Add"},{"input":["FeatureExtractor/MobilenetV1/MobilenetV1/Conv2d_1_depthwise/BatchNorm/FusedBatchNorm"],"attr":{"T":{"type":1}},"name":"FeatureExtractor/MobilenetV1/MobilenetV1/Conv2d_1_depthwise/Relu6","op":"Relu6"},{"input":["FeatureExtractor/MobilenetV1/MobilenetV1/Conv2d_1_depthwise/Relu6","FeatureExtractor/MobilenetV1/MobilenetV1/Conv2d_1_pointwise/Conv2D/merged_input"],"attr":{"T":{"type":1},"strides":{"list":{"s":[],"i":["1","1","1","1"],"f":[],"b":[],"type":[],"shape":[],"tensor":[],"func":[]}},"data_format":{"s":[78,72,87,67]},"use_cudnn_on_gpu":{"b":true},"padding":{"s":[83,65,77,69]},"dilations":{"list":{"s":[],"i":["1","1","1","1"],"f":[],"b":[],"type":[],"shape":[],"tensor":[],"func":[]}}},"name":"FeatureExtractor/MobilenetV1/MobilenetV1/Conv2d_1_pointwise/BatchNorm/FusedBatchNorm/Mul","op":"Conv2D"},{"input":["FeatureExtractor/MobilenetV1/MobilenetV1/Conv2d_1_pointwise/BatchNorm/FusedBatchNorm/Mul","FeatureExtractor/MobilenetV1/MobilenetV1/Conv2d_1_pointwise/BatchNorm/FusedBatchNorm/Offset"],"attr":{"T":{"type":1}},"name":"FeatureExtractor/MobilenetV1/MobilenetV1/Conv2d_1_pointwise/BatchNorm/FusedBatchNorm","op":"Add"},{"input":["FeatureExtractor/MobilenetV1/MobilenetV1/Conv2d_1_pointwise/BatchNorm/FusedBatchNorm"],"attr":{"T":{"type":1}},"name":"FeatureExtractor/MobilenetV1/MobilenetV1/Conv2d_1_pointwise/Relu6","op":"Relu6"},{"input":["FeatureExtractor/MobilenetV1/MobilenetV1/Conv2d_1_pointwise/Relu6","FeatureExtractor/MobilenetV1/Conv2d_2_depthwise/depthwise_weights"],"attr":{"T":{"type":1},"strides":{"list":{"s":[],"i":["1","2","2","1"],"f":[],"b":[],"type":[],"shape":[],"tensor":[],"func":[]}},"data_format":{"s":[78,72,87,67]},"dilations":{"list":{"s":[],"i":["1","1","1","1"],"f":[],"b":[],"type":[],"shape":[],"tensor":[],"func":[]}},"padding":{"s":[83,65,77,69]}},"name":"FeatureExtractor/MobilenetV1/MobilenetV1/Conv2d_2_depthwise/depthwise","op":"DepthwiseConv2dNative"},{"input":["FeatureExtractor/MobilenetV1/MobilenetV1/Conv2d_2_depthwise/depthwise","FeatureExtractor/MobilenetV1/MobilenetV1/Conv2d_2_depthwise/BatchNorm/FusedBatchNorm/Scaled"],"attr":{"T":{"type":1}},"name":"FeatureExtractor/MobilenetV1/MobilenetV1/Conv2d_2_depthwise/BatchNorm/FusedBatchNorm/Mul","op":"Mul"},{"input":["FeatureExtractor/MobilenetV1/MobilenetV1/Conv2d_2_depthwise/BatchNorm/FusedBatchNorm/Mul","FeatureExtractor/MobilenetV1/MobilenetV1/Conv2d_2_depthwise/BatchNorm/FusedBatchNorm/Offset"],"attr":{"T":{"type":1}},"name":"FeatureExtractor/MobilenetV1/MobilenetV1/Conv2d_2_depthwise/BatchNorm/FusedBatchNorm","op":"Add"},{"input":["FeatureExtractor/MobilenetV1/MobilenetV1/Conv2d_2_depthwise/BatchNorm/FusedBatchNorm"],"attr":{"T":{"type":1}},"name":"FeatureExtractor/MobilenetV1/MobilenetV1/Conv2d_2_depthwise/Relu6","op":"Relu6"},{"input":["FeatureExtractor/MobilenetV1/MobilenetV1/Conv2d_2_depthwise/Relu6","FeatureExtractor/MobilenetV1/MobilenetV1/Conv2d_2_pointwise/Conv2D/merged_input"],"attr":{"dilations":{"list":{"s":[],"i":["1","1","1","1"],"f":[],"b":[],"type":[],"shape":[],"tensor":[],"func":[]}},"T":{"type":1},"strides":{"list":{"s":[],"i":["1","1","1","1"],"f":[],"b":[],"type":[],"shape":[],"tensor":[],"func":[]}},"data_format":{"s":[78,72,87,67]},"use_cudnn_on_gpu":{"b":true},"padding":{"s":[83,65,77,69]}},"name":"FeatureExtractor/MobilenetV1/MobilenetV1/Conv2d_2_pointwise/BatchNorm/FusedBatchNorm/Mul","op":"Conv2D"},{"input":["FeatureExtractor/MobilenetV1/MobilenetV1/Conv2d_2_pointwise/BatchNorm/FusedBatchNorm/Mul","FeatureExtractor/MobilenetV1/MobilenetV1/Conv2d_2_pointwise/BatchNorm/FusedBatchNorm/Offset"],"attr":{"T":{"type":1}},"name":"FeatureExtractor/MobilenetV1/MobilenetV1/Conv2d_2_pointwise/BatchNorm/FusedBatchNorm","op":"Add"},{"input":["FeatureExtractor/MobilenetV1/MobilenetV1/Conv2d_2_pointwise/BatchNorm/FusedBatchNorm"],"attr":{"T":{"type":1}},"name":"FeatureExtractor/MobilenetV1/MobilenetV1/Conv2d_2_pointwise/Relu6","op":"Relu6"},{"input":["FeatureExtractor/MobilenetV1/MobilenetV1/Conv2d_2_pointwise/Relu6","FeatureExtractor/MobilenetV1/Conv2d_3_depthwise/depthwise_weights"],"attr":{"data_format":{"s":[78,72,87,67]},"strides":{"list":{"s":[],"i":["1","1","1","1"],"f":[],"b":[],"type":[],"shape":[],"tensor":[],"func":[]}},"dilations":{"list":{"s":[],"i":["1","1","1","1"],"f":[],"b":[],"type":[],"shape":[],"tensor":[],"func":[]}},"padding":{"s":[83,65,77,69]},"T":{"type":1}},"name":"FeatureExtractor/MobilenetV1/MobilenetV1/Conv2d_3_depthwise/depthwise","op":"DepthwiseConv2dNative"},{"input":["FeatureExtractor/MobilenetV1/MobilenetV1/Conv2d_3_depthwise/depthwise","FeatureExtractor/MobilenetV1/MobilenetV1/Conv2d_3_depthwise/BatchNorm/FusedBatchNorm/Scaled"],"attr":{"T":{"type":1}},"name":"FeatureExtractor/MobilenetV1/MobilenetV1/Conv2d_3_depthwise/BatchNorm/FusedBatchNorm/Mul","op":"Mul"},{"input":["FeatureExtractor/MobilenetV1/MobilenetV1/Conv2d_3_depthwise/BatchNorm/FusedBatchNorm/Mul","FeatureExtractor/MobilenetV1/MobilenetV1/Conv2d_3_depthwise/BatchNorm/FusedBatchNorm/Offset"],"attr":{"T":{"type":1}},"name":"FeatureExtractor/MobilenetV1/MobilenetV1/Conv2d_3_depthwise/BatchNorm/FusedBatchNorm","op":"Add"},{"input":["FeatureExtractor/MobilenetV1/MobilenetV1/Conv2d_3_depthwise/BatchNorm/FusedBatchNorm"],"attr":{"T":{"type":1}},"name":"FeatureExtractor/MobilenetV1/MobilenetV1/Conv2d_3_depthwise/Relu6","op":"Relu6"},{"input":["FeatureExtractor/MobilenetV1/MobilenetV1/Conv2d_3_depthwise/Relu6","FeatureExtractor/MobilenetV1/MobilenetV1/Conv2d_3_pointwise/Conv2D/merged_input"],"attr":{"use_cudnn_on_gpu":{"b":true},"padding":{"s":[83,65,77,69]},"dilations":{"list":{"s":[],"i":["1","1","1","1"],"f":[],"b":[],"type":[],"shape":[],"tensor":[],"func":[]}},"T":{"type":1},"data_format":{"s":[78,72,87,67]},"strides":{"list":{"s":[],"i":["1","1","1","1"],"f":[],"b":[],"type":[],"shape":[],"tensor":[],"func":[]}}},"name":"FeatureExtractor/MobilenetV1/MobilenetV1/Conv2d_3_pointwise/BatchNorm/FusedBatchNorm/Mul","op":"Conv2D"},{"input":["FeatureExtractor/MobilenetV1/MobilenetV1/Conv2d_3_pointwise/BatchNorm/FusedBatchNorm/Mul","FeatureExtractor/MobilenetV1/MobilenetV1/Conv2d_3_pointwise/BatchNorm/FusedBatchNorm/Offset"],"attr":{"T":{"type":1}},"name":"FeatureExtractor/MobilenetV1/MobilenetV1/Conv2d_3_pointwise/BatchNorm/FusedBatchNorm","op":"Add"},{"input":["FeatureExtractor/MobilenetV1/MobilenetV1/Conv2d_3_pointwise/BatchNorm/FusedBatchNorm"],"attr":{"T":{"type":1}},"name":"FeatureExtractor/MobilenetV1/MobilenetV1/Conv2d_3_pointwise/Relu6","op":"Relu6"},{"input":["FeatureExtractor/MobilenetV1/MobilenetV1/Conv2d_3_pointwise/Relu6","FeatureExtractor/MobilenetV1/Conv2d_4_depthwise/depthwise_weights"],"attr":{"strides":{"list":{"s":[],"i":["1","2","2","1"],"f":[],"b":[],"type":[],"shape":[],"tensor":[],"func":[]}},"data_format":{"s":[78,72,87,67]},"padding":{"s":[83,65,77,69]},"dilations":{"list":{"s":[],"i":["1","1","1","1"],"f":[],"b":[],"type":[],"shape":[],"tensor":[],"func":[]}},"T":{"type":1}},"name":"FeatureExtractor/MobilenetV1/MobilenetV1/Conv2d_4_depthwise/depthwise","op":"DepthwiseConv2dNative"},{"input":["FeatureExtractor/MobilenetV1/MobilenetV1/Conv2d_4_depthwise/depthwise","FeatureExtractor/MobilenetV1/MobilenetV1/Conv2d_4_depthwise/BatchNorm/FusedBatchNorm/Scaled"],"attr":{"T":{"type":1}},"name":"FeatureExtractor/MobilenetV1/MobilenetV1/Conv2d_4_depthwise/BatchNorm/FusedBatchNorm/Mul","op":"Mul"},{"input":["FeatureExtractor/MobilenetV1/MobilenetV1/Conv2d_4_depthwise/BatchNorm/FusedBatchNorm/Mul","FeatureExtractor/MobilenetV1/MobilenetV1/Conv2d_4_depthwise/BatchNorm/FusedBatchNorm/Offset"],"attr":{"T":{"type":1}},"name":"FeatureExtractor/MobilenetV1/MobilenetV1/Conv2d_4_depthwise/BatchNorm/FusedBatchNorm","op":"Add"},{"input":["FeatureExtractor/MobilenetV1/MobilenetV1/Conv2d_4_depthwise/BatchNorm/FusedBatchNorm"],"attr":{"T":{"type":1}},"name":"FeatureExtractor/MobilenetV1/MobilenetV1/Conv2d_4_depthwise/Relu6","op":"Relu6"},{"input":["FeatureExtractor/MobilenetV1/MobilenetV1/Conv2d_4_depthwise/Relu6","FeatureExtractor/MobilenetV1/MobilenetV1/Conv2d_4_pointwise/Conv2D/merged_input"],"attr":{"dilations":{"list":{"s":[],"i":["1","1","1","1"],"f":[],"b":[],"type":[],"shape":[],"tensor":[],"func":[]}},"T":{"type":1},"strides":{"list":{"s":[],"i":["1","1","1","1"],"f":[],"b":[],"type":[],"shape":[],"tensor":[],"func":[]}},"data_format":{"s":[78,72,87,67]},"use_cudnn_on_gpu":{"b":true},"padding":{"s":[83,65,77,69]}},"name":"FeatureExtractor/MobilenetV1/MobilenetV1/Conv2d_4_pointwise/BatchNorm/FusedBatchNorm/Mul","op":"Conv2D"},{"input":["FeatureExtractor/MobilenetV1/MobilenetV1/Conv2d_4_pointwise/BatchNorm/FusedBatchNorm/Mul","FeatureExtractor/MobilenetV1/MobilenetV1/Conv2d_4_pointwise/BatchNorm/FusedBatchNorm/Offset"],"attr":{"T":{"type":1}},"name":"FeatureExtractor/MobilenetV1/MobilenetV1/Conv2d_4_pointwise/BatchNorm/FusedBatchNorm","op":"Add"},{"input":["FeatureExtractor/MobilenetV1/MobilenetV1/Conv2d_4_pointwise/BatchNorm/FusedBatchNorm"],"attr":{"T":{"type":1}},"name":"FeatureExtractor/MobilenetV1/MobilenetV1/Conv2d_4_pointwise/Relu6","op":"Relu6"},{"input":["FeatureExtractor/MobilenetV1/MobilenetV1/Conv2d_4_pointwise/Relu6","FeatureExtractor/MobilenetV1/Conv2d_5_depthwise/depthwise_weights"],"attr":{"dilations":{"list":{"s":[],"i":["1","1","1","1"],"f":[],"b":[],"type":[],"shape":[],"tensor":[],"func":[]}},"padding":{"s":[83,65,77,69]},"T":{"type":1},"strides":{"list":{"s":[],"i":["1","1","1","1"],"f":[],"b":[],"type":[],"shape":[],"tensor":[],"func":[]}},"data_format":{"s":[78,72,87,67]}},"name":"FeatureExtractor/MobilenetV1/MobilenetV1/Conv2d_5_depthwise/depthwise","op":"DepthwiseConv2dNative"},{"input":["FeatureExtractor/MobilenetV1/MobilenetV1/Conv2d_5_depthwise/depthwise","FeatureExtractor/MobilenetV1/MobilenetV1/Conv2d_5_depthwise/BatchNorm/FusedBatchNorm/Scaled"],"attr":{"T":{"type":1}},"name":"FeatureExtractor/MobilenetV1/MobilenetV1/Conv2d_5_depthwise/BatchNorm/FusedBatchNorm/Mul","op":"Mul"},{"input":["FeatureExtractor/MobilenetV1/MobilenetV1/Conv2d_5_depthwise/BatchNorm/FusedBatchNorm/Mul","FeatureExtractor/MobilenetV1/MobilenetV1/Conv2d_5_depthwise/BatchNorm/FusedBatchNorm/Offset"],"attr":{"T":{"type":1}},"name":"FeatureExtractor/MobilenetV1/MobilenetV1/Conv2d_5_depthwise/BatchNorm/FusedBatchNorm","op":"Add"},{"input":["FeatureExtractor/MobilenetV1/MobilenetV1/Conv2d_5_depthwise/BatchNorm/FusedBatchNorm"],"attr":{"T":{"type":1}},"name":"FeatureExtractor/MobilenetV1/MobilenetV1/Conv2d_5_depthwise/Relu6","op":"Relu6"},{"input":["FeatureExtractor/MobilenetV1/MobilenetV1/Conv2d_5_depthwise/Relu6","FeatureExtractor/MobilenetV1/MobilenetV1/Conv2d_5_pointwise/Conv2D/merged_input"],"attr":{"dilations":{"list":{"s":[],"i":["1","1","1","1"],"f":[],"b":[],"type":[],"shape":[],"tensor":[],"func":[]}},"T":{"type":1},"strides":{"list":{"s":[],"i":["1","1","1","1"],"f":[],"b":[],"type":[],"shape":[],"tensor":[],"func":[]}},"data_format":{"s":[78,72,87,67]},"use_cudnn_on_gpu":{"b":true},"padding":{"s":[83,65,77,69]}},"name":"FeatureExtractor/MobilenetV1/MobilenetV1/Conv2d_5_pointwise/BatchNorm/FusedBatchNorm/Mul","op":"Conv2D"},{"input":["FeatureExtractor/MobilenetV1/MobilenetV1/Conv2d_5_pointwise/BatchNorm/FusedBatchNorm/Mul","FeatureExtractor/MobilenetV1/MobilenetV1/Conv2d_5_pointwise/BatchNorm/FusedBatchNorm/Offset"],"attr":{"T":{"type":1}},"name":"FeatureExtractor/MobilenetV1/MobilenetV1/Conv2d_5_pointwise/BatchNorm/FusedBatchNorm","op":"Add"},{"input":["FeatureExtractor/MobilenetV1/MobilenetV1/Conv2d_5_pointwise/BatchNorm/FusedBatchNorm"],"attr":{"T":{"type":1}},"name":"FeatureExtractor/MobilenetV1/MobilenetV1/Conv2d_5_pointwise/Relu6","op":"Relu6"},{"input":["FeatureExtractor/MobilenetV1/MobilenetV1/Conv2d_5_pointwise/Relu6","FeatureExtractor/MobilenetV1/Conv2d_6_depthwise/depthwise_weights"],"attr":{"strides":{"list":{"s":[],"i":["1","2","2","1"],"f":[],"b":[],"type":[],"shape":[],"tensor":[],"func":[]}},"data_format":{"s":[78,72,87,67]},"padding":{"s":[83,65,77,69]},"dilations":{"list":{"s":[],"i":["1","1","1","1"],"f":[],"b":[],"type":[],"shape":[],"tensor":[],"func":[]}},"T":{"type":1}},"name":"FeatureExtractor/MobilenetV1/MobilenetV1/Conv2d_6_depthwise/depthwise","op":"DepthwiseConv2dNative"},{"input":["FeatureExtractor/MobilenetV1/MobilenetV1/Conv2d_6_depthwise/depthwise","FeatureExtractor/MobilenetV1/MobilenetV1/Conv2d_6_depthwise/BatchNorm/FusedBatchNorm/Scaled"],"attr":{"T":{"type":1}},"name":"FeatureExtractor/MobilenetV1/MobilenetV1/Conv2d_6_depthwise/BatchNorm/FusedBatchNorm/Mul","op":"Mul"},{"input":["FeatureExtractor/MobilenetV1/MobilenetV1/Conv2d_6_depthwise/BatchNorm/FusedBatchNorm/Mul","FeatureExtractor/MobilenetV1/MobilenetV1/Conv2d_6_depthwise/BatchNorm/FusedBatchNorm/Offset"],"attr":{"T":{"type":1}},"name":"FeatureExtractor/MobilenetV1/MobilenetV1/Conv2d_6_depthwise/BatchNorm/FusedBatchNorm","op":"Add"},{"input":["FeatureExtractor/MobilenetV1/MobilenetV1/Conv2d_6_depthwise/BatchNorm/FusedBatchNorm"],"attr":{"T":{"type":1}},"name":"FeatureExtractor/MobilenetV1/MobilenetV1/Conv2d_6_depthwise/Relu6","op":"Relu6"},{"input":["FeatureExtractor/MobilenetV1/MobilenetV1/Conv2d_6_depthwise/Relu6","FeatureExtractor/MobilenetV1/MobilenetV1/Conv2d_6_pointwise/Conv2D/merged_input"],"attr":{"padding":{"s":[83,65,77,69]},"dilations":{"list":{"s":[],"i":["1","1","1","1"],"f":[],"b":[],"type":[],"shape":[],"tensor":[],"func":[]}},"T":{"type":1},"data_format":{"s":[78,72,87,67]},"strides":{"list":{"s":[],"i":["1","1","1","1"],"f":[],"b":[],"type":[],"shape":[],"tensor":[],"func":[]}},"use_cudnn_on_gpu":{"b":true}},"name":"FeatureExtractor/MobilenetV1/MobilenetV1/Conv2d_6_pointwise/BatchNorm/FusedBatchNorm/Mul","op":"Conv2D"},{"input":["FeatureExtractor/MobilenetV1/MobilenetV1/Conv2d_6_pointwise/BatchNorm/FusedBatchNorm/Mul","FeatureExtractor/MobilenetV1/MobilenetV1/Conv2d_6_pointwise/BatchNorm/FusedBatchNorm/Offset"],"attr":{"T":{"type":1}},"name":"FeatureExtractor/MobilenetV1/MobilenetV1/Conv2d_6_pointwise/BatchNorm/FusedBatchNorm","op":"Add"},{"input":["FeatureExtractor/MobilenetV1/MobilenetV1/Conv2d_6_pointwise/BatchNorm/FusedBatchNorm"],"attr":{"T":{"type":1}},"name":"FeatureExtractor/MobilenetV1/MobilenetV1/Conv2d_6_pointwise/Relu6","op":"Relu6"},{"input":["FeatureExtractor/MobilenetV1/MobilenetV1/Conv2d_6_pointwise/Relu6","FeatureExtractor/MobilenetV1/Conv2d_7_depthwise/depthwise_weights"],"attr":{"dilations":{"list":{"s":[],"i":["1","1","1","1"],"f":[],"b":[],"type":[],"shape":[],"tensor":[],"func":[]}},"padding":{"s":[83,65,77,69]},"T":{"type":1},"strides":{"list":{"s":[],"i":["1","1","1","1"],"f":[],"b":[],"type":[],"shape":[],"tensor":[],"func":[]}},"data_format":{"s":[78,72,87,67]}},"name":"FeatureExtractor/MobilenetV1/MobilenetV1/Conv2d_7_depthwise/depthwise","op":"DepthwiseConv2dNative"},{"input":["FeatureExtractor/MobilenetV1/MobilenetV1/Conv2d_7_depthwise/depthwise","FeatureExtractor/MobilenetV1/MobilenetV1/Conv2d_7_depthwise/BatchNorm/FusedBatchNorm/Scaled"],"attr":{"T":{"type":1}},"name":"FeatureExtractor/MobilenetV1/MobilenetV1/Conv2d_7_depthwise/BatchNorm/FusedBatchNorm/Mul","op":"Mul"},{"input":["FeatureExtractor/MobilenetV1/MobilenetV1/Conv2d_7_depthwise/BatchNorm/FusedBatchNorm/Mul","FeatureExtractor/MobilenetV1/MobilenetV1/Conv2d_7_depthwise/BatchNorm/FusedBatchNorm/Offset"],"attr":{"T":{"type":1}},"name":"FeatureExtractor/MobilenetV1/MobilenetV1/Conv2d_7_depthwise/BatchNorm/FusedBatchNorm","op":"Add"},{"input":["FeatureExtractor/MobilenetV1/MobilenetV1/Conv2d_7_depthwise/BatchNorm/FusedBatchNorm"],"attr":{"T":{"type":1}},"name":"FeatureExtractor/MobilenetV1/MobilenetV1/Conv2d_7_depthwise/Relu6","op":"Relu6"},{"input":["FeatureExtractor/MobilenetV1/MobilenetV1/Conv2d_7_depthwise/Relu6","FeatureExtractor/MobilenetV1/MobilenetV1/Conv2d_7_pointwise/Conv2D/merged_input"],"attr":{"padding":{"s":[83,65,77,69]},"dilations":{"list":{"s":[],"i":["1","1","1","1"],"f":[],"b":[],"type":[],"shape":[],"tensor":[],"func":[]}},"T":{"type":1},"strides":{"list":{"s":[],"i":["1","1","1","1"],"f":[],"b":[],"type":[],"shape":[],"tensor":[],"func":[]}},"data_format":{"s":[78,72,87,67]},"use_cudnn_on_gpu":{"b":true}},"name":"FeatureExtractor/MobilenetV1/MobilenetV1/Conv2d_7_pointwise/BatchNorm/FusedBatchNorm/Mul","op":"Conv2D"},{"input":["FeatureExtractor/MobilenetV1/MobilenetV1/Conv2d_7_pointwise/BatchNorm/FusedBatchNorm/Mul","FeatureExtractor/MobilenetV1/MobilenetV1/Conv2d_7_pointwise/BatchNorm/FusedBatchNorm/Offset"],"attr":{"T":{"type":1}},"name":"FeatureExtractor/MobilenetV1/MobilenetV1/Conv2d_7_pointwise/BatchNorm/FusedBatchNorm","op":"Add"},{"input":["FeatureExtractor/MobilenetV1/MobilenetV1/Conv2d_7_pointwise/BatchNorm/FusedBatchNorm"],"attr":{"T":{"type":1}},"name":"FeatureExtractor/MobilenetV1/MobilenetV1/Conv2d_7_pointwise/Relu6","op":"Relu6"},{"input":["FeatureExtractor/MobilenetV1/MobilenetV1/Conv2d_7_pointwise/Relu6","FeatureExtractor/MobilenetV1/Conv2d_8_depthwise/depthwise_weights"],"attr":{"data_format":{"s":[78,72,87,67]},"strides":{"list":{"s":[],"i":["1","1","1","1"],"f":[],"b":[],"type":[],"shape":[],"tensor":[],"func":[]}},"padding":{"s":[83,65,77,69]},"dilations":{"list":{"s":[],"i":["1","1","1","1"],"f":[],"b":[],"type":[],"shape":[],"tensor":[],"func":[]}},"T":{"type":1}},"name":"FeatureExtractor/MobilenetV1/MobilenetV1/Conv2d_8_depthwise/depthwise","op":"DepthwiseConv2dNative"},{"input":["FeatureExtractor/MobilenetV1/MobilenetV1/Conv2d_8_depthwise/depthwise","FeatureExtractor/MobilenetV1/MobilenetV1/Conv2d_8_depthwise/BatchNorm/FusedBatchNorm/Scaled"],"attr":{"T":{"type":1}},"name":"FeatureExtractor/MobilenetV1/MobilenetV1/Conv2d_8_depthwise/BatchNorm/FusedBatchNorm/Mul","op":"Mul"},{"input":["FeatureExtractor/MobilenetV1/MobilenetV1/Conv2d_8_depthwise/BatchNorm/FusedBatchNorm/Mul","FeatureExtractor/MobilenetV1/MobilenetV1/Conv2d_8_depthwise/BatchNorm/FusedBatchNorm/Offset"],"attr":{"T":{"type":1}},"name":"FeatureExtractor/MobilenetV1/MobilenetV1/Conv2d_8_depthwise/BatchNorm/FusedBatchNorm","op":"Add"},{"input":["FeatureExtractor/MobilenetV1/MobilenetV1/Conv2d_8_depthwise/BatchNorm/FusedBatchNorm"],"attr":{"T":{"type":1}},"name":"FeatureExtractor/MobilenetV1/MobilenetV1/Conv2d_8_depthwise/Relu6","op":"Relu6"},{"input":["FeatureExtractor/MobilenetV1/MobilenetV1/Conv2d_8_depthwise/Relu6","FeatureExtractor/MobilenetV1/MobilenetV1/Conv2d_8_pointwise/Conv2D/merged_input"],"attr":{"use_cudnn_on_gpu":{"b":true},"padding":{"s":[83,65,77,69]},"dilations":{"list":{"s":[],"i":["1","1","1","1"],"f":[],"b":[],"type":[],"shape":[],"tensor":[],"func":[]}},"T":{"type":1},"strides":{"list":{"s":[],"i":["1","1","1","1"],"f":[],"b":[],"type":[],"shape":[],"tensor":[],"func":[]}},"data_format":{"s":[78,72,87,67]}},"name":"FeatureExtractor/MobilenetV1/MobilenetV1/Conv2d_8_pointwise/BatchNorm/FusedBatchNorm/Mul","op":"Conv2D"},{"input":["FeatureExtractor/MobilenetV1/MobilenetV1/Conv2d_8_pointwise/BatchNorm/FusedBatchNorm/Mul","FeatureExtractor/MobilenetV1/MobilenetV1/Conv2d_8_pointwise/BatchNorm/FusedBatchNorm/Offset"],"attr":{"T":{"type":1}},"name":"FeatureExtractor/MobilenetV1/MobilenetV1/Conv2d_8_pointwise/BatchNorm/FusedBatchNorm","op":"Add"},{"input":["FeatureExtractor/MobilenetV1/MobilenetV1/Conv2d_8_pointwise/BatchNorm/FusedBatchNorm"],"attr":{"T":{"type":1}},"name":"FeatureExtractor/MobilenetV1/MobilenetV1/Conv2d_8_pointwise/Relu6","op":"Relu6"},{"input":["FeatureExtractor/MobilenetV1/MobilenetV1/Conv2d_8_pointwise/Relu6","FeatureExtractor/MobilenetV1/Conv2d_9_depthwise/depthwise_weights"],"attr":{"data_format":{"s":[78,72,87,67]},"strides":{"list":{"s":[],"i":["1","1","1","1"],"f":[],"b":[],"type":[],"shape":[],"tensor":[],"func":[]}},"padding":{"s":[83,65,77,69]},"dilations":{"list":{"s":[],"i":["1","1","1","1"],"f":[],"b":[],"type":[],"shape":[],"tensor":[],"func":[]}},"T":{"type":1}},"name":"FeatureExtractor/MobilenetV1/MobilenetV1/Conv2d_9_depthwise/depthwise","op":"DepthwiseConv2dNative"},{"input":["FeatureExtractor/MobilenetV1/MobilenetV1/Conv2d_9_depthwise/depthwise","FeatureExtractor/MobilenetV1/MobilenetV1/Conv2d_9_depthwise/BatchNorm/FusedBatchNorm/Scaled"],"attr":{"T":{"type":1}},"name":"FeatureExtractor/MobilenetV1/MobilenetV1/Conv2d_9_depthwise/BatchNorm/FusedBatchNorm/Mul","op":"Mul"},{"input":["FeatureExtractor/MobilenetV1/MobilenetV1/Conv2d_9_depthwise/BatchNorm/FusedBatchNorm/Mul","FeatureExtractor/MobilenetV1/MobilenetV1/Conv2d_9_depthwise/BatchNorm/FusedBatchNorm/Offset"],"attr":{"T":{"type":1}},"name":"FeatureExtractor/MobilenetV1/MobilenetV1/Conv2d_9_depthwise/BatchNorm/FusedBatchNorm","op":"Add"},{"input":["FeatureExtractor/MobilenetV1/MobilenetV1/Conv2d_9_depthwise/BatchNorm/FusedBatchNorm"],"attr":{"T":{"type":1}},"name":"FeatureExtractor/MobilenetV1/MobilenetV1/Conv2d_9_depthwise/Relu6","op":"Relu6"},{"input":["FeatureExtractor/MobilenetV1/MobilenetV1/Conv2d_9_depthwise/Relu6","FeatureExtractor/MobilenetV1/MobilenetV1/Conv2d_9_pointwise/Conv2D/merged_input"],"attr":{"padding":{"s":[83,65,77,69]},"dilations":{"list":{"s":[],"i":["1","1","1","1"],"f":[],"b":[],"type":[],"shape":[],"tensor":[],"func":[]}},"T":{"type":1},"strides":{"list":{"s":[],"i":["1","1","1","1"],"f":[],"b":[],"type":[],"shape":[],"tensor":[],"func":[]}},"data_format":{"s":[78,72,87,67]},"use_cudnn_on_gpu":{"b":true}},"name":"FeatureExtractor/MobilenetV1/MobilenetV1/Conv2d_9_pointwise/BatchNorm/FusedBatchNorm/Mul","op":"Conv2D"},{"input":["FeatureExtractor/MobilenetV1/MobilenetV1/Conv2d_9_pointwise/BatchNorm/FusedBatchNorm/Mul","FeatureExtractor/MobilenetV1/MobilenetV1/Conv2d_9_pointwise/BatchNorm/FusedBatchNorm/Offset"],"attr":{"T":{"type":1}},"name":"FeatureExtractor/MobilenetV1/MobilenetV1/Conv2d_9_pointwise/BatchNorm/FusedBatchNorm","op":"Add"},{"input":["FeatureExtractor/MobilenetV1/MobilenetV1/Conv2d_9_pointwise/BatchNorm/FusedBatchNorm"],"attr":{"T":{"type":1}},"name":"FeatureExtractor/MobilenetV1/MobilenetV1/Conv2d_9_pointwise/Relu6","op":"Relu6"},{"input":["FeatureExtractor/MobilenetV1/MobilenetV1/Conv2d_9_pointwise/Relu6","FeatureExtractor/MobilenetV1/Conv2d_10_depthwise/depthwise_weights"],"attr":{"dilations":{"list":{"s":[],"i":["1","1","1","1"],"f":[],"b":[],"type":[],"shape":[],"tensor":[],"func":[]}},"padding":{"s":[83,65,77,69]},"T":{"type":1},"data_format":{"s":[78,72,87,67]},"strides":{"list":{"s":[],"i":["1","1","1","1"],"f":[],"b":[],"type":[],"shape":[],"tensor":[],"func":[]}}},"name":"FeatureExtractor/MobilenetV1/MobilenetV1/Conv2d_10_depthwise/depthwise","op":"DepthwiseConv2dNative"},{"input":["FeatureExtractor/MobilenetV1/MobilenetV1/Conv2d_10_depthwise/depthwise","FeatureExtractor/MobilenetV1/MobilenetV1/Conv2d_10_depthwise/BatchNorm/FusedBatchNorm/Scaled"],"attr":{"T":{"type":1}},"name":"FeatureExtractor/MobilenetV1/MobilenetV1/Conv2d_10_depthwise/BatchNorm/FusedBatchNorm/Mul","op":"Mul"},{"input":["FeatureExtractor/MobilenetV1/MobilenetV1/Conv2d_10_depthwise/BatchNorm/FusedBatchNorm/Mul","FeatureExtractor/MobilenetV1/MobilenetV1/Conv2d_10_depthwise/BatchNorm/FusedBatchNorm/Offset"],"attr":{"T":{"type":1}},"name":"FeatureExtractor/MobilenetV1/MobilenetV1/Conv2d_10_depthwise/BatchNorm/FusedBatchNorm","op":"Add"},{"input":["FeatureExtractor/MobilenetV1/MobilenetV1/Conv2d_10_depthwise/BatchNorm/FusedBatchNorm"],"attr":{"T":{"type":1}},"name":"FeatureExtractor/MobilenetV1/MobilenetV1/Conv2d_10_depthwise/Relu6","op":"Relu6"},{"input":["FeatureExtractor/MobilenetV1/MobilenetV1/Conv2d_10_depthwise/Relu6","FeatureExtractor/MobilenetV1/MobilenetV1/Conv2d_10_pointwise/Conv2D/merged_input"],"attr":{"strides":{"list":{"s":[],"i":["1","1","1","1"],"f":[],"b":[],"type":[],"shape":[],"tensor":[],"func":[]}},"data_format":{"s":[78,72,87,67]},"use_cudnn_on_gpu":{"b":true},"padding":{"s":[83,65,77,69]},"dilations":{"list":{"s":[],"i":["1","1","1","1"],"f":[],"b":[],"type":[],"shape":[],"tensor":[],"func":[]}},"T":{"type":1}},"name":"FeatureExtractor/MobilenetV1/MobilenetV1/Conv2d_10_pointwise/BatchNorm/FusedBatchNorm/Mul","op":"Conv2D"},{"input":["FeatureExtractor/MobilenetV1/MobilenetV1/Conv2d_10_pointwise/BatchNorm/FusedBatchNorm/Mul","FeatureExtractor/MobilenetV1/MobilenetV1/Conv2d_10_pointwise/BatchNorm/FusedBatchNorm/Offset"],"attr":{"T":{"type":1}},"name":"FeatureExtractor/MobilenetV1/MobilenetV1/Conv2d_10_pointwise/BatchNorm/FusedBatchNorm","op":"Add"},{"input":["FeatureExtractor/MobilenetV1/MobilenetV1/Conv2d_10_pointwise/BatchNorm/FusedBatchNorm"],"attr":{"T":{"type":1}},"name":"FeatureExtractor/MobilenetV1/MobilenetV1/Conv2d_10_pointwise/Relu6","op":"Relu6"},{"input":["FeatureExtractor/MobilenetV1/MobilenetV1/Conv2d_10_pointwise/Relu6","FeatureExtractor/MobilenetV1/Conv2d_11_depthwise/depthwise_weights"],"attr":{"dilations":{"list":{"s":[],"i":["1","1","1","1"],"f":[],"b":[],"type":[],"shape":[],"tensor":[],"func":[]}},"padding":{"s":[83,65,77,69]},"T":{"type":1},"strides":{"list":{"s":[],"i":["1","1","1","1"],"f":[],"b":[],"type":[],"shape":[],"tensor":[],"func":[]}},"data_format":{"s":[78,72,87,67]}},"name":"FeatureExtractor/MobilenetV1/MobilenetV1/Conv2d_11_depthwise/depthwise","op":"DepthwiseConv2dNative"},{"input":["FeatureExtractor/MobilenetV1/MobilenetV1/Conv2d_11_depthwise/depthwise","FeatureExtractor/MobilenetV1/MobilenetV1/Conv2d_11_depthwise/BatchNorm/FusedBatchNorm/Scaled"],"attr":{"T":{"type":1}},"name":"FeatureExtractor/MobilenetV1/MobilenetV1/Conv2d_11_depthwise/BatchNorm/FusedBatchNorm/Mul","op":"Mul"},{"input":["FeatureExtractor/MobilenetV1/MobilenetV1/Conv2d_11_depthwise/BatchNorm/FusedBatchNorm/Mul","FeatureExtractor/MobilenetV1/MobilenetV1/Conv2d_11_depthwise/BatchNorm/FusedBatchNorm/Offset"],"attr":{"T":{"type":1}},"name":"FeatureExtractor/MobilenetV1/MobilenetV1/Conv2d_11_depthwise/BatchNorm/FusedBatchNorm","op":"Add"},{"input":["FeatureExtractor/MobilenetV1/MobilenetV1/Conv2d_11_depthwise/BatchNorm/FusedBatchNorm"],"attr":{"T":{"type":1}},"name":"FeatureExtractor/MobilenetV1/MobilenetV1/Conv2d_11_depthwise/Relu6","op":"Relu6"},{"input":["FeatureExtractor/MobilenetV1/MobilenetV1/Conv2d_11_depthwise/Relu6","FeatureExtractor/MobilenetV1/MobilenetV1/Conv2d_11_pointwise/Conv2D/merged_input"],"attr":{"dilations":{"list":{"s":[],"i":["1","1","1","1"],"f":[],"b":[],"type":[],"shape":[],"tensor":[],"func":[]}},"T":{"type":1},"strides":{"list":{"s":[],"i":["1","1","1","1"],"f":[],"b":[],"type":[],"shape":[],"tensor":[],"func":[]}},"data_format":{"s":[78,72,87,67]},"use_cudnn_on_gpu":{"b":true},"padding":{"s":[83,65,77,69]}},"name":"FeatureExtractor/MobilenetV1/MobilenetV1/Conv2d_11_pointwise/BatchNorm/FusedBatchNorm/Mul","op":"Conv2D"},{"input":["FeatureExtractor/MobilenetV1/MobilenetV1/Conv2d_11_pointwise/BatchNorm/FusedBatchNorm/Mul","FeatureExtractor/MobilenetV1/MobilenetV1/Conv2d_11_pointwise/BatchNorm/FusedBatchNorm/Offset"],"attr":{"T":{"type":1}},"name":"FeatureExtractor/MobilenetV1/MobilenetV1/Conv2d_11_pointwise/BatchNorm/FusedBatchNorm","op":"Add"},{"input":["FeatureExtractor/MobilenetV1/MobilenetV1/Conv2d_11_pointwise/BatchNorm/FusedBatchNorm"],"attr":{"T":{"type":1}},"name":"FeatureExtractor/MobilenetV1/MobilenetV1/Conv2d_11_pointwise/Relu6","op":"Relu6"},{"input":["FeatureExtractor/MobilenetV1/MobilenetV1/Conv2d_11_pointwise/Relu6","FeatureExtractor/MobilenetV1/Conv2d_12_depthwise/depthwise_weights"],"attr":{"padding":{"s":[83,65,77,69]},"dilations":{"list":{"s":[],"i":["1","1","1","1"],"f":[],"b":[],"type":[],"shape":[],"tensor":[],"func":[]}},"T":{"type":1},"strides":{"list":{"s":[],"i":["1","2","2","1"],"f":[],"b":[],"type":[],"shape":[],"tensor":[],"func":[]}},"data_format":{"s":[78,72,87,67]}},"name":"FeatureExtractor/MobilenetV1/MobilenetV1/Conv2d_12_depthwise/depthwise","op":"DepthwiseConv2dNative"},{"input":["FeatureExtractor/MobilenetV1/MobilenetV1/Conv2d_11_pointwise/Relu6"],"attr":{"T":{"type":1},"out_type":{"type":3}},"name":"BoxPredictor_0/Shape","op":"Shape"},{"input":["FeatureExtractor/MobilenetV1/MobilenetV1/Conv2d_11_pointwise/Relu6","BoxPredictor_0/BoxEncodingPredictor/weights"],"attr":{"dilations":{"list":{"s":[],"i":["1","1","1","1"],"f":[],"b":[],"type":[],"shape":[],"tensor":[],"func":[]}},"T":{"type":1},"strides":{"list":{"s":[],"i":["1","1","1","1"],"f":[],"b":[],"type":[],"shape":[],"tensor":[],"func":[]}},"data_format":{"s":[78,72,87,67]},"use_cudnn_on_gpu":{"b":true},"padding":{"s":[83,65,77,69]}},"name":"BoxPredictor_0/BoxEncodingPredictor/Conv2D","op":"Conv2D"},{"input":["FeatureExtractor/MobilenetV1/MobilenetV1/Conv2d_11_pointwise/Relu6","BoxPredictor_0/ClassPredictor/weights"],"attr":{"padding":{"s":[83,65,77,69]},"dilations":{"list":{"s":[],"i":["1","1","1","1"],"f":[],"b":[],"type":[],"shape":[],"tensor":[],"func":[]}},"T":{"type":1},"strides":{"list":{"s":[],"i":["1","1","1","1"],"f":[],"b":[],"type":[],"shape":[],"tensor":[],"func":[]}},"data_format":{"s":[78,72,87,67]},"use_cudnn_on_gpu":{"b":true}},"name":"BoxPredictor_0/ClassPredictor/Conv2D","op":"Conv2D"},{"input":["FeatureExtractor/MobilenetV1/MobilenetV1/Conv2d_12_depthwise/depthwise","FeatureExtractor/MobilenetV1/MobilenetV1/Conv2d_12_depthwise/BatchNorm/FusedBatchNorm/Scaled"],"attr":{"T":{"type":1}},"name":"FeatureExtractor/MobilenetV1/MobilenetV1/Conv2d_12_depthwise/BatchNorm/FusedBatchNorm/Mul","op":"Mul"},{"input":["BoxPredictor_0/Shape","Postprocessor/BatchMultiClassNonMaxSuppression/map/TensorArrayUnstack_1/strided_slice/stack","Postprocessor/BatchMultiClassNonMaxSuppression/map/TensorArrayUnstack_1/strided_slice/stack_1","Postprocessor/BatchMultiClassNonMaxSuppression/map/TensorArrayUnstack_1/strided_slice/stack_1"],"attr":{"end_mask":{"i":"0"},"T":{"type":3},"Index":{"type":3},"shrink_axis_mask":{"i":"1"},"begin_mask":{"i":"0"},"ellipsis_mask":{"i":"0"},"new_axis_mask":{"i":"0"}},"name":"BoxPredictor_0/strided_slice","op":"StridedSlice"},{"input":["BoxPredictor_0/BoxEncodingPredictor/Conv2D","BoxPredictor_0/BoxEncodingPredictor/biases"],"attr":{"data_format":{"s":[78,72,87,67]},"T":{"type":1}},"name":"BoxPredictor_0/BoxEncodingPredictor/BiasAdd","op":"BiasAdd"},{"input":["BoxPredictor_0/ClassPredictor/Conv2D","BoxPredictor_0/ClassPredictor/biases"],"attr":{"data_format":{"s":[78,72,87,67]},"T":{"type":1}},"name":"BoxPredictor_0/ClassPredictor/BiasAdd","op":"BiasAdd"},{"input":["FeatureExtractor/MobilenetV1/MobilenetV1/Conv2d_12_depthwise/BatchNorm/FusedBatchNorm/Mul","FeatureExtractor/MobilenetV1/MobilenetV1/Conv2d_12_depthwise/BatchNorm/FusedBatchNorm/Offset"],"attr":{"T":{"type":1}},"name":"FeatureExtractor/MobilenetV1/MobilenetV1/Conv2d_12_depthwise/BatchNorm/FusedBatchNorm","op":"Add"},{"input":["BoxPredictor_0/strided_slice","BoxPredictor_0/stack_1/1","Postprocessor/BatchMultiClassNonMaxSuppression/map/TensorArrayStack/range/delta","BoxPredictor_0/stack/3"],"attr":{"T":{"type":3},"axis":{"i":"0"},"N":{"i":"4"}},"name":"BoxPredictor_0/stack","op":"Pack"},{"input":["BoxPredictor_0/strided_slice","BoxPredictor_0/stack_1/1","BoxPredictor_0/stack_1/2"],"attr":{"T":{"type":3},"axis":{"i":"0"},"N":{"i":"3"}},"name":"BoxPredictor_0/stack_1","op":"Pack"},{"input":["FeatureExtractor/MobilenetV1/MobilenetV1/Conv2d_12_depthwise/BatchNorm/FusedBatchNorm"],"attr":{"T":{"type":1}},"name":"FeatureExtractor/MobilenetV1/MobilenetV1/Conv2d_12_depthwise/Relu6","op":"Relu6"},{"input":["BoxPredictor_0/BoxEncodingPredictor/BiasAdd","BoxPredictor_0/stack"],"attr":{"T":{"type":1},"Tshape":{"type":3}},"name":"BoxPredictor_0/Reshape","op":"Reshape"},{"input":["BoxPredictor_0/ClassPredictor/BiasAdd","BoxPredictor_0/stack_1"],"attr":{"T":{"type":1},"Tshape":{"type":3}},"name":"BoxPredictor_0/Reshape_1","op":"Reshape"},{"input":["FeatureExtractor/MobilenetV1/MobilenetV1/Conv2d_12_depthwise/Relu6","FeatureExtractor/MobilenetV1/MobilenetV1/Conv2d_12_pointwise/Conv2D/merged_input"],"attr":{"dilations":{"list":{"s":[],"i":["1","1","1","1"],"f":[],"b":[],"type":[],"shape":[],"tensor":[],"func":[]}},"T":{"type":1},"strides":{"list":{"s":[],"i":["1","1","1","1"],"f":[],"b":[],"type":[],"shape":[],"tensor":[],"func":[]}},"data_format":{"s":[78,72,87,67]},"use_cudnn_on_gpu":{"b":true},"padding":{"s":[83,65,77,69]}},"name":"FeatureExtractor/MobilenetV1/MobilenetV1/Conv2d_12_pointwise/BatchNorm/FusedBatchNorm/Mul","op":"Conv2D"},{"input":["BoxPredictor_0/Reshape"],"attr":{"squeeze_dims":{"list":{"s":[],"i":["2"],"f":[],"b":[],"type":[],"shape":[],"tensor":[],"func":[]}},"T":{"type":1}},"name":"Squeeze","op":"Squeeze"},{"input":["FeatureExtractor/MobilenetV1/MobilenetV1/Conv2d_12_pointwise/BatchNorm/FusedBatchNorm/Mul","FeatureExtractor/MobilenetV1/MobilenetV1/Conv2d_12_pointwise/BatchNorm/FusedBatchNorm/Offset"],"attr":{"T":{"type":1}},"name":"FeatureExtractor/MobilenetV1/MobilenetV1/Conv2d_12_pointwise/BatchNorm/FusedBatchNorm","op":"Add"},{"input":["FeatureExtractor/MobilenetV1/MobilenetV1/Conv2d_12_pointwise/BatchNorm/FusedBatchNorm"],"attr":{"T":{"type":1}},"name":"FeatureExtractor/MobilenetV1/MobilenetV1/Conv2d_12_pointwise/Relu6","op":"Relu6"},{"input":["FeatureExtractor/MobilenetV1/MobilenetV1/Conv2d_12_pointwise/Relu6","FeatureExtractor/MobilenetV1/Conv2d_13_depthwise/depthwise_weights"],"attr":{"dilations":{"list":{"s":[],"i":["1","1","1","1"],"f":[],"b":[],"type":[],"shape":[],"tensor":[],"func":[]}},"padding":{"s":[83,65,77,69]},"T":{"type":1},"strides":{"list":{"s":[],"i":["1","1","1","1"],"f":[],"b":[],"type":[],"shape":[],"tensor":[],"func":[]}},"data_format":{"s":[78,72,87,67]}},"name":"FeatureExtractor/MobilenetV1/MobilenetV1/Conv2d_13_depthwise/depthwise","op":"DepthwiseConv2dNative"},{"input":["FeatureExtractor/MobilenetV1/MobilenetV1/Conv2d_13_depthwise/depthwise","FeatureExtractor/MobilenetV1/MobilenetV1/Conv2d_13_depthwise/BatchNorm/FusedBatchNorm/Scaled"],"attr":{"T":{"type":1}},"name":"FeatureExtractor/MobilenetV1/MobilenetV1/Conv2d_13_depthwise/BatchNorm/FusedBatchNorm/Mul","op":"Mul"},{"input":["FeatureExtractor/MobilenetV1/MobilenetV1/Conv2d_13_depthwise/BatchNorm/FusedBatchNorm/Mul","FeatureExtractor/MobilenetV1/MobilenetV1/Conv2d_13_depthwise/BatchNorm/FusedBatchNorm/Offset"],"attr":{"T":{"type":1}},"name":"FeatureExtractor/MobilenetV1/MobilenetV1/Conv2d_13_depthwise/BatchNorm/FusedBatchNorm","op":"Add"},{"input":["FeatureExtractor/MobilenetV1/MobilenetV1/Conv2d_13_depthwise/BatchNorm/FusedBatchNorm"],"attr":{"T":{"type":1}},"name":"FeatureExtractor/MobilenetV1/MobilenetV1/Conv2d_13_depthwise/Relu6","op":"Relu6"},{"input":["FeatureExtractor/MobilenetV1/MobilenetV1/Conv2d_13_depthwise/Relu6","FeatureExtractor/MobilenetV1/MobilenetV1/Conv2d_13_pointwise/Conv2D/merged_input"],"attr":{"padding":{"s":[83,65,77,69]},"dilations":{"list":{"s":[],"i":["1","1","1","1"],"f":[],"b":[],"type":[],"shape":[],"tensor":[],"func":[]}},"T":{"type":1},"data_format":{"s":[78,72,87,67]},"strides":{"list":{"s":[],"i":["1","1","1","1"],"f":[],"b":[],"type":[],"shape":[],"tensor":[],"func":[]}},"use_cudnn_on_gpu":{"b":true}},"name":"FeatureExtractor/MobilenetV1/MobilenetV1/Conv2d_13_pointwise/BatchNorm/FusedBatchNorm/Mul","op":"Conv2D"},{"input":["FeatureExtractor/MobilenetV1/MobilenetV1/Conv2d_13_pointwise/BatchNorm/FusedBatchNorm/Mul","FeatureExtractor/MobilenetV1/MobilenetV1/Conv2d_13_pointwise/BatchNorm/FusedBatchNorm/Offset"],"attr":{"T":{"type":1}},"name":"FeatureExtractor/MobilenetV1/MobilenetV1/Conv2d_13_pointwise/BatchNorm/FusedBatchNorm","op":"Add"},{"input":["FeatureExtractor/MobilenetV1/MobilenetV1/Conv2d_13_pointwise/BatchNorm/FusedBatchNorm"],"attr":{"T":{"type":1}},"name":"FeatureExtractor/MobilenetV1/MobilenetV1/Conv2d_13_pointwise/Relu6","op":"Relu6"},{"input":["FeatureExtractor/MobilenetV1/MobilenetV1/Conv2d_13_pointwise/Relu6","FeatureExtractor/MobilenetV1/Conv2d_13_pointwise_1_Conv2d_2_1x1_256/Conv2D/merged_input"],"attr":{"dilations":{"list":{"s":[],"i":["1","1","1","1"],"f":[],"b":[],"type":[],"shape":[],"tensor":[],"func":[]}},"T":{"type":1},"strides":{"list":{"s":[],"i":["1","1","1","1"],"f":[],"b":[],"type":[],"shape":[],"tensor":[],"func":[]}},"data_format":{"s":[78,72,87,67]},"use_cudnn_on_gpu":{"b":true},"padding":{"s":[83,65,77,69]}},"name":"FeatureExtractor/MobilenetV1/Conv2d_13_pointwise_1_Conv2d_2_1x1_256/BatchNorm/FusedBatchNorm/Mul","op":"Conv2D"},{"input":["FeatureExtractor/MobilenetV1/MobilenetV1/Conv2d_13_pointwise/Relu6"],"attr":{"T":{"type":1},"out_type":{"type":3}},"name":"BoxPredictor_1/Shape","op":"Shape"},{"input":["FeatureExtractor/MobilenetV1/MobilenetV1/Conv2d_13_pointwise/Relu6","BoxPredictor_1/BoxEncodingPredictor/weights"],"attr":{"use_cudnn_on_gpu":{"b":true},"padding":{"s":[83,65,77,69]},"dilations":{"list":{"s":[],"i":["1","1","1","1"],"f":[],"b":[],"type":[],"shape":[],"tensor":[],"func":[]}},"T":{"type":1},"data_format":{"s":[78,72,87,67]},"strides":{"list":{"s":[],"i":["1","1","1","1"],"f":[],"b":[],"type":[],"shape":[],"tensor":[],"func":[]}}},"name":"BoxPredictor_1/BoxEncodingPredictor/Conv2D","op":"Conv2D"},{"input":["FeatureExtractor/MobilenetV1/MobilenetV1/Conv2d_13_pointwise/Relu6","BoxPredictor_1/ClassPredictor/weights"],"attr":{"dilations":{"list":{"s":[],"i":["1","1","1","1"],"f":[],"b":[],"type":[],"shape":[],"tensor":[],"func":[]}},"T":{"type":1},"data_format":{"s":[78,72,87,67]},"strides":{"list":{"s":[],"i":["1","1","1","1"],"f":[],"b":[],"type":[],"shape":[],"tensor":[],"func":[]}},"use_cudnn_on_gpu":{"b":true},"padding":{"s":[83,65,77,69]}},"name":"BoxPredictor_1/ClassPredictor/Conv2D","op":"Conv2D"},{"input":["FeatureExtractor/MobilenetV1/Conv2d_13_pointwise_1_Conv2d_2_1x1_256/BatchNorm/FusedBatchNorm/Mul","FeatureExtractor/MobilenetV1/Conv2d_13_pointwise_1_Conv2d_2_1x1_256/BatchNorm/FusedBatchNorm/Offset"],"attr":{"T":{"type":1}},"name":"FeatureExtractor/MobilenetV1/Conv2d_13_pointwise_1_Conv2d_2_1x1_256/BatchNorm/FusedBatchNorm","op":"Add"},{"input":["BoxPredictor_1/Shape","Postprocessor/BatchMultiClassNonMaxSuppression/map/TensorArrayUnstack_1/strided_slice/stack","Postprocessor/BatchMultiClassNonMaxSuppression/map/TensorArrayUnstack_1/strided_slice/stack_1","Postprocessor/BatchMultiClassNonMaxSuppression/map/TensorArrayUnstack_1/strided_slice/stack_1"],"attr":{"T":{"type":3},"Index":{"type":3},"shrink_axis_mask":{"i":"1"},"ellipsis_mask":{"i":"0"},"begin_mask":{"i":"0"},"new_axis_mask":{"i":"0"},"end_mask":{"i":"0"}},"name":"BoxPredictor_1/strided_slice","op":"StridedSlice"},{"input":["BoxPredictor_1/BoxEncodingPredictor/Conv2D","BoxPredictor_1/BoxEncodingPredictor/biases"],"attr":{"data_format":{"s":[78,72,87,67]},"T":{"type":1}},"name":"BoxPredictor_1/BoxEncodingPredictor/BiasAdd","op":"BiasAdd"},{"input":["BoxPredictor_1/ClassPredictor/Conv2D","BoxPredictor_1/ClassPredictor/biases"],"attr":{"data_format":{"s":[78,72,87,67]},"T":{"type":1}},"name":"BoxPredictor_1/ClassPredictor/BiasAdd","op":"BiasAdd"},{"input":["FeatureExtractor/MobilenetV1/Conv2d_13_pointwise_1_Conv2d_2_1x1_256/BatchNorm/FusedBatchNorm"],"attr":{"T":{"type":1}},"name":"FeatureExtractor/MobilenetV1/Conv2d_13_pointwise_1_Conv2d_2_1x1_256/Relu6","op":"Relu6"},{"input":["BoxPredictor_1/strided_slice","BoxPredictor_1/stack_1/1","Postprocessor/BatchMultiClassNonMaxSuppression/map/TensorArrayStack/range/delta","BoxPredictor_0/stack/3"],"attr":{"T":{"type":3},"axis":{"i":"0"},"N":{"i":"4"}},"name":"BoxPredictor_1/stack","op":"Pack"},{"input":["BoxPredictor_1/strided_slice","BoxPredictor_1/stack_1/1","BoxPredictor_0/stack_1/2"],"attr":{"T":{"type":3},"axis":{"i":"0"},"N":{"i":"3"}},"name":"BoxPredictor_1/stack_1","op":"Pack"},{"input":["FeatureExtractor/MobilenetV1/Conv2d_13_pointwise_1_Conv2d_2_1x1_256/Relu6"],"attr":{"out_type":{"type":3},"T":{"type":1}},"name":"FeatureExtractor/MobilenetV1/Shape","op":"Shape"},{"input":["BoxPredictor_1/BoxEncodingPredictor/BiasAdd","BoxPredictor_1/stack"],"attr":{"Tshape":{"type":3},"T":{"type":1}},"name":"BoxPredictor_1/Reshape","op":"Reshape"},{"input":["BoxPredictor_1/ClassPredictor/BiasAdd","BoxPredictor_1/stack_1"],"attr":{"T":{"type":1},"Tshape":{"type":3}},"name":"BoxPredictor_1/Reshape_1","op":"Reshape"},{"input":["FeatureExtractor/MobilenetV1/Shape","FeatureExtractor/MobilenetV1/strided_slice/stack","FeatureExtractor/MobilenetV1/strided_slice/stack_1","FeatureExtractor/MobilenetV1/strided_slice/stack_1"],"attr":{"shrink_axis_mask":{"i":"1"},"begin_mask":{"i":"0"},"ellipsis_mask":{"i":"0"},"new_axis_mask":{"i":"0"},"end_mask":{"i":"0"},"Index":{"type":3},"T":{"type":3}},"name":"FeatureExtractor/MobilenetV1/strided_slice","op":"StridedSlice"},{"input":["BoxPredictor_1/Reshape"],"attr":{"squeeze_dims":{"list":{"s":[],"i":["2"],"f":[],"b":[],"type":[],"shape":[],"tensor":[],"func":[]}},"T":{"type":1}},"name":"Squeeze_1","op":"Squeeze"},{"input":["FeatureExtractor/MobilenetV1/strided_slice","FeatureExtractor/MobilenetV1/zeros/packed/2","FeatureExtractor/MobilenetV1/zeros_6/packed/1","FeatureExtractor/MobilenetV1/zeros/packed/3"],"attr":{"axis":{"i":"0"},"N":{"i":"4"},"T":{"type":3}},"name":"FeatureExtractor/MobilenetV1/zeros_1/packed","op":"Pack"},{"input":["FeatureExtractor/MobilenetV1/strided_slice","FeatureExtractor/MobilenetV1/zeros_6/packed/1","FeatureExtractor/MobilenetV1/zeros/packed/2","FeatureExtractor/MobilenetV1/zeros/packed/3"],"attr":{"T":{"type":3},"axis":{"i":"0"},"N":{"i":"4"}},"name":"FeatureExtractor/MobilenetV1/zeros/packed","op":"Pack"},{"input":["FeatureExtractor/MobilenetV1/zeros_1/packed","FeatureExtractor/MobilenetV1/zeros_6/Const"],"attr":{"index_type":{"type":3},"T":{"type":1}},"name":"FeatureExtractor/MobilenetV1/zeros_1","op":"Fill"},{"input":["FeatureExtractor/MobilenetV1/zeros/packed","FeatureExtractor/MobilenetV1/zeros_6/Const"],"attr":{"index_type":{"type":3},"T":{"type":1}},"name":"FeatureExtractor/MobilenetV1/zeros","op":"Fill"},{"input":["FeatureExtractor/MobilenetV1/Conv2d_13_pointwise_1_Conv2d_2_1x1_256/Relu6","FeatureExtractor/MobilenetV1/zeros","FeatureExtractor/MobilenetV1/concat_6/axis"],"attr":{"Tidx":{"type":3},"T":{"type":1},"N":{"i":"2"}},"name":"FeatureExtractor/MobilenetV1/concat","op":"ConcatV2"},{"input":["FeatureExtractor/MobilenetV1/concat","FeatureExtractor/MobilenetV1/zeros_1","FeatureExtractor/MobilenetV1/zeros_6/packed/2"],"attr":{"N":{"i":"2"},"Tidx":{"type":3},"T":{"type":1}},"name":"FeatureExtractor/MobilenetV1/concat_1","op":"ConcatV2"},{"input":["FeatureExtractor/MobilenetV1/concat_1","FeatureExtractor/MobilenetV1/Conv2d_13_pointwise_2_Conv2d_2_3x3_s2_512/Conv2D/merged_input"],"attr":{"dilations":{"list":{"s":[],"i":["1","1","1","1"],"f":[],"b":[],"type":[],"shape":[],"tensor":[],"func":[]}},"T":{"type":1},"strides":{"list":{"s":[],"i":["1","2","2","1"],"f":[],"b":[],"type":[],"shape":[],"tensor":[],"func":[]}},"data_format":{"s":[78,72,87,67]},"use_cudnn_on_gpu":{"b":true},"padding":{"s":[83,65,77,69]}},"name":"FeatureExtractor/MobilenetV1/Conv2d_13_pointwise_2_Conv2d_2_3x3_s2_512/BatchNorm/FusedBatchNorm/Mul","op":"Conv2D"},{"input":["FeatureExtractor/MobilenetV1/Conv2d_13_pointwise_2_Conv2d_2_3x3_s2_512/BatchNorm/FusedBatchNorm/Mul","FeatureExtractor/MobilenetV1/Conv2d_13_pointwise_2_Conv2d_2_3x3_s2_512/BatchNorm/FusedBatchNorm/Offset"],"attr":{"T":{"type":1}},"name":"FeatureExtractor/MobilenetV1/Conv2d_13_pointwise_2_Conv2d_2_3x3_s2_512/BatchNorm/FusedBatchNorm","op":"Add"},{"input":["FeatureExtractor/MobilenetV1/Conv2d_13_pointwise_2_Conv2d_2_3x3_s2_512/BatchNorm/FusedBatchNorm"],"attr":{"T":{"type":1}},"name":"FeatureExtractor/MobilenetV1/Conv2d_13_pointwise_2_Conv2d_2_3x3_s2_512/Relu6","op":"Relu6"},{"input":["FeatureExtractor/MobilenetV1/Conv2d_13_pointwise_2_Conv2d_2_3x3_s2_512/Relu6","FeatureExtractor/MobilenetV1/Conv2d_13_pointwise_1_Conv2d_3_1x1_128/Conv2D/merged_input"],"attr":{"strides":{"list":{"s":[],"i":["1","1","1","1"],"f":[],"b":[],"type":[],"shape":[],"tensor":[],"func":[]}},"data_format":{"s":[78,72,87,67]},"use_cudnn_on_gpu":{"b":true},"padding":{"s":[83,65,77,69]},"dilations":{"list":{"s":[],"i":["1","1","1","1"],"f":[],"b":[],"type":[],"shape":[],"tensor":[],"func":[]}},"T":{"type":1}},"name":"FeatureExtractor/MobilenetV1/Conv2d_13_pointwise_1_Conv2d_3_1x1_128/BatchNorm/FusedBatchNorm/Mul","op":"Conv2D"},{"input":["FeatureExtractor/MobilenetV1/Conv2d_13_pointwise_2_Conv2d_2_3x3_s2_512/Relu6"],"attr":{"out_type":{"type":3},"T":{"type":1}},"name":"BoxPredictor_2/Shape","op":"Shape"},{"input":["FeatureExtractor/MobilenetV1/Conv2d_13_pointwise_2_Conv2d_2_3x3_s2_512/Relu6","BoxPredictor_2/BoxEncodingPredictor/weights"],"attr":{"padding":{"s":[83,65,77,69]},"dilations":{"list":{"s":[],"i":["1","1","1","1"],"f":[],"b":[],"type":[],"shape":[],"tensor":[],"func":[]}},"T":{"type":1},"strides":{"list":{"s":[],"i":["1","1","1","1"],"f":[],"b":[],"type":[],"shape":[],"tensor":[],"func":[]}},"data_format":{"s":[78,72,87,67]},"use_cudnn_on_gpu":{"b":true}},"name":"BoxPredictor_2/BoxEncodingPredictor/Conv2D","op":"Conv2D"},{"input":["FeatureExtractor/MobilenetV1/Conv2d_13_pointwise_2_Conv2d_2_3x3_s2_512/Relu6","BoxPredictor_2/ClassPredictor/weights"],"attr":{"dilations":{"list":{"s":[],"i":["1","1","1","1"],"f":[],"b":[],"type":[],"shape":[],"tensor":[],"func":[]}},"T":{"type":1},"data_format":{"s":[78,72,87,67]},"strides":{"list":{"s":[],"i":["1","1","1","1"],"f":[],"b":[],"type":[],"shape":[],"tensor":[],"func":[]}},"use_cudnn_on_gpu":{"b":true},"padding":{"s":[83,65,77,69]}},"name":"BoxPredictor_2/ClassPredictor/Conv2D","op":"Conv2D"},{"input":["FeatureExtractor/MobilenetV1/Conv2d_13_pointwise_1_Conv2d_3_1x1_128/BatchNorm/FusedBatchNorm/Mul","FeatureExtractor/MobilenetV1/Conv2d_13_pointwise_1_Conv2d_3_1x1_128/BatchNorm/FusedBatchNorm/Offset"],"attr":{"T":{"type":1}},"name":"FeatureExtractor/MobilenetV1/Conv2d_13_pointwise_1_Conv2d_3_1x1_128/BatchNorm/FusedBatchNorm","op":"Add"},{"input":["BoxPredictor_2/Shape","Postprocessor/BatchMultiClassNonMaxSuppression/map/TensorArrayUnstack_1/strided_slice/stack","Postprocessor/BatchMultiClassNonMaxSuppression/map/TensorArrayUnstack_1/strided_slice/stack_1","Postprocessor/BatchMultiClassNonMaxSuppression/map/TensorArrayUnstack_1/strided_slice/stack_1"],"attr":{"shrink_axis_mask":{"i":"1"},"begin_mask":{"i":"0"},"ellipsis_mask":{"i":"0"},"new_axis_mask":{"i":"0"},"end_mask":{"i":"0"},"Index":{"type":3},"T":{"type":3}},"name":"BoxPredictor_2/strided_slice","op":"StridedSlice"},{"input":["BoxPredictor_2/BoxEncodingPredictor/Conv2D","BoxPredictor_2/BoxEncodingPredictor/biases"],"attr":{"T":{"type":1},"data_format":{"s":[78,72,87,67]}},"name":"BoxPredictor_2/BoxEncodingPredictor/BiasAdd","op":"BiasAdd"},{"input":["BoxPredictor_2/ClassPredictor/Conv2D","BoxPredictor_2/ClassPredictor/biases"],"attr":{"data_format":{"s":[78,72,87,67]},"T":{"type":1}},"name":"BoxPredictor_2/ClassPredictor/BiasAdd","op":"BiasAdd"},{"input":["FeatureExtractor/MobilenetV1/Conv2d_13_pointwise_1_Conv2d_3_1x1_128/BatchNorm/FusedBatchNorm"],"attr":{"T":{"type":1}},"name":"FeatureExtractor/MobilenetV1/Conv2d_13_pointwise_1_Conv2d_3_1x1_128/Relu6","op":"Relu6"},{"input":["BoxPredictor_2/strided_slice","BoxPredictor_2/stack_1/1","Postprocessor/BatchMultiClassNonMaxSuppression/map/TensorArrayStack/range/delta","BoxPredictor_0/stack/3"],"attr":{"T":{"type":3},"axis":{"i":"0"},"N":{"i":"4"}},"name":"BoxPredictor_2/stack","op":"Pack"},{"input":["BoxPredictor_2/strided_slice","BoxPredictor_2/stack_1/1","BoxPredictor_0/stack_1/2"],"attr":{"T":{"type":3},"axis":{"i":"0"},"N":{"i":"3"}},"name":"BoxPredictor_2/stack_1","op":"Pack"},{"input":["FeatureExtractor/MobilenetV1/Conv2d_13_pointwise_1_Conv2d_3_1x1_128/Relu6"],"attr":{"T":{"type":1},"out_type":{"type":3}},"name":"FeatureExtractor/MobilenetV1/Shape_1","op":"Shape"},{"input":["BoxPredictor_2/BoxEncodingPredictor/BiasAdd","BoxPredictor_2/stack"],"attr":{"T":{"type":1},"Tshape":{"type":3}},"name":"BoxPredictor_2/Reshape","op":"Reshape"},{"input":["BoxPredictor_2/ClassPredictor/BiasAdd","BoxPredictor_2/stack_1"],"attr":{"Tshape":{"type":3},"T":{"type":1}},"name":"BoxPredictor_2/Reshape_1","op":"Reshape"},{"input":["FeatureExtractor/MobilenetV1/Shape_1","FeatureExtractor/MobilenetV1/strided_slice/stack","FeatureExtractor/MobilenetV1/strided_slice/stack_1","FeatureExtractor/MobilenetV1/strided_slice/stack_1"],"attr":{"shrink_axis_mask":{"i":"1"},"ellipsis_mask":{"i":"0"},"begin_mask":{"i":"0"},"new_axis_mask":{"i":"0"},"end_mask":{"i":"0"},"T":{"type":3},"Index":{"type":3}},"name":"FeatureExtractor/MobilenetV1/strided_slice_1","op":"StridedSlice"},{"input":["BoxPredictor_2/Reshape"],"attr":{"T":{"type":1},"squeeze_dims":{"list":{"s":[],"i":["2"],"f":[],"b":[],"type":[],"shape":[],"tensor":[],"func":[]}}},"name":"Squeeze_2","op":"Squeeze"},{"input":["FeatureExtractor/MobilenetV1/strided_slice_1","FeatureExtractor/MobilenetV1/zeros_3/packed/1","FeatureExtractor/MobilenetV1/concat_6/axis","FeatureExtractor/MobilenetV1/zeros_4/packed/3"],"attr":{"T":{"type":3},"axis":{"i":"0"},"N":{"i":"4"}},"name":"FeatureExtractor/MobilenetV1/zeros_3/packed","op":"Pack"},{"input":["FeatureExtractor/MobilenetV1/strided_slice_1","FeatureExtractor/MobilenetV1/concat_6/axis","FeatureExtractor/MobilenetV1/zeros_2/packed/2","FeatureExtractor/MobilenetV1/zeros_4/packed/3"],"attr":{"T":{"type":3},"axis":{"i":"0"},"N":{"i":"4"}},"name":"FeatureExtractor/MobilenetV1/zeros_2/packed","op":"Pack"},{"input":["FeatureExtractor/MobilenetV1/zeros_3/packed","FeatureExtractor/MobilenetV1/zeros_6/Const"],"attr":{"T":{"type":1},"index_type":{"type":3}},"name":"FeatureExtractor/MobilenetV1/zeros_3","op":"Fill"},{"input":["FeatureExtractor/MobilenetV1/zeros_2/packed","FeatureExtractor/MobilenetV1/zeros_6/Const"],"attr":{"index_type":{"type":3},"T":{"type":1}},"name":"FeatureExtractor/MobilenetV1/zeros_2","op":"Fill"},{"input":["FeatureExtractor/MobilenetV1/Conv2d_13_pointwise_1_Conv2d_3_1x1_128/Relu6","FeatureExtractor/MobilenetV1/zeros_2","FeatureExtractor/MobilenetV1/concat_6/axis"],"attr":{"T":{"type":1},"N":{"i":"2"},"Tidx":{"type":3}},"name":"FeatureExtractor/MobilenetV1/concat_2","op":"ConcatV2"},{"input":["FeatureExtractor/MobilenetV1/concat_2","FeatureExtractor/MobilenetV1/zeros_3","FeatureExtractor/MobilenetV1/zeros_6/packed/2"],"attr":{"Tidx":{"type":3},"T":{"type":1},"N":{"i":"2"}},"name":"FeatureExtractor/MobilenetV1/concat_3","op":"ConcatV2"},{"input":["FeatureExtractor/MobilenetV1/concat_3","FeatureExtractor/MobilenetV1/Conv2d_13_pointwise_2_Conv2d_3_3x3_s2_256/Conv2D/merged_input"],"attr":{"padding":{"s":[83,65,77,69]},"dilations":{"list":{"s":[],"i":["1","1","1","1"],"f":[],"b":[],"type":[],"shape":[],"tensor":[],"func":[]}},"T":{"type":1},"data_format":{"s":[78,72,87,67]},"strides":{"list":{"s":[],"i":["1","2","2","1"],"f":[],"b":[],"type":[],"shape":[],"tensor":[],"func":[]}},"use_cudnn_on_gpu":{"b":true}},"name":"FeatureExtractor/MobilenetV1/Conv2d_13_pointwise_2_Conv2d_3_3x3_s2_256/BatchNorm/FusedBatchNorm/Mul","op":"Conv2D"},{"input":["FeatureExtractor/MobilenetV1/Conv2d_13_pointwise_2_Conv2d_3_3x3_s2_256/BatchNorm/FusedBatchNorm/Mul","FeatureExtractor/MobilenetV1/Conv2d_13_pointwise_2_Conv2d_3_3x3_s2_256/BatchNorm/FusedBatchNorm/Offset"],"attr":{"T":{"type":1}},"name":"FeatureExtractor/MobilenetV1/Conv2d_13_pointwise_2_Conv2d_3_3x3_s2_256/BatchNorm/FusedBatchNorm","op":"Add"},{"input":["FeatureExtractor/MobilenetV1/Conv2d_13_pointwise_2_Conv2d_3_3x3_s2_256/BatchNorm/FusedBatchNorm"],"attr":{"T":{"type":1}},"name":"FeatureExtractor/MobilenetV1/Conv2d_13_pointwise_2_Conv2d_3_3x3_s2_256/Relu6","op":"Relu6"},{"input":["FeatureExtractor/MobilenetV1/Conv2d_13_pointwise_2_Conv2d_3_3x3_s2_256/Relu6","FeatureExtractor/MobilenetV1/Conv2d_13_pointwise_1_Conv2d_4_1x1_128/Conv2D/merged_input"],"attr":{"dilations":{"list":{"s":[],"i":["1","1","1","1"],"f":[],"b":[],"type":[],"shape":[],"tensor":[],"func":[]}},"T":{"type":1},"strides":{"list":{"s":[],"i":["1","1","1","1"],"f":[],"b":[],"type":[],"shape":[],"tensor":[],"func":[]}},"data_format":{"s":[78,72,87,67]},"use_cudnn_on_gpu":{"b":true},"padding":{"s":[83,65,77,69]}},"name":"FeatureExtractor/MobilenetV1/Conv2d_13_pointwise_1_Conv2d_4_1x1_128/BatchNorm/FusedBatchNorm/Mul","op":"Conv2D"},{"input":["FeatureExtractor/MobilenetV1/Conv2d_13_pointwise_2_Conv2d_3_3x3_s2_256/Relu6"],"attr":{"T":{"type":1},"out_type":{"type":3}},"name":"BoxPredictor_3/Shape","op":"Shape"},{"input":["FeatureExtractor/MobilenetV1/Conv2d_13_pointwise_2_Conv2d_3_3x3_s2_256/Relu6","BoxPredictor_3/BoxEncodingPredictor/weights"],"attr":{"T":{"type":1},"strides":{"list":{"s":[],"i":["1","1","1","1"],"f":[],"b":[],"type":[],"shape":[],"tensor":[],"func":[]}},"data_format":{"s":[78,72,87,67]},"use_cudnn_on_gpu":{"b":true},"padding":{"s":[83,65,77,69]},"dilations":{"list":{"s":[],"i":["1","1","1","1"],"f":[],"b":[],"type":[],"shape":[],"tensor":[],"func":[]}}},"name":"BoxPredictor_3/BoxEncodingPredictor/Conv2D","op":"Conv2D"},{"input":["FeatureExtractor/MobilenetV1/Conv2d_13_pointwise_2_Conv2d_3_3x3_s2_256/Relu6","BoxPredictor_3/ClassPredictor/weights"],"attr":{"dilations":{"list":{"s":[],"i":["1","1","1","1"],"f":[],"b":[],"type":[],"shape":[],"tensor":[],"func":[]}},"T":{"type":1},"strides":{"list":{"s":[],"i":["1","1","1","1"],"f":[],"b":[],"type":[],"shape":[],"tensor":[],"func":[]}},"data_format":{"s":[78,72,87,67]},"use_cudnn_on_gpu":{"b":true},"padding":{"s":[83,65,77,69]}},"name":"BoxPredictor_3/ClassPredictor/Conv2D","op":"Conv2D"},{"input":["FeatureExtractor/MobilenetV1/Conv2d_13_pointwise_1_Conv2d_4_1x1_128/BatchNorm/FusedBatchNorm/Mul","FeatureExtractor/MobilenetV1/Conv2d_13_pointwise_1_Conv2d_4_1x1_128/BatchNorm/FusedBatchNorm/Offset"],"attr":{"T":{"type":1}},"name":"FeatureExtractor/MobilenetV1/Conv2d_13_pointwise_1_Conv2d_4_1x1_128/BatchNorm/FusedBatchNorm","op":"Add"},{"input":["BoxPredictor_3/Shape","Postprocessor/BatchMultiClassNonMaxSuppression/map/TensorArrayUnstack_1/strided_slice/stack","Postprocessor/BatchMultiClassNonMaxSuppression/map/TensorArrayUnstack_1/strided_slice/stack_1","Postprocessor/BatchMultiClassNonMaxSuppression/map/TensorArrayUnstack_1/strided_slice/stack_1"],"attr":{"T":{"type":3},"Index":{"type":3},"shrink_axis_mask":{"i":"1"},"begin_mask":{"i":"0"},"ellipsis_mask":{"i":"0"},"new_axis_mask":{"i":"0"},"end_mask":{"i":"0"}},"name":"BoxPredictor_3/strided_slice","op":"StridedSlice"},{"input":["BoxPredictor_3/BoxEncodingPredictor/Conv2D","BoxPredictor_3/BoxEncodingPredictor/biases"],"attr":{"data_format":{"s":[78,72,87,67]},"T":{"type":1}},"name":"BoxPredictor_3/BoxEncodingPredictor/BiasAdd","op":"BiasAdd"},{"input":["BoxPredictor_3/ClassPredictor/Conv2D","BoxPredictor_3/ClassPredictor/biases"],"attr":{"T":{"type":1},"data_format":{"s":[78,72,87,67]}},"name":"BoxPredictor_3/ClassPredictor/BiasAdd","op":"BiasAdd"},{"input":["FeatureExtractor/MobilenetV1/Conv2d_13_pointwise_1_Conv2d_4_1x1_128/BatchNorm/FusedBatchNorm"],"attr":{"T":{"type":1}},"name":"FeatureExtractor/MobilenetV1/Conv2d_13_pointwise_1_Conv2d_4_1x1_128/Relu6","op":"Relu6"},{"input":["BoxPredictor_3/strided_slice","BoxPredictor_3/stack_1/1","Postprocessor/BatchMultiClassNonMaxSuppression/map/TensorArrayStack/range/delta","BoxPredictor_0/stack/3"],"attr":{"T":{"type":3},"axis":{"i":"0"},"N":{"i":"4"}},"name":"BoxPredictor_3/stack","op":"Pack"},{"input":["BoxPredictor_3/strided_slice","BoxPredictor_3/stack_1/1","BoxPredictor_0/stack_1/2"],"attr":{"T":{"type":3},"axis":{"i":"0"},"N":{"i":"3"}},"name":"BoxPredictor_3/stack_1","op":"Pack"},{"input":["FeatureExtractor/MobilenetV1/Conv2d_13_pointwise_1_Conv2d_4_1x1_128/Relu6"],"attr":{"out_type":{"type":3},"T":{"type":1}},"name":"FeatureExtractor/MobilenetV1/Shape_2","op":"Shape"},{"input":["BoxPredictor_3/BoxEncodingPredictor/BiasAdd","BoxPredictor_3/stack"],"attr":{"T":{"type":1},"Tshape":{"type":3}},"name":"BoxPredictor_3/Reshape","op":"Reshape"},{"input":["BoxPredictor_3/ClassPredictor/BiasAdd","BoxPredictor_3/stack_1"],"attr":{"Tshape":{"type":3},"T":{"type":1}},"name":"BoxPredictor_3/Reshape_1","op":"Reshape"},{"input":["FeatureExtractor/MobilenetV1/Shape_2","FeatureExtractor/MobilenetV1/strided_slice/stack","FeatureExtractor/MobilenetV1/strided_slice/stack_1","FeatureExtractor/MobilenetV1/strided_slice/stack_1"],"attr":{"shrink_axis_mask":{"i":"1"},"begin_mask":{"i":"0"},"ellipsis_mask":{"i":"0"},"new_axis_mask":{"i":"0"},"end_mask":{"i":"0"},"T":{"type":3},"Index":{"type":3}},"name":"FeatureExtractor/MobilenetV1/strided_slice_2","op":"StridedSlice"},{"input":["BoxPredictor_3/Reshape"],"attr":{"squeeze_dims":{"list":{"s":[],"i":["2"],"f":[],"b":[],"type":[],"shape":[],"tensor":[],"func":[]}},"T":{"type":1}},"name":"Squeeze_3","op":"Squeeze"},{"input":["FeatureExtractor/MobilenetV1/strided_slice_2","FeatureExtractor/MobilenetV1/zeros_5/packed/1","FeatureExtractor/MobilenetV1/concat_6/axis","FeatureExtractor/MobilenetV1/zeros_4/packed/3"],"attr":{"T":{"type":3},"axis":{"i":"0"},"N":{"i":"4"}},"name":"FeatureExtractor/MobilenetV1/zeros_5/packed","op":"Pack"},{"input":["FeatureExtractor/MobilenetV1/strided_slice_2","FeatureExtractor/MobilenetV1/concat_6/axis","FeatureExtractor/MobilenetV1/zeros_4/packed/2","FeatureExtractor/MobilenetV1/zeros_4/packed/3"],"attr":{"T":{"type":3},"axis":{"i":"0"},"N":{"i":"4"}},"name":"FeatureExtractor/MobilenetV1/zeros_4/packed","op":"Pack"},{"input":["FeatureExtractor/MobilenetV1/zeros_5/packed","FeatureExtractor/MobilenetV1/zeros_6/Const"],"attr":{"T":{"type":1},"index_type":{"type":3}},"name":"FeatureExtractor/MobilenetV1/zeros_5","op":"Fill"},{"input":["FeatureExtractor/MobilenetV1/zeros_4/packed","FeatureExtractor/MobilenetV1/zeros_6/Const"],"attr":{"T":{"type":1},"index_type":{"type":3}},"name":"FeatureExtractor/MobilenetV1/zeros_4","op":"Fill"},{"input":["FeatureExtractor/MobilenetV1/Conv2d_13_pointwise_1_Conv2d_4_1x1_128/Relu6","FeatureExtractor/MobilenetV1/zeros_4","FeatureExtractor/MobilenetV1/concat_6/axis"],"attr":{"Tidx":{"type":3},"T":{"type":1},"N":{"i":"2"}},"name":"FeatureExtractor/MobilenetV1/concat_4","op":"ConcatV2"},{"input":["FeatureExtractor/MobilenetV1/concat_4","FeatureExtractor/MobilenetV1/zeros_5","FeatureExtractor/MobilenetV1/zeros_6/packed/2"],"attr":{"N":{"i":"2"},"Tidx":{"type":3},"T":{"type":1}},"name":"FeatureExtractor/MobilenetV1/concat_5","op":"ConcatV2"},{"input":["FeatureExtractor/MobilenetV1/concat_5","FeatureExtractor/MobilenetV1/Conv2d_13_pointwise_2_Conv2d_4_3x3_s2_256/Conv2D/merged_input"],"attr":{"use_cudnn_on_gpu":{"b":true},"padding":{"s":[83,65,77,69]},"dilations":{"list":{"s":[],"i":["1","1","1","1"],"f":[],"b":[],"type":[],"shape":[],"tensor":[],"func":[]}},"T":{"type":1},"strides":{"list":{"s":[],"i":["1","2","2","1"],"f":[],"b":[],"type":[],"shape":[],"tensor":[],"func":[]}},"data_format":{"s":[78,72,87,67]}},"name":"FeatureExtractor/MobilenetV1/Conv2d_13_pointwise_2_Conv2d_4_3x3_s2_256/BatchNorm/FusedBatchNorm/Mul","op":"Conv2D"},{"input":["FeatureExtractor/MobilenetV1/Conv2d_13_pointwise_2_Conv2d_4_3x3_s2_256/BatchNorm/FusedBatchNorm/Mul","FeatureExtractor/MobilenetV1/Conv2d_13_pointwise_2_Conv2d_4_3x3_s2_256/BatchNorm/FusedBatchNorm/Offset"],"attr":{"T":{"type":1}},"name":"FeatureExtractor/MobilenetV1/Conv2d_13_pointwise_2_Conv2d_4_3x3_s2_256/BatchNorm/FusedBatchNorm","op":"Add"},{"input":["FeatureExtractor/MobilenetV1/Conv2d_13_pointwise_2_Conv2d_4_3x3_s2_256/BatchNorm/FusedBatchNorm"],"attr":{"T":{"type":1}},"name":"FeatureExtractor/MobilenetV1/Conv2d_13_pointwise_2_Conv2d_4_3x3_s2_256/Relu6","op":"Relu6"},{"input":["FeatureExtractor/MobilenetV1/Conv2d_13_pointwise_2_Conv2d_4_3x3_s2_256/Relu6","FeatureExtractor/MobilenetV1/Conv2d_13_pointwise_1_Conv2d_5_1x1_64/Conv2D/merged_input"],"attr":{"dilations":{"list":{"s":[],"i":["1","1","1","1"],"f":[],"b":[],"type":[],"shape":[],"tensor":[],"func":[]}},"T":{"type":1},"data_format":{"s":[78,72,87,67]},"strides":{"list":{"s":[],"i":["1","1","1","1"],"f":[],"b":[],"type":[],"shape":[],"tensor":[],"func":[]}},"use_cudnn_on_gpu":{"b":true},"padding":{"s":[83,65,77,69]}},"name":"FeatureExtractor/MobilenetV1/Conv2d_13_pointwise_1_Conv2d_5_1x1_64/BatchNorm/FusedBatchNorm/Mul","op":"Conv2D"},{"input":["FeatureExtractor/MobilenetV1/Conv2d_13_pointwise_2_Conv2d_4_3x3_s2_256/Relu6"],"attr":{"T":{"type":1},"out_type":{"type":3}},"name":"BoxPredictor_4/Shape","op":"Shape"},{"input":["FeatureExtractor/MobilenetV1/Conv2d_13_pointwise_2_Conv2d_4_3x3_s2_256/Relu6","BoxPredictor_4/BoxEncodingPredictor/weights"],"attr":{"dilations":{"list":{"s":[],"i":["1","1","1","1"],"f":[],"b":[],"type":[],"shape":[],"tensor":[],"func":[]}},"T":{"type":1},"data_format":{"s":[78,72,87,67]},"strides":{"list":{"s":[],"i":["1","1","1","1"],"f":[],"b":[],"type":[],"shape":[],"tensor":[],"func":[]}},"use_cudnn_on_gpu":{"b":true},"padding":{"s":[83,65,77,69]}},"name":"BoxPredictor_4/BoxEncodingPredictor/Conv2D","op":"Conv2D"},{"input":["FeatureExtractor/MobilenetV1/Conv2d_13_pointwise_2_Conv2d_4_3x3_s2_256/Relu6","BoxPredictor_4/ClassPredictor/weights"],"attr":{"data_format":{"s":[78,72,87,67]},"strides":{"list":{"s":[],"i":["1","1","1","1"],"f":[],"b":[],"type":[],"shape":[],"tensor":[],"func":[]}},"use_cudnn_on_gpu":{"b":true},"padding":{"s":[83,65,77,69]},"dilations":{"list":{"s":[],"i":["1","1","1","1"],"f":[],"b":[],"type":[],"shape":[],"tensor":[],"func":[]}},"T":{"type":1}},"name":"BoxPredictor_4/ClassPredictor/Conv2D","op":"Conv2D"},{"input":["FeatureExtractor/MobilenetV1/Conv2d_13_pointwise_1_Conv2d_5_1x1_64/BatchNorm/FusedBatchNorm/Mul","FeatureExtractor/MobilenetV1/Conv2d_13_pointwise_1_Conv2d_5_1x1_64/BatchNorm/FusedBatchNorm/Offset"],"attr":{"T":{"type":1}},"name":"FeatureExtractor/MobilenetV1/Conv2d_13_pointwise_1_Conv2d_5_1x1_64/BatchNorm/FusedBatchNorm","op":"Add"},{"input":["BoxPredictor_4/Shape","Postprocessor/BatchMultiClassNonMaxSuppression/map/TensorArrayUnstack_1/strided_slice/stack","Postprocessor/BatchMultiClassNonMaxSuppression/map/TensorArrayUnstack_1/strided_slice/stack_1","Postprocessor/BatchMultiClassNonMaxSuppression/map/TensorArrayUnstack_1/strided_slice/stack_1"],"attr":{"T":{"type":3},"Index":{"type":3},"shrink_axis_mask":{"i":"1"},"ellipsis_mask":{"i":"0"},"begin_mask":{"i":"0"},"new_axis_mask":{"i":"0"},"end_mask":{"i":"0"}},"name":"BoxPredictor_4/strided_slice","op":"StridedSlice"},{"input":["BoxPredictor_4/BoxEncodingPredictor/Conv2D","BoxPredictor_4/BoxEncodingPredictor/biases"],"attr":{"T":{"type":1},"data_format":{"s":[78,72,87,67]}},"name":"BoxPredictor_4/BoxEncodingPredictor/BiasAdd","op":"BiasAdd"},{"input":["BoxPredictor_4/ClassPredictor/Conv2D","BoxPredictor_4/ClassPredictor/biases"],"attr":{"data_format":{"s":[78,72,87,67]},"T":{"type":1}},"name":"BoxPredictor_4/ClassPredictor/BiasAdd","op":"BiasAdd"},{"input":["FeatureExtractor/MobilenetV1/Conv2d_13_pointwise_1_Conv2d_5_1x1_64/BatchNorm/FusedBatchNorm"],"attr":{"T":{"type":1}},"name":"FeatureExtractor/MobilenetV1/Conv2d_13_pointwise_1_Conv2d_5_1x1_64/Relu6","op":"Relu6"},{"input":["BoxPredictor_4/strided_slice","BoxPredictor_4/stack_1/1","Postprocessor/BatchMultiClassNonMaxSuppression/map/TensorArrayStack/range/delta","BoxPredictor_0/stack/3"],"attr":{"T":{"type":3},"axis":{"i":"0"},"N":{"i":"4"}},"name":"BoxPredictor_4/stack","op":"Pack"},{"input":["BoxPredictor_4/strided_slice","BoxPredictor_4/stack_1/1","BoxPredictor_0/stack_1/2"],"attr":{"T":{"type":3},"axis":{"i":"0"},"N":{"i":"3"}},"name":"BoxPredictor_4/stack_1","op":"Pack"},{"input":["FeatureExtractor/MobilenetV1/Conv2d_13_pointwise_1_Conv2d_5_1x1_64/Relu6"],"attr":{"T":{"type":1},"out_type":{"type":3}},"name":"FeatureExtractor/MobilenetV1/Shape_3","op":"Shape"},{"input":["BoxPredictor_4/BoxEncodingPredictor/BiasAdd","BoxPredictor_4/stack"],"attr":{"T":{"type":1},"Tshape":{"type":3}},"name":"BoxPredictor_4/Reshape","op":"Reshape"},{"input":["BoxPredictor_4/ClassPredictor/BiasAdd","BoxPredictor_4/stack_1"],"attr":{"T":{"type":1},"Tshape":{"type":3}},"name":"BoxPredictor_4/Reshape_1","op":"Reshape"},{"input":["FeatureExtractor/MobilenetV1/Shape_3","FeatureExtractor/MobilenetV1/strided_slice/stack","FeatureExtractor/MobilenetV1/strided_slice/stack_1","FeatureExtractor/MobilenetV1/strided_slice/stack_1"],"attr":{"Index":{"type":3},"T":{"type":3},"shrink_axis_mask":{"i":"1"},"ellipsis_mask":{"i":"0"},"begin_mask":{"i":"0"},"new_axis_mask":{"i":"0"},"end_mask":{"i":"0"}},"name":"FeatureExtractor/MobilenetV1/strided_slice_3","op":"StridedSlice"},{"input":["BoxPredictor_4/Reshape"],"attr":{"squeeze_dims":{"list":{"s":[],"i":["2"],"f":[],"b":[],"type":[],"shape":[],"tensor":[],"func":[]}},"T":{"type":1}},"name":"Squeeze_4","op":"Squeeze"},{"input":["FeatureExtractor/MobilenetV1/strided_slice_3","FeatureExtractor/MobilenetV1/zeros_6/packed/2","FeatureExtractor/MobilenetV1/zeros_6/packed/1","FeatureExtractor/MobilenetV1/zeros_6/packed/3"],"attr":{"N":{"i":"4"},"T":{"type":3},"axis":{"i":"0"}},"name":"FeatureExtractor/MobilenetV1/zeros_7/packed","op":"Pack"},{"input":["FeatureExtractor/MobilenetV1/strided_slice_3","FeatureExtractor/MobilenetV1/zeros_6/packed/1","FeatureExtractor/MobilenetV1/zeros_6/packed/2","FeatureExtractor/MobilenetV1/zeros_6/packed/3"],"attr":{"T":{"type":3},"axis":{"i":"0"},"N":{"i":"4"}},"name":"FeatureExtractor/MobilenetV1/zeros_6/packed","op":"Pack"},{"input":["FeatureExtractor/MobilenetV1/zeros_7/packed","FeatureExtractor/MobilenetV1/zeros_6/Const"],"attr":{"index_type":{"type":3},"T":{"type":1}},"name":"FeatureExtractor/MobilenetV1/zeros_7","op":"Fill"},{"input":["FeatureExtractor/MobilenetV1/zeros_6/packed","FeatureExtractor/MobilenetV1/zeros_6/Const"],"attr":{"index_type":{"type":3},"T":{"type":1}},"name":"FeatureExtractor/MobilenetV1/zeros_6","op":"Fill"},{"input":["FeatureExtractor/MobilenetV1/Conv2d_13_pointwise_1_Conv2d_5_1x1_64/Relu6","FeatureExtractor/MobilenetV1/zeros_6","FeatureExtractor/MobilenetV1/concat_6/axis"],"attr":{"T":{"type":1},"N":{"i":"2"},"Tidx":{"type":3}},"name":"FeatureExtractor/MobilenetV1/concat_6","op":"ConcatV2"},{"input":["FeatureExtractor/MobilenetV1/concat_6","FeatureExtractor/MobilenetV1/zeros_7","FeatureExtractor/MobilenetV1/zeros_6/packed/2"],"attr":{"Tidx":{"type":3},"T":{"type":1},"N":{"i":"2"}},"name":"FeatureExtractor/MobilenetV1/concat_7","op":"ConcatV2"},{"input":["FeatureExtractor/MobilenetV1/concat_7","FeatureExtractor/MobilenetV1/Conv2d_13_pointwise_2_Conv2d_5_3x3_s2_128/Conv2D/merged_input"],"attr":{"padding":{"s":[83,65,77,69]},"dilations":{"list":{"s":[],"i":["1","1","1","1"],"f":[],"b":[],"type":[],"shape":[],"tensor":[],"func":[]}},"T":{"type":1},"strides":{"list":{"s":[],"i":["1","2","2","1"],"f":[],"b":[],"type":[],"shape":[],"tensor":[],"func":[]}},"data_format":{"s":[78,72,87,67]},"use_cudnn_on_gpu":{"b":true}},"name":"FeatureExtractor/MobilenetV1/Conv2d_13_pointwise_2_Conv2d_5_3x3_s2_128/BatchNorm/FusedBatchNorm/Mul","op":"Conv2D"},{"input":["FeatureExtractor/MobilenetV1/Conv2d_13_pointwise_2_Conv2d_5_3x3_s2_128/BatchNorm/FusedBatchNorm/Mul","FeatureExtractor/MobilenetV1/Conv2d_13_pointwise_2_Conv2d_5_3x3_s2_128/BatchNorm/FusedBatchNorm/Offset"],"attr":{"T":{"type":1}},"name":"FeatureExtractor/MobilenetV1/Conv2d_13_pointwise_2_Conv2d_5_3x3_s2_128/BatchNorm/FusedBatchNorm","op":"Add"},{"input":["FeatureExtractor/MobilenetV1/Conv2d_13_pointwise_2_Conv2d_5_3x3_s2_128/BatchNorm/FusedBatchNorm"],"attr":{"T":{"type":1}},"name":"FeatureExtractor/MobilenetV1/Conv2d_13_pointwise_2_Conv2d_5_3x3_s2_128/Relu6","op":"Relu6"},{"input":["FeatureExtractor/MobilenetV1/Conv2d_13_pointwise_2_Conv2d_5_3x3_s2_128/Relu6"],"attr":{"T":{"type":1},"out_type":{"type":3}},"name":"BoxPredictor_5/Shape","op":"Shape"},{"input":["FeatureExtractor/MobilenetV1/Conv2d_13_pointwise_2_Conv2d_5_3x3_s2_128/Relu6","BoxPredictor_5/BoxEncodingPredictor/weights"],"attr":{"padding":{"s":[83,65,77,69]},"dilations":{"list":{"s":[],"i":["1","1","1","1"],"f":[],"b":[],"type":[],"shape":[],"tensor":[],"func":[]}},"T":{"type":1},"strides":{"list":{"s":[],"i":["1","1","1","1"],"f":[],"b":[],"type":[],"shape":[],"tensor":[],"func":[]}},"data_format":{"s":[78,72,87,67]},"use_cudnn_on_gpu":{"b":true}},"name":"BoxPredictor_5/BoxEncodingPredictor/Conv2D","op":"Conv2D"},{"input":["FeatureExtractor/MobilenetV1/Conv2d_13_pointwise_2_Conv2d_5_3x3_s2_128/Relu6","BoxPredictor_5/ClassPredictor/weights"],"attr":{"dilations":{"list":{"s":[],"i":["1","1","1","1"],"f":[],"b":[],"type":[],"shape":[],"tensor":[],"func":[]}},"T":{"type":1},"strides":{"list":{"s":[],"i":["1","1","1","1"],"f":[],"b":[],"type":[],"shape":[],"tensor":[],"func":[]}},"data_format":{"s":[78,72,87,67]},"use_cudnn_on_gpu":{"b":true},"padding":{"s":[83,65,77,69]}},"name":"BoxPredictor_5/ClassPredictor/Conv2D","op":"Conv2D"},{"input":["BoxPredictor_5/Shape","Postprocessor/BatchMultiClassNonMaxSuppression/map/TensorArrayUnstack_1/strided_slice/stack","Postprocessor/BatchMultiClassNonMaxSuppression/map/TensorArrayUnstack_1/strided_slice/stack_1","Postprocessor/BatchMultiClassNonMaxSuppression/map/TensorArrayUnstack_1/strided_slice/stack_1"],"attr":{"ellipsis_mask":{"i":"0"},"begin_mask":{"i":"0"},"new_axis_mask":{"i":"0"},"end_mask":{"i":"0"},"Index":{"type":3},"T":{"type":3},"shrink_axis_mask":{"i":"1"}},"name":"BoxPredictor_5/strided_slice","op":"StridedSlice"},{"input":["BoxPredictor_5/BoxEncodingPredictor/Conv2D","BoxPredictor_5/BoxEncodingPredictor/biases"],"attr":{"data_format":{"s":[78,72,87,67]},"T":{"type":1}},"name":"BoxPredictor_5/BoxEncodingPredictor/BiasAdd","op":"BiasAdd"},{"input":["BoxPredictor_5/ClassPredictor/Conv2D","BoxPredictor_5/ClassPredictor/biases"],"attr":{"T":{"type":1},"data_format":{"s":[78,72,87,67]}},"name":"BoxPredictor_5/ClassPredictor/BiasAdd","op":"BiasAdd"},{"input":["BoxPredictor_5/strided_slice","BoxPredictor_5/stack_1/1","Postprocessor/BatchMultiClassNonMaxSuppression/map/TensorArrayStack/range/delta","BoxPredictor_0/stack/3"],"attr":{"axis":{"i":"0"},"N":{"i":"4"},"T":{"type":3}},"name":"BoxPredictor_5/stack","op":"Pack"},{"input":["BoxPredictor_5/strided_slice","BoxPredictor_5/stack_1/1","BoxPredictor_0/stack_1/2"],"attr":{"T":{"type":3},"axis":{"i":"0"},"N":{"i":"3"}},"name":"BoxPredictor_5/stack_1","op":"Pack"},{"input":["BoxPredictor_5/BoxEncodingPredictor/BiasAdd","BoxPredictor_5/stack"],"attr":{"Tshape":{"type":3},"T":{"type":1}},"name":"BoxPredictor_5/Reshape","op":"Reshape"},{"input":["BoxPredictor_5/ClassPredictor/BiasAdd","BoxPredictor_5/stack_1"],"attr":{"T":{"type":1},"Tshape":{"type":3}},"name":"BoxPredictor_5/Reshape_1","op":"Reshape"},{"input":["BoxPredictor_5/Reshape"],"attr":{"T":{"type":1},"squeeze_dims":{"list":{"s":[],"i":["2"],"f":[],"b":[],"type":[],"shape":[],"tensor":[],"func":[]}}},"name":"Squeeze_5","op":"Squeeze"},{"input":["^Squeeze_2","^Squeeze_1","^Squeeze_3","^Squeeze","^Squeeze_4","^Squeeze_5"],"attr":{"value":{"tensor":{"floatVal":[],"doubleVal":[],"intVal":[],"stringVal":[],"scomplexVal":[],"int64Val":[],"boolVal":[],"uint32Val":[],"uint64Val":[],"dtype":3,"tensorShape":{"dim":[]}}},"dtype":{"type":3}},"name":"concat_1/axis","op":"Const"},{"input":["Squeeze","Squeeze_1","Squeeze_2","Squeeze_3","Squeeze_4","Squeeze_5","concat_1/axis"],"attr":{"Tidx":{"type":3},"T":{"type":1},"N":{"i":"6"}},"name":"concat","op":"ConcatV2"},{"input":["BoxPredictor_0/Reshape_1","BoxPredictor_1/Reshape_1","BoxPredictor_2/Reshape_1","BoxPredictor_3/Reshape_1","BoxPredictor_4/Reshape_1","BoxPredictor_5/Reshape_1","concat_1/axis"],"attr":{"Tidx":{"type":3},"T":{"type":1},"N":{"i":"6"}},"name":"concat_1","op":"ConcatV2"},{"input":["concat"],"attr":{"T":{"type":1},"out_type":{"type":3}},"name":"Postprocessor/Shape","op":"Shape"},{"input":["concat","Postprocessor/Reshape_1/shape"],"attr":{"Tshape":{"type":3},"T":{"type":1}},"name":"Postprocessor/Reshape_1","op":"Reshape"},{"input":["concat_1","Postprocessor/Slice/begin","Postprocessor/Slice/size"],"attr":{"T":{"type":1},"Index":{"type":3}},"name":"Postprocessor/Slice","op":"Slice"},{"input":["Postprocessor/Shape","Postprocessor/BatchMultiClassNonMaxSuppression/map/TensorArrayUnstack_1/strided_slice/stack","Postprocessor/BatchMultiClassNonMaxSuppression/map/TensorArrayUnstack_1/strided_slice/stack_1","Postprocessor/BatchMultiClassNonMaxSuppression/map/TensorArrayUnstack_1/strided_slice/stack_1"],"attr":{"shrink_axis_mask":{"i":"1"},"begin_mask":{"i":"0"},"ellipsis_mask":{"i":"0"},"new_axis_mask":{"i":"0"},"end_mask":{"i":"0"},"T":{"type":3},"Index":{"type":3}},"name":"Postprocessor/strided_slice","op":"StridedSlice"},{"input":["^Postprocessor/Reshape_1"],"attr":{"value":{"tensor":{"floatVal":[],"doubleVal":[],"intVal":[],"stringVal":[],"scomplexVal":[],"int64Val":[],"boolVal":[],"uint32Val":[],"uint64Val":[],"dtype":3,"tensorShape":{"dim":[{"size":"2"}]}}},"dtype":{"type":3}},"name":"Postprocessor/Decode/transpose/sub_1","op":"Const"},{"input":["Postprocessor/Slice"],"attr":{"T":{"type":1}},"name":"Postprocessor/Sigmoid","op":"Sigmoid"},{"input":["Postprocessor/strided_slice","Postprocessor/BatchMultiClassNonMaxSuppression/mul/y","BoxPredictor_0/stack/3"],"attr":{"N":{"i":"3"},"T":{"type":3},"axis":{"i":"0"}},"name":"Postprocessor/stack","op":"Pack"},{"input":["Postprocessor/strided_slice","Postprocessor/BatchMultiClassNonMaxSuppression/map/TensorArrayStack/range/delta","Postprocessor/BatchMultiClassNonMaxSuppression/map/TensorArrayStack/range/delta"],"attr":{"T":{"type":3},"axis":{"i":"0"},"N":{"i":"3"}},"name":"Postprocessor/Tile/multiples","op":"Pack"},{"input":["Postprocessor/Reshape_1","Postprocessor/Decode/transpose/sub_1"],"attr":{"Tperm":{"type":3},"T":{"type":1}},"name":"Postprocessor/Decode/transpose","op":"Transpose"},{"input":["Postprocessor/Sigmoid"],"attr":{"T":{"type":1},"out_type":{"type":3}},"name":"Postprocessor/BatchMultiClassNonMaxSuppression/map/TensorArrayUnstack_1/Shape","op":"Shape"},{"input":["Postprocessor/ExpandDims","Postprocessor/Tile/multiples"],"attr":{"Tmultiples":{"type":3},"T":{"type":1}},"name":"Postprocessor/Tile","op":"Tile"},{"input":["Postprocessor/Decode/transpose"],"attr":{"axis":{"i":"0"},"num":{"i":"4"},"T":{"type":1}},"name":"Postprocessor/Decode/unstack","op":"Unpack"},{"input":["Postprocessor/BatchMultiClassNonMaxSuppression/map/TensorArrayUnstack_1/Shape","Postprocessor/BatchMultiClassNonMaxSuppression/map/TensorArrayUnstack_1/strided_slice/stack","Postprocessor/BatchMultiClassNonMaxSuppression/map/TensorArrayUnstack_1/strided_slice/stack_1","Postprocessor/BatchMultiClassNonMaxSuppression/map/TensorArrayUnstack_1/strided_slice/stack_1"],"attr":{"T":{"type":3},"Index":{"type":3},"shrink_axis_mask":{"i":"1"},"begin_mask":{"i":"0"},"ellipsis_mask":{"i":"0"},"new_axis_mask":{"i":"0"},"end_mask":{"i":"0"}},"name":"Postprocessor/BatchMultiClassNonMaxSuppression/map/TensorArrayUnstack_1/strided_slice","op":"StridedSlice"},{"input":["Postprocessor/Tile","Postprocessor/Reshape_1/shape"],"attr":{"T":{"type":1},"Tshape":{"type":3}},"name":"Postprocessor/Reshape","op":"Reshape"},{"input":["Postprocessor/Decode/unstack:3","ConstantFolding/Postprocessor/Decode/truediv_2_recip"],"attr":{"T":{"type":1}},"name":"Postprocessor/Decode/truediv_3","op":"Mul"},{"input":["Postprocessor/Decode/unstack:1","ConstantFolding/Postprocessor/Decode/truediv_recip"],"attr":{"T":{"type":1}},"name":"Postprocessor/Decode/truediv_1","op":"Mul"},{"input":["Postprocessor/Decode/unstack:2","ConstantFolding/Postprocessor/Decode/truediv_2_recip"],"attr":{"T":{"type":1}},"name":"Postprocessor/Decode/truediv_2","op":"Mul"},{"input":["Postprocessor/Decode/unstack","ConstantFolding/Postprocessor/Decode/truediv_recip"],"attr":{"T":{"type":1}},"name":"Postprocessor/Decode/truediv","op":"Mul"},{"input":["Postprocessor/BatchMultiClassNonMaxSuppression/map/TensorArrayStack/range/start","Postprocessor/BatchMultiClassNonMaxSuppression/map/TensorArrayUnstack_1/strided_slice","Postprocessor/BatchMultiClassNonMaxSuppression/map/TensorArrayStack/range/delta"],"attr":{"Tidx":{"type":3}},"name":"Postprocessor/BatchMultiClassNonMaxSuppression/map/TensorArrayUnstack_1/range","op":"Range"},{"input":["^Postprocessor/Reshape"],"attr":{"value":{"tensor":{"floatVal":[],"doubleVal":[],"intVal":[],"stringVal":[],"scomplexVal":[],"int64Val":[],"boolVal":[],"uint32Val":[],"uint64Val":[],"dtype":3,"tensorShape":{"dim":[{"size":"2"}]}}},"dtype":{"type":3}},"name":"Postprocessor/Decode/get_center_coordinates_and_sizes/transpose/sub_1","op":"Const"},{"input":["Postprocessor/Decode/truediv_3"],"attr":{"T":{"type":1}},"name":"Postprocessor/Decode/Exp","op":"Exp"},{"input":["Postprocessor/Decode/truediv_2"],"attr":{"T":{"type":1}},"name":"Postprocessor/Decode/Exp_1","op":"Exp"},{"input":["Postprocessor/Reshape","Postprocessor/Decode/get_center_coordinates_and_sizes/transpose/sub_1"],"attr":{"Tperm":{"type":3},"T":{"type":1}},"name":"Postprocessor/Decode/get_center_coordinates_and_sizes/transpose","op":"Transpose"},{"input":["Postprocessor/Decode/get_center_coordinates_and_sizes/transpose"],"attr":{"num":{"i":"4"},"T":{"type":1},"axis":{"i":"0"}},"name":"Postprocessor/Decode/get_center_coordinates_and_sizes/unstack","op":"Unpack"},{"input":["Postprocessor/Decode/get_center_coordinates_and_sizes/unstack:3","Postprocessor/Decode/get_center_coordinates_and_sizes/unstack:1"],"attr":{"T":{"type":1}},"name":"Postprocessor/Decode/get_center_coordinates_and_sizes/sub","op":"Sub"},{"input":["Postprocessor/Decode/get_center_coordinates_and_sizes/unstack:2","Postprocessor/Decode/get_center_coordinates_and_sizes/unstack"],"attr":{"T":{"type":1}},"name":"Postprocessor/Decode/get_center_coordinates_and_sizes/sub_1","op":"Sub"},{"input":["ConstantFolding/Postprocessor/Decode/truediv_4_recip","Postprocessor/Decode/get_center_coordinates_and_sizes/sub"],"attr":{"T":{"type":1}},"name":"Postprocessor/Decode/mul","op":"Mul"},{"input":["Postprocessor/Decode/truediv_1","Postprocessor/Decode/get_center_coordinates_and_sizes/sub"],"attr":{"T":{"type":1}},"name":"Postprocessor/Decode/mul_3","op":"Mul"},{"input":["ConstantFolding/Postprocessor/Decode/truediv_4_recip","Postprocessor/Decode/get_center_coordinates_and_sizes/sub_1"],"attr":{"T":{"type":1}},"name":"Postprocessor/Decode/mul_1","op":"Mul"},{"input":["Postprocessor/Decode/truediv","Postprocessor/Decode/get_center_coordinates_and_sizes/sub_1"],"attr":{"T":{"type":1}},"name":"Postprocessor/Decode/mul_2","op":"Mul"},{"input":["Postprocessor/Decode/mul","Postprocessor/Decode/Exp"],"attr":{"T":{"type":1}},"name":"Postprocessor/Decode/truediv_5","op":"Mul"},{"input":["Postprocessor/Decode/get_center_coordinates_and_sizes/unstack:1","Postprocessor/Decode/mul"],"attr":{"T":{"type":1}},"name":"Postprocessor/Decode/get_center_coordinates_and_sizes/add_1","op":"Add"},{"input":["Postprocessor/Decode/mul_1","Postprocessor/Decode/Exp_1"],"attr":{"T":{"type":1}},"name":"Postprocessor/Decode/truediv_4","op":"Mul"},{"input":["Postprocessor/Decode/get_center_coordinates_and_sizes/unstack","Postprocessor/Decode/mul_1"],"attr":{"T":{"type":1}},"name":"Postprocessor/Decode/get_center_coordinates_and_sizes/add","op":"Add"},{"input":["Postprocessor/Decode/mul_3","Postprocessor/Decode/get_center_coordinates_and_sizes/add_1"],"attr":{"T":{"type":1}},"name":"Postprocessor/Decode/add_1","op":"Add"},{"input":["Postprocessor/Decode/mul_2","Postprocessor/Decode/get_center_coordinates_and_sizes/add"],"attr":{"T":{"type":1}},"name":"Postprocessor/Decode/add","op":"Add"},{"input":["Postprocessor/Decode/add_1","Postprocessor/Decode/truediv_5"],"attr":{"T":{"type":1}},"name":"Postprocessor/Decode/add_3","op":"Add"},{"input":["Postprocessor/Decode/add_1","Postprocessor/Decode/truediv_5"],"attr":{"T":{"type":1}},"name":"Postprocessor/Decode/sub_1","op":"Sub"},{"input":["Postprocessor/Decode/add","Postprocessor/Decode/truediv_4"],"attr":{"T":{"type":1}},"name":"Postprocessor/Decode/add_2","op":"Add"},{"input":["Postprocessor/Decode/add","Postprocessor/Decode/truediv_4"],"attr":{"T":{"type":1}},"name":"Postprocessor/Decode/sub","op":"Sub"},{"input":["Postprocessor/Decode/sub","Postprocessor/Decode/sub_1","Postprocessor/Decode/add_2","Postprocessor/Decode/add_3"],"attr":{"T":{"type":1},"axis":{"i":"0"},"N":{"i":"4"}},"name":"Postprocessor/Decode/stack","op":"Pack"},{"input":["^Postprocessor/Decode/stack"],"attr":{"value":{"tensor":{"floatVal":[],"doubleVal":[],"intVal":[],"stringVal":[],"scomplexVal":[],"int64Val":[],"boolVal":[],"uint32Val":[],"uint64Val":[],"dtype":3,"tensorShape":{"dim":[{"size":"2"}]}}},"dtype":{"type":3}},"name":"Postprocessor/Decode/transpose_1/sub_1","op":"Const"},{"input":["Postprocessor/Decode/stack","Postprocessor/Decode/transpose_1/sub_1"],"attr":{"Tperm":{"type":3},"T":{"type":1}},"name":"Postprocessor/Decode/transpose_1","op":"Transpose"},{"input":["Postprocessor/Decode/transpose_1","Postprocessor/stack"],"attr":{"T":{"type":1},"Tshape":{"type":3}},"name":"Postprocessor/Reshape_2","op":"Reshape"},{"input":["Postprocessor/Reshape_2","BoxPredictor_0/stack_1/2"],"attr":{"T":{"type":1},"Tdim":{"type":3}},"name":"Postprocessor/ExpandDims_1","op":"ExpandDims"},{"input":["Postprocessor/ExpandDims_1"],"attr":{"T":{"type":1},"out_type":{"type":3}},"name":"Postprocessor/BatchMultiClassNonMaxSuppression/map/TensorArrayUnstack/Shape","op":"Shape"},{"input":["Postprocessor/BatchMultiClassNonMaxSuppression/map/TensorArrayUnstack/Shape","Postprocessor/BatchMultiClassNonMaxSuppression/map/TensorArrayUnstack_1/strided_slice/stack","Postprocessor/BatchMultiClassNonMaxSuppression/map/TensorArrayUnstack_1/strided_slice/stack_1","Postprocessor/BatchMultiClassNonMaxSuppression/map/TensorArrayUnstack_1/strided_slice/stack_1"],"attr":{"ellipsis_mask":{"i":"0"},"begin_mask":{"i":"0"},"new_axis_mask":{"i":"0"},"end_mask":{"i":"0"},"Index":{"type":3},"T":{"type":3},"shrink_axis_mask":{"i":"1"}},"name":"Postprocessor/BatchMultiClassNonMaxSuppression/map/TensorArrayUnstack/strided_slice","op":"StridedSlice"},{"input":["Postprocessor/BatchMultiClassNonMaxSuppression/map/TensorArrayUnstack/strided_slice"],"attr":{"frame_name":{"s":[80,111,115,116,112,114,111,99,101,115,115,111,114,47,66,97,116,99,104,77,117,108,116,105,67,108,97,115,115,78,111,110,77,97,120,83,117,112,112,114,101,115,115,105,111,110,47,109,97,112,47,119,104,105,108,101,47,119,104,105,108,101,95,99,111,110,116,101,120,116]},"T":{"type":3},"is_constant":{"b":true},"parallel_iterations":{"i":"32"}},"name":"Postprocessor/BatchMultiClassNonMaxSuppression/map/while/Less/Enter","op":"Enter"},{"input":["Postprocessor/BatchMultiClassNonMaxSuppression/map/TensorArrayUnstack/strided_slice"],"attr":{"tensor_array_name":{"s":[]},"dtype":{"type":3},"element_shape":{"shape":{"dim":[],"unknownRank":true}},"clear_after_read":{"b":true},"dynamic_size":{"b":false},"identical_element_shapes":{"b":true}},"name":"Postprocessor/BatchMultiClassNonMaxSuppression/map/TensorArray_3","op":"TensorArrayV3"},{"input":["^Postprocessor/BatchMultiClassNonMaxSuppression/map/TensorArrayUnstack/strided_slice"],"attr":{"value":{"tensor":{"floatVal":[],"doubleVal":[],"intVal":[],"stringVal":[],"scomplexVal":[],"int64Val":[],"boolVal":[],"uint32Val":[],"uint64Val":[],"dtype":3,"tensorShape":{"dim":[]}}},"dtype":{"type":3}},"name":"ConstantFolding/Postprocessor/BatchMultiClassNonMaxSuppression/ones/packed_const_axis","op":"Const"},{"input":["Postprocessor/BatchMultiClassNonMaxSuppression/map/TensorArrayUnstack/strided_slice"],"attr":{"element_shape":{"shape":{"dim":[],"unknownRank":true}},"dynamic_size":{"b":false},"clear_after_read":{"b":true},"identical_element_shapes":{"b":true},"tensor_array_name":{"s":[]},"dtype":{"type":1}},"name":"Postprocessor/BatchMultiClassNonMaxSuppression/map/TensorArray","op":"TensorArrayV3"},{"input":["Postprocessor/BatchMultiClassNonMaxSuppression/map/TensorArrayStack/range/start","Postprocessor/BatchMultiClassNonMaxSuppression/map/TensorArrayUnstack/strided_slice","Postprocessor/BatchMultiClassNonMaxSuppression/map/TensorArrayStack/range/delta"],"attr":{"Tidx":{"type":3}},"name":"Postprocessor/BatchMultiClassNonMaxSuppression/map/TensorArrayUnstack/range","op":"Range"},{"input":["Postprocessor/BatchMultiClassNonMaxSuppression/map/TensorArrayUnstack/strided_slice"],"attr":{"element_shape":{"shape":{"dim":[],"unknownRank":true}},"clear_after_read":{"b":true},"dynamic_size":{"b":false},"identical_element_shapes":{"b":true},"tensor_array_name":{"s":[]},"dtype":{"type":1}},"name":"Postprocessor/BatchMultiClassNonMaxSuppression/map/TensorArray_1","op":"TensorArrayV3"},{"input":["Postprocessor/BatchMultiClassNonMaxSuppression/map/TensorArrayUnstack/strided_slice"],"attr":{"tensor_array_name":{"s":[]},"dtype":{"type":3},"element_shape":{"shape":{"dim":[],"unknownRank":true}},"dynamic_size":{"b":false},"clear_after_read":{"b":true},"identical_element_shapes":{"b":true}},"name":"Postprocessor/BatchMultiClassNonMaxSuppression/map/TensorArray_8","op":"TensorArrayV3"},{"input":["Postprocessor/BatchMultiClassNonMaxSuppression/map/TensorArrayUnstack/strided_slice"],"attr":{"dynamic_size":{"b":false},"clear_after_read":{"b":true},"identical_element_shapes":{"b":true},"tensor_array_name":{"s":[]},"dtype":{"type":1},"element_shape":{"shape":{"dim":[],"unknownRank":true}}},"name":"Postprocessor/BatchMultiClassNonMaxSuppression/map/TensorArray_5","op":"TensorArrayV3"},{"input":["Postprocessor/BatchMultiClassNonMaxSuppression/map/TensorArrayUnstack/strided_slice"],"attr":{"tensor_array_name":{"s":[]},"dtype":{"type":1},"element_shape":{"shape":{"dim":[],"unknownRank":true}},"dynamic_size":{"b":false},"clear_after_read":{"b":true},"identical_element_shapes":{"b":true}},"name":"Postprocessor/BatchMultiClassNonMaxSuppression/map/TensorArray_6","op":"TensorArrayV3"},{"input":["Postprocessor/BatchMultiClassNonMaxSuppression/map/TensorArrayUnstack/strided_slice"],"attr":{"tensor_array_name":{"s":[]},"dtype":{"type":1},"element_shape":{"shape":{"dim":[],"unknownRank":true}},"clear_after_read":{"b":true},"dynamic_size":{"b":false},"identical_element_shapes":{"b":true}},"name":"Postprocessor/BatchMultiClassNonMaxSuppression/map/TensorArray_4","op":"TensorArrayV3"},{"input":["Postprocessor/BatchMultiClassNonMaxSuppression/map/while/Merge_1","Postprocessor/BatchMultiClassNonMaxSuppression/map/whil…
dDims/dim","op":"Const"},{"input":["^Postprocessor/BatchMultiClassNonMaxSuppression/map/while/PadOrClipBoxList/cond_1/cond/switch_f"],"attr":{"value":{"tensor":{"floatVal":[],"doubleVal":[],"intVal":[],"stringVal":[],"scomplexVal":[],"int64Val":[],"boolVal":[],"uint32Val":[],"uint64Val":[],"dtype":3,"tensorShape":{"dim":[]}}},"dtype":{"type":3}},"name":"Postprocessor/BatchMultiClassNonMaxSuppression/map/while/PadOrClipBoxList/cond_1/cond/sub/x","op":"Const"},{"input":["Postprocessor/BatchMultiClassNonMaxSuppression/map/while/PadOrClipBoxList/cond_1/Shape","Postprocessor/BatchMultiClassNonMaxSuppression/map/while/PadOrClipBoxList/cond_1/strided_slice/stack","Postprocessor/BatchMultiClassNonMaxSuppression/map/while/PadOrClipBoxList/cond_1/strided_slice/stack_1","Postprocessor/BatchMultiClassNonMaxSuppression/map/while/PadOrClipBoxList/cond_1/strided_slice/stack_1"],"attr":{"Index":{"type":3},"T":{"type":3},"shrink_axis_mask":{"i":"1"},"begin_mask":{"i":"0"},"ellipsis_mask":{"i":"0"},"new_axis_mask":{"i":"0"},"end_mask":{"i":"0"}},"name":"Postprocessor/BatchMultiClassNonMaxSuppression/map/while/PadOrClipBoxList/cond_1/strided_slice","op":"StridedSlice"},{"input":["Postprocessor/BatchMultiClassNonMaxSuppression/map/while/PadOrClipBoxList/cond_3/Shape/Switch:1","Postprocessor/BatchMultiClassNonMaxSuppression/map/while/PadOrClipBoxList/cond_3/range","Postprocessor/BatchMultiClassNonMaxSuppression/map/while/PadOrClipBoxList/cond_3/GatherV2/axis"],"attr":{"Taxis":{"type":3},"Tindices":{"type":3},"Tparams":{"type":1}},"name":"Postprocessor/BatchMultiClassNonMaxSuppression/map/while/PadOrClipBoxList/cond_3/GatherV2","op":"GatherV2"},{"input":["Postprocessor/BatchMultiClassNonMaxSuppression/map/while/PadOrClipBoxList/cond_3/cond/switch_f","Postprocessor/BatchMultiClassNonMaxSuppression/map/while/PadOrClipBoxList/cond_3/cond/switch_f"],"attr":{"T":{"type":10}},"name":"Postprocessor/BatchMultiClassNonMaxSuppression/map/while/PadOrClipBoxList/cond_3/cond/Switch","op":"Switch"},{"input":["Postprocessor/BatchMultiClassNonMaxSuppression/map/while/PadOrClipBoxList/cond_3/Shape","Postprocessor/BatchMultiClassNonMaxSuppression/map/while/PadOrClipBoxList/cond_3/cond/switch_f"],"attr":{"T":{"type":3}},"name":"Postprocessor/BatchMultiClassNonMaxSuppression/map/while/PadOrClipBoxList/cond_3/cond/strided_slice/Switch","op":"Switch"},{"input":["^Postprocessor/BatchMultiClassNonMaxSuppression/map/while/PadOrClipBoxList/cond_3/cond/switch_f"],"attr":{"value":{"tensor":{"floatVal":[],"doubleVal":[],"intVal":[],"stringVal":[],"scomplexVal":[],"int64Val":[],"boolVal":[],"uint32Val":[],"uint64Val":[],"dtype":3,"tensorShape":{"dim":[]}}},"dtype":{"type":3}},"name":"Postprocessor/BatchMultiClassNonMaxSuppression/map/while/PadOrClipBoxList/cond_3/cond/ExpandDims/dim","op":"Const"},{"input":["^Postprocessor/BatchMultiClassNonMaxSuppression/map/while/PadOrClipBoxList/cond_3/cond/switch_f"],"attr":{"dtype":{"type":3},"value":{"tensor":{"floatVal":[],"doubleVal":[],"intVal":[],"stringVal":[],"scomplexVal":[],"int64Val":[],"boolVal":[],"uint32Val":[],"uint64Val":[],"dtype":3,"tensorShape":{"dim":[]}}}},"name":"Postprocessor/BatchMultiClassNonMaxSuppression/map/while/PadOrClipBoxList/cond_3/cond/sub/x","op":"Const"},{"input":["Postprocessor/BatchMultiClassNonMaxSuppression/map/while/PadOrClipBoxList/cond_3/Shape","Postprocessor/BatchMultiClassNonMaxSuppression/map/while/PadOrClipBoxList/cond_3/strided_slice/stack","Postprocessor/BatchMultiClassNonMaxSuppression/map/while/PadOrClipBoxList/cond_3/strided_slice/stack_1","Postprocessor/BatchMultiClassNonMaxSuppression/map/while/PadOrClipBoxList/cond_3/strided_slice/stack_1"],"attr":{"T":{"type":3},"Index":{"type":3},"shrink_axis_mask":{"i":"1"},"begin_mask":{"i":"0"},"ellipsis_mask":{"i":"0"},"new_axis_mask":{"i":"0"},"end_mask":{"i":"0"}},"name":"Postprocessor/BatchMultiClassNonMaxSuppression/map/while/PadOrClipBoxList/cond_3/strided_slice","op":"StridedSlice"},{"input":["Postprocessor/BatchMultiClassNonMaxSuppression/map/while/PadOrClipBoxList/cond/cond/strided_slice/Switch:1","Postprocessor/BatchMultiClassNonMaxSuppression/map/while/PadOrClipBoxList/cond/cond/strided_slice/stack","Postprocessor/BatchMultiClassNonMaxSuppression/map/while/PadOrClipBoxList/cond/cond/strided_slice/stack_1","Postprocessor/BatchMultiClassNonMaxSuppression/map/while/PadOrClipBoxList/cond/cond/strided_slice/stack"],"attr":{"shrink_axis_mask":{"i":"0"},"begin_mask":{"i":"0"},"ellipsis_mask":{"i":"0"},"new_axis_mask":{"i":"0"},"end_mask":{"i":"1"},"Index":{"type":3},"T":{"type":3}},"name":"Postprocessor/BatchMultiClassNonMaxSuppression/map/while/PadOrClipBoxList/cond/cond/strided_slice","op":"StridedSlice"},{"input":["Postprocessor/BatchMultiClassNonMaxSuppression/map/while/PadOrClipBoxList/cond/cond/Switch"],"attr":{"T":{"type":10}},"name":"Postprocessor/BatchMultiClassNonMaxSuppression/map/while/PadOrClipBoxList/cond/cond/switch_f","op":"Identity"},{"input":["Postprocessor/BatchMultiClassNonMaxSuppression/map/while/PadOrClipBoxList/cond/sub/x","Postprocessor/BatchMultiClassNonMaxSuppression/map/while/PadOrClipBoxList/cond/strided_slice"],"attr":{"T":{"type":3}},"name":"Postprocessor/BatchMultiClassNonMaxSuppression/map/while/PadOrClipBoxList/cond/sub","op":"Sub"},{"input":["Postprocessor/BatchMultiClassNonMaxSuppression/map/while/PadOrClipBoxList/cond/strided_slice","Postprocessor/BatchMultiClassNonMaxSuppression/map/while/PadOrClipBoxList/cond/Greater"],"attr":{"T":{"type":3}},"name":"Postprocessor/BatchMultiClassNonMaxSuppression/map/while/PadOrClipBoxList/cond/cond/sub/Switch","op":"Switch"},{"input":["Postprocessor/BatchMultiClassNonMaxSuppression/map/while/PadOrClipBoxList/cond_1/cond/Switch:1"],"attr":{"T":{"type":10}},"name":"Postprocessor/BatchMultiClassNonMaxSuppression/map/while/PadOrClipBoxList/cond_1/cond/switch_t","op":"Identity"},{"input":["Postprocessor/BatchMultiClassNonMaxSuppression/map/while/PadOrClipBoxList/cond_1/sub/x","Postprocessor/BatchMultiClassNonMaxSuppression/map/while/PadOrClipBoxList/cond_1/strided_slice"],"attr":{"T":{"type":3}},"name":"Postprocessor/BatchMultiClassNonMaxSuppression/map/while/PadOrClipBoxList/cond_1/sub","op":"Sub"},{"input":["Postprocessor/BatchMultiClassNonMaxSuppression/map/while/PadOrClipBoxList/cond_1/strided_slice","Postprocessor/BatchMultiClassNonMaxSuppression/map/while/PadOrClipBoxList/cond_1/cond/switch_f"],"attr":{"T":{"type":3}},"name":"Postprocessor/BatchMultiClassNonMaxSuppression/map/while/PadOrClipBoxList/cond_1/cond/sub/Switch","op":"Switch"},{"input":["Postprocessor/BatchMultiClassNonMaxSuppression/map/while/PadOrClipBoxList/cond_3/cond/Switch:1"],"attr":{"T":{"type":10}},"name":"Postprocessor/BatchMultiClassNonMaxSuppression/map/while/PadOrClipBoxList/cond_3/cond/switch_t","op":"Identity"},{"input":["Postprocessor/BatchMultiClassNonMaxSuppression/map/while/PadOrClipBoxList/cond_3/sub/x","Postprocessor/BatchMultiClassNonMaxSuppression/map/while/PadOrClipBoxList/cond_3/strided_slice"],"attr":{"T":{"type":3}},"name":"Postprocessor/BatchMultiClassNonMaxSuppression/map/while/PadOrClipBoxList/cond_3/sub","op":"Sub"},{"input":["Postprocessor/BatchMultiClassNonMaxSuppression/map/while/PadOrClipBoxList/cond_3/strided_slice","Postprocessor/BatchMultiClassNonMaxSuppression/map/while/PadOrClipBoxList/cond_3/cond/switch_f"],"attr":{"T":{"type":3}},"name":"Postprocessor/BatchMultiClassNonMaxSuppression/map/while/PadOrClipBoxList/cond_3/cond/sub/Switch","op":"Switch"},{"input":["^Postprocessor/BatchMultiClassNonMaxSuppression/map/while/PadOrClipBoxList/cond/cond/switch_f"],"attr":{"value":{"tensor":{"floatVal":[],"doubleVal":[],"intVal":[],"stringVal":[],"scomplexVal":[],"int64Val":[],"boolVal":[],"uint32Val":[],"uint64Val":[],"dtype":3,"tensorShape":{"dim":[]}}},"dtype":{"type":3}},"name":"Postprocessor/BatchMultiClassNonMaxSuppression/map/while/PadOrClipBoxList/cond/cond/ExpandDims/dim","op":"Const"},{"input":["^Postprocessor/BatchMultiClassNonMaxSuppression/map/while/PadOrClipBoxList/cond/cond/switch_f"],"attr":{"value":{"tensor":{"floatVal":[],"doubleVal":[],"intVal":[],"stringVal":[],"scomplexVal":[],"int64Val":[],"boolVal":[],"uint32Val":[],"uint64Val":[],"dtype":3,"tensorShape":{"dim":[]}}},"dtype":{"type":3}},"name":"Postprocessor/BatchMultiClassNonMaxSuppression/map/while/PadOrClipBoxList/cond/cond/sub/x","op":"Const"},{"input":["Postprocessor/BatchMultiClassNonMaxSuppression/map/while/PadOrClipBoxList/cond/sub","Postprocessor/BatchMultiClassNonMaxSuppression/map/while/PadOrClipBoxList/cond/ExpandDims/dim"],"attr":{"T":{"type":3},"Tdim":{"type":3}},"name":"Postprocessor/BatchMultiClassNonMaxSuppression/map/while/PadOrClipBoxList/cond/ExpandDims","op":"ExpandDims"},{"input":["^Postprocessor/BatchMultiClassNonMaxSuppression/map/while/PadOrClipBoxList/cond_1/cond/switch_t"],"attr":{"value":{"tensor":{"floatVal":[],"doubleVal":[],"intVal":[],"stringVal":[],"scomplexVal":[],"int64Val":[],"boolVal":[],"uint32Val":[],"uint64Val":[],"dtype":3,"tensorShape":{"dim":[]}}},"dtype":{"type":3}},"name":"Postprocessor/BatchMultiClassNonMaxSuppression/map/while/PadOrClipBoxList/cond_1/cond/concat/axis","op":"Const"},{"input":["^Postprocessor/BatchMultiClassNonMaxSuppression/map/while/PadOrClipBoxList/cond_1/cond/switch_t"],"attr":{"dtype":{"type":3},"value":{"tensor":{"floatVal":[],"doubleVal":[],"intVal":[],"stringVal":[],"scomplexVal":[],"int64Val":[],"boolVal":[],"uint32Val":[],"uint64Val":[],"dtype":3,"tensorShape":{"dim":[{"size":"1"}]}}}},"name":"Postprocessor/BatchMultiClassNonMaxSuppression/map/while/PadOrClipBoxList/cond_1/cond/strided_slice/stack","op":"Const"},{"input":["^Postprocessor/BatchMultiClassNonMaxSuppression/map/while/PadOrClipBoxList/cond_1/cond/switch_t"],"attr":{"value":{"tensor":{"floatVal":[],"doubleVal":[],"intVal":[],"stringVal":[],"scomplexVal":[],"int64Val":[],"boolVal":[],"uint32Val":[],"uint64Val":[],"dtype":3,"tensorShape":{"dim":[{"size":"1"}]}}},"dtype":{"type":3}},"name":"Postprocessor/BatchMultiClassNonMaxSuppression/map/while/PadOrClipBoxList/cond_1/cond/strided_slice/stack_1","op":"Const"},{"input":["Postprocessor/BatchMultiClassNonMaxSuppression/map/while/PadOrClipBoxList/cond_1/sub","Postprocessor/BatchMultiClassNonMaxSuppression/map/while/PadOrClipBoxList/cond_1/ExpandDims/dim"],"attr":{"Tdim":{"type":3},"T":{"type":3}},"name":"Postprocessor/BatchMultiClassNonMaxSuppression/map/while/PadOrClipBoxList/cond_1/ExpandDims","op":"ExpandDims"},{"input":["Postprocessor/BatchMultiClassNonMaxSuppression/map/while/PadOrClipBoxList/cond_1/cond/sub/x","Postprocessor/BatchMultiClassNonMaxSuppression/map/while/PadOrClipBoxList/cond_1/cond/sub/Switch"],"attr":{"T":{"type":3}},"name":"Postprocessor/BatchMultiClassNonMaxSuppression/map/while/PadOrClipBoxList/cond_1/cond/sub","op":"Sub"},{"input":["^Postprocessor/BatchMultiClassNonMaxSuppression/map/while/PadOrClipBoxList/cond_3/cond/switch_t"],"attr":{"value":{"tensor":{"floatVal":[],"doubleVal":[],"intVal":[],"stringVal":[],"scomplexVal":[],"int64Val":[],"boolVal":[],"uint32Val":[],"uint64Val":[],"dtype":3,"tensorShape":{"dim":[]}}},"dtype":{"type":3}},"name":"Postprocessor/BatchMultiClassNonMaxSuppression/map/while/PadOrClipBoxList/cond_3/cond/concat/axis","op":"Const"},{"input":["^Postprocessor/BatchMultiClassNonMaxSuppression/map/while/PadOrClipBoxList/cond_3/cond/switch_t"],"attr":{"dtype":{"type":3},"value":{"tensor":{"floatVal":[],"doubleVal":[],"intVal":[],"stringVal":[],"scomplexVal":[],"int64Val":[],"boolVal":[],"uint32Val":[],"uint64Val":[],"dtype":3,"tensorShape":{"dim":[{"size":"1"}]}}}},"name":"Postprocessor/BatchMultiClassNonMaxSuppression/map/while/PadOrClipBoxList/cond_3/cond/strided_slice/stack","op":"Const"},{"input":["^Postprocessor/BatchMultiClassNonMaxSuppression/map/while/PadOrClipBoxList/cond_3/cond/switch_t"],"attr":{"value":{"tensor":{"floatVal":[],"doubleVal":[],"intVal":[],"stringVal":[],"scomplexVal":[],"int64Val":[],"boolVal":[],"uint32Val":[],"uint64Val":[],"dtype":3,"tensorShape":{"dim":[{"size":"1"}]}}},"dtype":{"type":3}},"name":"Postprocessor/BatchMultiClassNonMaxSuppression/map/while/PadOrClipBoxList/cond_3/cond/strided_slice/stack_1","op":"Const"},{"input":["Postprocessor/BatchMultiClassNonMaxSuppression/map/while/PadOrClipBoxList/cond_3/sub","Postprocessor/BatchMultiClassNonMaxSuppression/map/while/PadOrClipBoxList/cond_3/ExpandDims/dim"],"attr":{"T":{"type":3},"Tdim":{"type":3}},"name":"Postprocessor/BatchMultiClassNonMaxSuppression/map/while/PadOrClipBoxList/cond_3/ExpandDims","op":"ExpandDims"},{"input":["Postprocessor/BatchMultiClassNonMaxSuppression/map/while/PadOrClipBoxList/cond_3/cond/sub/x","Postprocessor/BatchMultiClassNonMaxSuppression/map/while/PadOrClipBoxList/cond_3/cond/sub/Switch"],"attr":{"T":{"type":3}},"name":"Postprocessor/BatchMultiClassNonMaxSuppression/map/while/PadOrClipBoxList/cond_3/cond/sub","op":"Sub"},{"input":["Postprocessor/BatchMultiClassNonMaxSuppression/map/while/PadOrClipBoxList/cond/cond/sub/x","Postprocessor/BatchMultiClassNonMaxSuppression/map/while/PadOrClipBoxList/cond/cond/sub/Switch"],"attr":{"T":{"type":3}},"name":"Postprocessor/BatchMultiClassNonMaxSuppression/map/while/PadOrClipBoxList/cond/cond/sub","op":"Sub"},{"input":["Postprocessor/BatchMultiClassNonMaxSuppression/map/while/PadOrClipBoxList/cond/ExpandDims","Postprocessor/BatchMultiClassNonMaxSuppression/map/while/PadOrClipBoxList/cond/Greater"],"attr":{"T":{"type":3}},"name":"Postprocessor/BatchMultiClassNonMaxSuppression/map/while/PadOrClipBoxList/cond/cond/concat/Switch","op":"Switch"},{"input":["Postprocessor/BatchMultiClassNonMaxSuppression/map/while/PadOrClipBoxList/cond_1/cond/strided_slice/Switch:1","Postprocessor/BatchMultiClassNonMaxSuppression/map/while/PadOrClipBoxList/cond_1/cond/strided_slice/stack","Postprocessor/BatchMultiClassNonMaxSuppression/map/while/PadOrClipBoxList/cond_1/cond/strided_slice/stack_1","Postprocessor/BatchMultiClassNonMaxSuppression/map/while/PadOrClipBoxList/cond_1/cond/strided_slice/stack"],"attr":{"new_axis_mask":{"i":"0"},"end_mask":{"i":"1"},"T":{"type":3},"Index":{"type":3},"shrink_axis_mask":{"i":"0"},"begin_mask":{"i":"0"},"ellipsis_mask":{"i":"0"}},"name":"Postprocessor/BatchMultiClassNonMaxSuppression/map/while/PadOrClipBoxList/cond_1/cond/strided_slice","op":"StridedSlice"},{"input":["Postprocessor/BatchMultiClassNonMaxSuppression/map/while/PadOrClipBoxList/cond_1/ExpandDims","Postprocessor/BatchMultiClassNonMaxSuppression/map/while/PadOrClipBoxList/cond_1/cond/switch_f"],"attr":{"T":{"type":3}},"name":"Postprocessor/BatchMultiClassNonMaxSuppression/map/while/PadOrClipBoxList/cond_1/cond/concat/Switch","op":"Switch"},{"input":["Postprocessor/BatchMultiClassNonMaxSuppression/map/while/PadOrClipBoxList/cond_1/cond/sub","Postprocessor/BatchMultiClassNonMaxSuppression/map/while/PadOrClipBoxList/cond_1/cond/ExpandDims/dim"],"attr":{"T":{"type":3},"Tdim":{"type":3}},"name":"Postprocessor/BatchMultiClassNonMaxSuppression/map/while/PadOrClipBoxList/cond_1/cond/ExpandDims","op":"ExpandDims"},{"input":["Postprocessor/BatchMultiClassNonMaxSuppression/map/while/PadOrClipBoxList/cond_3/cond/strided_slice/Switch:1","Postprocessor/BatchMultiClassNonMaxSuppression/map/while/PadOrClipBoxList/cond_3/cond/strided_slice/stack","Postprocessor/BatchMultiClassNonMaxSuppression/map/while/PadOrClipBoxList/cond_3/cond/strided_slice/stack_1","Postprocessor/BatchMultiClassNonMaxSuppression/map/while/PadOrClipBoxList/cond_3/cond/strided_slice/stack"],"attr":{"Index":{"type":3},"T":{"type":3},"shrink_axis_mask":{"i":"0"},"begin_mask":{"i":"0"},"ellipsis_mask":{"i":"0"},"new_axis_mask":{"i":"0"},"end_mask":{"i":"1"}},"name":"Postprocessor/BatchMultiClassNonMaxSuppression/map/while/PadOrClipBoxList/cond_3/cond/strided_slice","op":"StridedSlice"},{"input":["Postprocessor/BatchMultiClassNonMaxSuppression/map/while/PadOrClipBoxList/cond_3/ExpandDims","Postprocessor/BatchMultiClassNonMaxSuppression/map/while/PadOrClipBoxList/cond_3/cond/switch_f"],"attr":{"T":{"type":3}},"name":"Postprocessor/BatchMultiClassNonMaxSuppression/map/while/PadOrClipBoxList/cond_3/cond/concat/Switch","op":"Switch"},{"input":["Postprocessor/BatchMultiClassNonMaxSuppression/map/while/PadOrClipBoxList/cond_3/cond/sub","Postprocessor/BatchMultiClassNonMaxSuppression/map/while/PadOrClipBoxList/cond_3/cond/ExpandDims/dim"],"attr":{"Tdim":{"type":3},"T":{"type":3}},"name":"Postprocessor/BatchMultiClassNonMaxSuppression/map/while/PadOrClipBoxList/cond_3/cond/ExpandDims","op":"ExpandDims"},{"input":["Postprocessor/BatchMultiClassNonMaxSuppression/map/while/PadOrClipBoxList/cond/cond/sub","Postprocessor/BatchMultiClassNonMaxSuppression/map/while/PadOrClipBoxList/cond/cond/ExpandDims/dim"],"attr":{"Tdim":{"type":3},"T":{"type":3}},"name":"Postprocessor/BatchMultiClassNonMaxSuppression/map/while/PadOrClipBoxList/cond/cond/ExpandDims","op":"ExpandDims"},{"input":["Postprocessor/BatchMultiClassNonMaxSuppression/map/while/PadOrClipBoxList/cond/cond/concat/Switch:1","Postprocessor/BatchMultiClassNonMaxSuppression/map/while/PadOrClipBoxList/cond/cond/strided_slice","Postprocessor/BatchMultiClassNonMaxSuppression/map/while/PadOrClipBoxList/cond/cond/concat/axis"],"attr":{"N":{"i":"2"},"Tidx":{"type":3},"T":{"type":3}},"name":"Postprocessor/BatchMultiClassNonMaxSuppression/map/while/PadOrClipBoxList/cond/cond/concat","op":"ConcatV2"},{"input":["Postprocessor/BatchMultiClassNonMaxSuppression/map/while/PadOrClipBoxList/cond_1/cond/concat/Switch:1","Postprocessor/BatchMultiClassNonMaxSuppression/map/while/PadOrClipBoxList/cond_1/cond/strided_slice","Postprocessor/BatchMultiClassNonMaxSuppression/map/while/PadOrClipBoxList/cond_1/cond/concat/axis"],"attr":{"Tidx":{"type":3},"T":{"type":3},"N":{"i":"2"}},"name":"Postprocessor/BatchMultiClassNonMaxSuppression/map/while/PadOrClipBoxList/cond_1/cond/concat","op":"ConcatV2"},{"input":["Postprocessor/BatchMultiClassNonMaxSuppression/map/while/PadOrClipBoxList/cond_3/cond/concat/Switch:1","Postprocessor/BatchMultiClassNonMaxSuppression/map/while/PadOrClipBoxList/cond_3/cond/strided_slice","Postprocessor/BatchMultiClassNonMaxSuppression/map/while/PadOrClipBoxList/cond_3/cond/concat/axis"],"attr":{"T":{"type":3},"N":{"i":"2"},"Tidx":{"type":3}},"name":"Postprocessor/BatchMultiClassNonMaxSuppression/map/while/PadOrClipBoxList/cond_3/cond/concat","op":"ConcatV2"},{"input":["Postprocessor/BatchMultiClassNonMaxSuppression/map/while/PadOrClipBoxList/cond/cond/ExpandDims","Postprocessor/BatchMultiClassNonMaxSuppression/map/while/PadOrClipBoxList/cond/cond/concat"],"attr":{"T":{"type":3},"N":{"i":"2"}},"name":"Postprocessor/BatchMultiClassNonMaxSuppression/map/while/PadOrClipBoxList/cond/cond/Merge","op":"Merge"},{"input":["Postprocessor/BatchMultiClassNonMaxSuppression/map/while/PadOrClipBoxList/cond_1/cond/ExpandDims","Postprocessor/BatchMultiClassNonMaxSuppression/map/while/PadOrClipBoxList/cond_1/cond/concat"],"attr":{"T":{"type":3},"N":{"i":"2"}},"name":"Postprocessor/BatchMultiClassNonMaxSuppression/map/while/PadOrClipBoxList/cond_1/cond/Merge","op":"Merge"},{"input":["Postprocessor/BatchMultiClassNonMaxSuppression/map/while/PadOrClipBoxList/cond_3/cond/ExpandDims","Postprocessor/BatchMultiClassNonMaxSuppression/map/while/PadOrClipBoxList/cond_3/cond/concat"],"attr":{"N":{"i":"2"},"T":{"type":3}},"name":"Postprocessor/BatchMultiClassNonMaxSuppression/map/while/PadOrClipBoxList/cond_3/cond/Merge","op":"Merge"},{"input":["Postprocessor/BatchMultiClassNonMaxSuppression/map/while/PadOrClipBoxList/cond/cond/Merge","Postprocessor/BatchMultiClassNonMaxSuppression/map/while/PadOrClipBoxList/cond/zeros/Const"],"attr":{"T":{"type":1},"index_type":{"type":3}},"name":"Postprocessor/BatchMultiClassNonMaxSuppression/map/while/PadOrClipBoxList/cond/zeros","op":"Fill"},{"input":["Postprocessor/BatchMultiClassNonMaxSuppression/map/while/PadOrClipBoxList/cond_1/cond/Merge","Postprocessor/BatchMultiClassNonMaxSuppression/map/while/PadOrClipBoxList/cond_1/zeros/Const"],"attr":{"T":{"type":1},"index_type":{"type":3}},"name":"Postprocessor/BatchMultiClassNonMaxSuppression/map/while/PadOrClipBoxList/cond_1/zeros","op":"Fill"},{"input":["Postprocessor/BatchMultiClassNonMaxSuppression/map/while/PadOrClipBoxList/cond_3/cond/Merge","Postprocessor/BatchMultiClassNonMaxSuppression/map/while/PadOrClipBoxList/cond_3/zeros/Const"],"attr":{"T":{"type":1},"index_type":{"type":3}},"name":"Postprocessor/BatchMultiClassNonMaxSuppression/map/while/PadOrClipBoxList/cond_3/zeros","op":"Fill"},{"input":["Postprocessor/BatchMultiClassNonMaxSuppression/map/while/PadOrClipBoxList/cond/Shape/Switch","Postprocessor/BatchMultiClassNonMaxSuppression/map/while/PadOrClipBoxList/cond/zeros","Postprocessor/BatchMultiClassNonMaxSuppression/map/while/PadOrClipBoxList/cond/ExpandDims/dim"],"attr":{"N":{"i":"2"},"Tidx":{"type":3},"T":{"type":1}},"name":"Postprocessor/BatchMultiClassNonMaxSuppression/map/while/PadOrClipBoxList/cond/concat","op":"ConcatV2"},{"input":["Postprocessor/BatchMultiClassNonMaxSuppression/map/while/PadOrClipBoxList/cond_1/Shape/Switch","Postprocessor/BatchMultiClassNonMaxSuppression/map/while/PadOrClipBoxList/cond_1/zeros","Postprocessor/BatchMultiClassNonMaxSuppression/map/while/PadOrClipBoxList/cond_1/ExpandDims/dim"],"attr":{"T":{"type":1},"N":{"i":"2"},"Tidx":{"type":3}},"name":"Postprocessor/BatchMultiClassNonMaxSuppression/map/while/PadOrClipBoxList/cond_1/concat","op":"ConcatV2"},{"input":["Postprocessor/BatchMultiClassNonMaxSuppression/map/while/PadOrClipBoxList/cond_3/Shape/Switch","Postprocessor/BatchMultiClassNonMaxSuppression/map/while/PadOrClipBoxList/cond_3/zeros","Postprocessor/BatchMultiClassNonMaxSuppression/map/while/PadOrClipBoxList/cond_3/ExpandDims/dim"],"attr":{"T":{"type":1},"N":{"i":"2"},"Tidx":{"type":3}},"name":"Postprocessor/BatchMultiClassNonMaxSuppression/map/while/PadOrClipBoxList/cond_3/concat","op":"ConcatV2"},{"input":["Postprocessor/BatchMultiClassNonMaxSuppression/map/while/PadOrClipBoxList/cond/concat","Postprocessor/BatchMultiClassNonMaxSuppression/map/while/PadOrClipBoxList/cond/GatherV2"],"attr":{"T":{"type":1},"N":{"i":"2"}},"name":"Postprocessor/BatchMultiClassNonMaxSuppression/map/while/PadOrClipBoxList/cond/Merge","op":"Merge"},{"input":["Postprocessor/BatchMultiClassNonMaxSuppression/map/while/PadOrClipBoxList/cond_1/concat","Postprocessor/BatchMultiClassNonMaxSuppression/map/while/PadOrClipBoxList/cond_1/GatherV2"],"attr":{"T":{"type":1},"N":{"i":"2"}},"name":"Postprocessor/BatchMultiClassNonMaxSuppression/map/while/PadOrClipBoxList/cond_1/Merge","op":"Merge"},{"input":["Postprocessor/BatchMultiClassNonMaxSuppression/map/while/PadOrClipBoxList/cond_3/concat","Postprocessor/BatchMultiClassNonMaxSuppression/map/while/PadOrClipBoxList/cond_3/GatherV2"],"attr":{"T":{"type":1},"N":{"i":"2"}},"name":"Postprocessor/BatchMultiClassNonMaxSuppression/map/while/PadOrClipBoxList/cond_3/Merge","op":"Merge"},{"input":["Postprocessor/BatchMultiClassNonMaxSuppression/map/while/TensorArrayWrite/TensorArrayWriteV3/Enter","Postprocessor/BatchMultiClassNonMaxSuppression/map/while/Switch_1:1","Postprocessor/BatchMultiClassNonMaxSuppression/map/while/PadOrClipBoxList/cond/Merge","Postprocessor/BatchMultiClassNonMaxSuppression/map/while/Switch_2:1"],"attr":{"T":{"type":1}},"name":"Postprocessor/BatchMultiClassNonMaxSuppression/map/while/TensorArrayWrite/TensorArrayWriteV3","op":"TensorArrayWriteV3"},{"input":["Postprocessor/BatchMultiClassNonMaxSuppression/map/while/TensorArrayWrite_1/TensorArrayWriteV3/Enter","Postprocessor/BatchMultiClassNonMaxSuppression/map/while/Switch_1:1","Postprocessor/BatchMultiClassNonMaxSuppression/map/while/PadOrClipBoxList/cond_1/Merge","Postprocessor/BatchMultiClassNonMaxSuppression/map/while/Switch_3:1"],"attr":{"T":{"type":1}},"name":"Postprocessor/BatchMultiClassNonMaxSuppression/map/while/TensorArrayWrite_1/TensorArrayWriteV3","op":"TensorArrayWriteV3"},{"input":["Postprocessor/BatchMultiClassNonMaxSuppression/map/while/TensorArrayWrite_2/TensorArrayWriteV3/Enter","Postprocessor/BatchMultiClassNonMaxSuppression/map/while/Switch_1:1","Postprocessor/BatchMultiClassNonMaxSuppression/map/while/PadOrClipBoxList/cond_3/Merge","Postprocessor/BatchMultiClassNonMaxSuppression/map/while/Switch_4:1"],"attr":{"T":{"type":1}},"name":"Postprocessor/BatchMultiClassNonMaxSuppression/map/while/TensorArrayWrite_2/TensorArrayWriteV3","op":"TensorArrayWriteV3"},{"input":["Postprocessor/BatchMultiClassNonMaxSuppression/map/while/TensorArrayWrite/TensorArrayWriteV3"],"attr":{"T":{"type":1}},"name":"Postprocessor/BatchMultiClassNonMaxSuppression/map/while/NextIteration_2","op":"NextIteration"},{"input":["Postprocessor/BatchMultiClassNonMaxSuppression/map/while/TensorArrayWrite_1/TensorArrayWriteV3"],"attr":{"T":{"type":1}},"name":"Postprocessor/BatchMultiClassNonMaxSuppression/map/while/NextIteration_3","op":"NextIteration"},{"input":["Postprocessor/BatchMultiClassNonMaxSuppression/map/while/TensorArrayWrite_2/TensorArrayWriteV3"],"attr":{"T":{"type":1}},"name":"Postprocessor/BatchMultiClassNonMaxSuppression/map/while/NextIteration_4","op":"NextIteration"}],"library":{"function":[],"gradient":[]},"versions":{"badConsumers":[]}},"weightsManifest":[{"paths":["group1-shard1of6","group1-shard2of6","group1-shard3of6","group1-shard4of6","group1-shard5of6","group1-shard6of6"],"weights":[{"name":"Postprocessor/BatchMultiClassNonMaxSuppression/map/TensorArrayUnstack_1/strided_slice/stack_1","shape":[1],"dtype":"int32"},{"name":"Postprocessor/BatchMultiClassNonMaxSuppression/map/TensorArrayUnstack_1/strided_slice/stack","shape":[1],"dtype":"int32"},{"name":"BoxPredictor_0/stack_1/2","shape":[],"dtype":"int32"},{"name":"BoxPredictor_0/stack/3","shape":[],"dtype":"int32"},{"name":"Postprocessor/BatchMultiClassNonMaxSuppression/mul/y","shape":[],"dtype":"int32"},{"name":"Postprocessor/BatchMultiClassNonMaxSuppression/map/TensorArrayStack/range/delta","shape":[],"dtype":"int32"},{"name":"BoxPredictor_5/stack_1/1","shape":[],"dtype":"int32"},{"name":"FeatureExtractor/MobilenetV1/Conv2d_13_pointwise_2_Conv2d_5_3x3_s2_128/BatchNorm/FusedBatchNorm/Offset","shape":[128],"dtype":"float32"},{"name":"FeatureExtractor/MobilenetV1/Conv2d_13_pointwise_2_Conv2d_5_3x3_s2_128/Conv2D/merged_input","shape":[3,3,64,128],"dtype":"float32"},{"name":"add_6/y","shape":[],"dtype":"float32"},{"name":"Postprocessor/BatchMultiClassNonMaxSuppression/map/TensorArrayStack/range/start","shape":[],"dtype":"int32"},{"name":"Preprocessor/mul/x","shape":[],"dtype":"float32"},{"name":"FeatureExtractor/MobilenetV1/Conv2d_13_pointwise_1_Conv2d_5_1x1_64/BatchNorm/FusedBatchNorm/Offset","shape":[64],"dtype":"float32"},{"name":"FeatureExtractor/MobilenetV1/Conv2d_13_pointwise_1_Conv2d_5_1x1_64/Conv2D/merged_input","shape":[1,1,256,64],"dtype":"float32"},{"name":"FeatureExtractor/MobilenetV1/Conv2d_13_pointwise_2_Conv2d_4_3x3_s2_256/BatchNorm/FusedBatchNorm/Offset","shape":[256],"dtype":"float32"},{"name":"FeatureExtractor/MobilenetV1/Conv2d_13_pointwise_2_Conv2d_4_3x3_s2_256/Conv2D/merged_input","shape":[3,3,128,256],"dtype":"float32"},{"name":"FeatureExtractor/MobilenetV1/Conv2d_13_pointwise_1_Conv2d_4_1x1_128/BatchNorm/FusedBatchNorm/Offset","shape":[128],"dtype":"float32"},{"name":"FeatureExtractor/MobilenetV1/Conv2d_13_pointwise_1_Conv2d_4_1x1_128/Conv2D/merged_input","shape":[1,1,256,128],"dtype":"float32"},{"name":"FeatureExtractor/MobilenetV1/Conv2d_13_pointwise_2_Conv2d_3_3x3_s2_256/BatchNorm/FusedBatchNorm/Offset","shape":[256],"dtype":"float32"},{"name":"FeatureExtractor/MobilenetV1/Conv2d_13_pointwise_2_Conv2d_3_3x3_s2_256/Conv2D/merged_input","shape":[3,3,128,256],"dtype":"float32"},{"name":"FeatureExtractor/MobilenetV1/Conv2d_13_pointwise_1_Conv2d_3_1x1_128/BatchNorm/FusedBatchNorm/Offset","shape":[128],"dtype":"float32"},{"name":"FeatureExtractor/MobilenetV1/Conv2d_13_pointwise_1_Conv2d_3_1x1_128/Conv2D/merged_input","shape":[1,1,512,128],"dtype":"float32"},{"name":"FeatureExtractor/MobilenetV1/Conv2d_13_pointwise_2_Conv2d_2_3x3_s2_512/BatchNorm/FusedBatchNorm/Offset","shape":[512],"dtype":"float32"},{"name":"FeatureExtractor/MobilenetV1/Conv2d_13_pointwise_2_Conv2d_2_3x3_s2_512/Conv2D/merged_input","shape":[3,3,256,512],"dtype":"float32"},{"name":"FeatureExtractor/MobilenetV1/Conv2d_13_pointwise_1_Conv2d_2_1x1_256/BatchNorm/FusedBatchNorm/Offset","shape":[256],"dtype":"float32"},{"name":"FeatureExtractor/MobilenetV1/Conv2d_13_pointwise_1_Conv2d_2_1x1_256/Conv2D/merged_input","shape":[1,1,1024,256],"dtype":"float32"},{"name":"FeatureExtractor/MobilenetV1/MobilenetV1/Conv2d_13_pointwise/BatchNorm/FusedBatchNorm/Offset","shape":[1024],"dtype":"float32"},{"name":"FeatureExtractor/MobilenetV1/MobilenetV1/Conv2d_13_pointwise/Conv2D/merged_input","shape":[1,1,1024,1024],"dtype":"float32"},{"name":"FeatureExtractor/MobilenetV1/MobilenetV1/Conv2d_13_depthwise/BatchNorm/FusedBatchNorm/Offset","shape":[1024],"dtype":"float32"},{"name":"FeatureExtractor/MobilenetV1/MobilenetV1/Conv2d_13_depthwise/BatchNorm/FusedBatchNorm/Scaled","shape":[1024],"dtype":"float32"},{"name":"FeatureExtractor/MobilenetV1/Conv2d_13_depthwise/depthwise_weights","shape":[3,3,1024,1],"dtype":"float32"},{"name":"FeatureExtractor/MobilenetV1/MobilenetV1/Conv2d_12_pointwise/BatchNorm/FusedBatchNorm/Offset","shape":[1024],"dtype":"float32"},{"name":"FeatureExtractor/MobilenetV1/MobilenetV1/Conv2d_12_pointwise/Conv2D/merged_input","shape":[1,1,512,1024],"dtype":"float32"},{"name":"FeatureExtractor/MobilenetV1/MobilenetV1/Conv2d_12_depthwise/BatchNorm/FusedBatchNorm/Offset","shape":[512],"dtype":"float32"},{"name":"FeatureExtractor/MobilenetV1/MobilenetV1/Conv2d_12_depthwise/BatchNorm/FusedBatchNorm/Scaled","shape":[512],"dtype":"float32"},{"name":"FeatureExtractor/MobilenetV1/Conv2d_12_depthwise/depthwise_weights","shape":[3,3,512,1],"dtype":"float32"},{"name":"FeatureExtractor/MobilenetV1/MobilenetV1/Conv2d_11_pointwise/BatchNorm/FusedBatchNorm/Offset","shape":[512],"dtype":"float32"},{"name":"FeatureExtractor/MobilenetV1/MobilenetV1/Conv2d_11_pointwise/Conv2D/merged_input","shape":[1,1,512,512],"dtype":"float32"},{"name":"FeatureExtractor/MobilenetV1/MobilenetV1/Conv2d_11_depthwise/BatchNorm/FusedBatchNorm/Offset","shape":[512],"dtype":"float32"},{"name":"FeatureExtractor/MobilenetV1/MobilenetV1/Conv2d_11_depthwise/BatchNorm/FusedBatchNorm/Scaled","shape":[512],"dtype":"float32"},{"name":"FeatureExtractor/MobilenetV1/Conv2d_11_depthwise/depthwise_weights","shape":[3,3,512,1],"dtype":"float32"},{"name":"FeatureExtractor/MobilenetV1/MobilenetV1/Conv2d_10_pointwise/BatchNorm/FusedBatchNorm/Offset","shape":[512],"dtype":"float32"},{"name":"FeatureExtractor/MobilenetV1/MobilenetV1/Conv2d_10_pointwise/Conv2D/merged_input","shape":[1,1,512,512],"dtype":"float32"},{"name":"FeatureExtractor/MobilenetV1/MobilenetV1/Conv2d_10_depthwise/BatchNorm/FusedBatchNorm/Offset","shape":[512],"dtype":"float32"},{"name":"FeatureExtractor/MobilenetV1/MobilenetV1/Conv2d_10_depthwise/BatchNorm/FusedBatchNorm/Scaled","shape":[512],"dtype":"float32"},{"name":"FeatureExtractor/MobilenetV1/Conv2d_10_depthwise/depthwise_weights","shape":[3,3,512,1],"dtype":"float32"},{"name":"FeatureExtractor/MobilenetV1/MobilenetV1/Conv2d_9_pointwise/BatchNorm/FusedBatchNorm/Offset","shape":[512],"dtype":"float32"},{"name":"FeatureExtractor/MobilenetV1/MobilenetV1/Conv2d_9_pointwise/Conv2D/merged_input","shape":[1,1,512,512],"dtype":"float32"},{"name":"FeatureExtractor/MobilenetV1/MobilenetV1/Conv2d_9_depthwise/BatchNorm/FusedBatchNorm/Offset","shape":[512],"dtype":"float32"},{"name":"FeatureExtractor/MobilenetV1/MobilenetV1/Conv2d_9_depthwise/BatchNorm/FusedBatchNorm/Scaled","shape":[512],"dtype":"float32"},{"name":"FeatureExtractor/MobilenetV1/Conv2d_9_depthwise/depthwise_weights","shape":[3,3,512,1],"dtype":"float32"},{"name":"FeatureExtractor/MobilenetV1/MobilenetV1/Conv2d_8_pointwise/BatchNorm/FusedBatchNorm/Offset","shape":[512],"dtype":"float32"},{"name":"FeatureExtractor/MobilenetV1/MobilenetV1/Conv2d_8_pointwise/Conv2D/merged_input","shape":[1,1,512,512],"dtype":"float32"},{"name":"FeatureExtractor/MobilenetV1/MobilenetV1/Conv2d_8_depthwise/BatchNorm/FusedBatchNorm/Offset","shape":[512],"dtype":"float32"},{"name":"FeatureExtractor/MobilenetV1/MobilenetV1/Conv2d_8_depthwise/BatchNorm/FusedBatchNorm/Scaled","shape":[512],"dtype":"float32"},{"name":"FeatureExtractor/MobilenetV1/Conv2d_8_depthwise/depthwise_weights","shape":[3,3,512,1],"dtype":"float32"},{"name":"FeatureExtractor/MobilenetV1/MobilenetV1/Conv2d_7_pointwise/BatchNorm/FusedBatchNorm/Offset","shape":[512],"dtype":"float32"},{"name":"FeatureExtractor/MobilenetV1/MobilenetV1/Conv2d_7_pointwise/Conv2D/merged_input","shape":[1,1,512,512],"dtype":"float32"},{"name":"FeatureExtractor/MobilenetV1/MobilenetV1/Conv2d_7_depthwise/BatchNorm/FusedBatchNorm/Offset","shape":[512],"dtype":"float32"},{"name":"FeatureExtractor/MobilenetV1/MobilenetV1/Conv2d_7_depthwise/BatchNorm/FusedBatchNorm/Scaled","shape":[512],"dtype":"float32"},{"name":"FeatureExtractor/MobilenetV1/Conv2d_7_depthwise/depthwise_weights","shape":[3,3,512,1],"dtype":"float32"},{"name":"FeatureExtractor/MobilenetV1/MobilenetV1/Conv2d_6_pointwise/BatchNorm/FusedBatchNorm/Offset","shape":[512],"dtype":"float32"},{"name":"FeatureExtractor/MobilenetV1/MobilenetV1/Conv2d_6_pointwise/Conv2D/merged_input","shape":[1,1,256,512],"dtype":"float32"},{"name":"FeatureExtractor/MobilenetV1/MobilenetV1/Conv2d_6_depthwise/BatchNorm/FusedBatchNorm/Offset","shape":[256],"dtype":"float32"},{"name":"FeatureExtractor/MobilenetV1/MobilenetV1/Conv2d_6_depthwise/BatchNorm/FusedBatchNorm/Scaled","shape":[256],"dtype":"float32"},{"name":"FeatureExtractor/MobilenetV1/Conv2d_6_depthwise/depthwise_weights","shape":[3,3,256,1],"dtype":"float32"},{"name":"FeatureExtractor/MobilenetV1/MobilenetV1/Conv2d_5_pointwise/BatchNorm/FusedBatchNorm/Offset","shape":[256],"dtype":"float32"},{"name":"FeatureExtractor/MobilenetV1/MobilenetV1/Conv2d_5_pointwise/Conv2D/merged_input","shape":[1,1,256,256],"dtype":"float32"},{"name":"FeatureExtractor/MobilenetV1/MobilenetV1/Conv2d_5_depthwise/BatchNorm/FusedBatchNorm/Offset","shape":[256],"dtype":"float32"},{"name":"FeatureExtractor/MobilenetV1/MobilenetV1/Conv2d_5_depthwise/BatchNorm/FusedBatchNorm/Scaled","shape":[256],"dtype":"float32"},{"name":"FeatureExtractor/MobilenetV1/Conv2d_5_depthwise/depthwise_weights","shape":[3,3,256,1],"dtype":"float32"},{"name":"FeatureExtractor/MobilenetV1/MobilenetV1/Conv2d_4_pointwise/BatchNorm/FusedBatchNorm/Offset","shape":[256],"dtype":"float32"},{"name":"FeatureExtractor/MobilenetV1/MobilenetV1/Conv2d_4_pointwise/Conv2D/merged_input","shape":[1,1,128,256],"dtype":"float32"},{"name":"FeatureExtractor/MobilenetV1/MobilenetV1/Conv2d_4_depthwise/BatchNorm/FusedBatchNorm/Offset","shape":[128],"dtype":"float32"},{"name":"FeatureExtractor/MobilenetV1/MobilenetV1/Conv2d_4_depthwise/BatchNorm/FusedBatchNorm/Scaled","shape":[128],"dtype":"float32"},{"name":"FeatureExtractor/MobilenetV1/Conv2d_4_depthwise/depthwise_weights","shape":[3,3,128,1],"dtype":"float32"},{"name":"FeatureExtractor/MobilenetV1/MobilenetV1/Conv2d_3_pointwise/BatchNorm/FusedBatchNorm/Offset","shape":[128],"dtype":"float32"},{"name":"FeatureExtractor/MobilenetV1/MobilenetV1/Conv2d_3_pointwise/Conv2D/merged_input","shape":[1,1,128,128],"dtype":"float32"},{"name":"FeatureExtractor/MobilenetV1/MobilenetV1/Conv2d_3_depthwise/BatchNorm/FusedBatchNorm/Offset","shape":[128],"dtype":"float32"},{"name":"FeatureExtractor/MobilenetV1/MobilenetV1/Conv2d_3_depthwise/BatchNorm/FusedBatchNorm/Scaled","shape":[128],"dtype":"float32"},{"name":"FeatureExtractor/MobilenetV1/Conv2d_3_depthwise/depthwise_weights","shape":[3,3,128,1],"dtype":"float32"},{"name":"FeatureExtractor/MobilenetV1/MobilenetV1/Conv2d_2_pointwise/BatchNorm/FusedBatchNorm/Offset","shape":[128],"dtype":"float32"},{"name":"FeatureExtractor/MobilenetV1/MobilenetV1/Conv2d_2_pointwise/Conv2D/merged_input","shape":[1,1,64,128],"dtype":"float32"},{"name":"FeatureExtractor/MobilenetV1/MobilenetV1/Conv2d_2_depthwise/BatchNorm/FusedBatchNorm/Offset","shape":[64],"dtype":"float32"},{"name":"FeatureExtractor/MobilenetV1/MobilenetV1/Conv2d_2_depthwise/BatchNorm/FusedBatchNorm/Scaled","shape":[64],"dtype":"float32"},{"name":"FeatureExtractor/MobilenetV1/Conv2d_2_depthwise/depthwise_weights","shape":[3,3,64,1],"dtype":"float32"},{"name":"FeatureExtractor/MobilenetV1/MobilenetV1/Conv2d_1_pointwise/BatchNorm/FusedBatchNorm/Offset","shape":[64],"dtype":"float32"},{"name":"FeatureExtractor/MobilenetV1/MobilenetV1/Conv2d_1_pointwise/Conv2D/merged_input","shape":[1,1,32,64],"dtype":"float32"},{"name":"FeatureExtractor/MobilenetV1/MobilenetV1/Conv2d_1_depthwise/BatchNorm/FusedBatchNorm/Offset","shape":[32],"dtype":"float32"},{"name":"FeatureExtractor/MobilenetV1/MobilenetV1/Conv2d_1_depthwise/BatchNorm/FusedBatchNorm/Scaled","shape":[32],"dtype":"float32"},{"name":"FeatureExtractor/MobilenetV1/Conv2d_1_depthwise/depthwise_weights","shape":[3,3,32,1],"dtype":"float32"},{"name":"FeatureExtractor/MobilenetV1/MobilenetV1/Conv2d_0/BatchNorm/FusedBatchNorm/Offset","shape":[32],"dtype":"float32"},{"name":"FeatureExtractor/MobilenetV1/MobilenetV1/Conv2d_0/Conv2D/merged_input","shape":[3,3,3,32],"dtype":"float32"},{"name":"BoxPredictor_5/BoxEncodingPredictor/biases","shape":[24],"dtype":"float32"},{"name":"BoxPredictor_5/BoxEncodingPredictor/weights","shape":[1,1,128,24],"dtype":"float32"},{"name":"BoxPredictor_4/stack_1/1","shape":[],"dtype":"int32"},{"name":"BoxPredictor_4/BoxEncodingPredictor/biases","shape":[24],"dtype":"float32"},{"name":"BoxPredictor_4/BoxEncodingPredictor/weights","shape":[1,1,256,24],"dtype":"float32"},{"name":"BoxPredictor_0/stack_1/1","shape":[],"dtype":"int32"},{"name":"BoxPredictor_0/BoxEncodingPredictor/biases","shape":[12],"dtype":"float32"},{"name":"BoxPredictor_0/BoxEncodingPredictor/weights","shape":[1,1,512,12],"dtype":"float32"},{"name":"BoxPredictor_3/stack_1/1","shape":[],"dtype":"int32"},{"name":"BoxPredictor_3/BoxEncodingPredictor/biases","shape":[24],"dtype":"float32"},{"name":"BoxPredictor_3/BoxEncodingPredictor/weights","shape":[1,1,256,24],"dtype":"float32"},{"name":"BoxPredictor_1/stack_1/1","shape":[],"dtype":"int32"},{"name":"BoxPredictor_1/BoxEncodingPredictor/biases","shape":[24],"dtype":"float32"},{"name":"BoxPredictor_1/BoxEncodingPredictor/weights","shape":[1,1,1024,24],"dtype":"float32"},{"name":"BoxPredictor_2/stack_1/1","shape":[],"dtype":"int32"},{"name":"BoxPredictor_2/BoxEncodingPredictor/biases","shape":[24],"dtype":"float32"},{"name":"BoxPredictor_2/BoxEncodingPredictor/weights","shape":[1,1,512,24],"dtype":"float32"},{"name":"ConstantFolding/Postprocessor/Decode/truediv_2_recip","shape":[],"dtype":"float32"},{"name":"Postprocessor/Reshape_1/shape","shape":[2],"dtype":"int32"},{"name":"Postprocessor/ExpandDims","shape":[1,1917,4],"dtype":"float32"},{"name":"ConstantFolding/Postprocessor/Decode/truediv_4_recip","shape":[],"dtype":"float32"},{"name":"ConstantFolding/Postprocessor/Decode/truediv_recip","shape":[],"dtype":"float32"},{"name":"Postprocessor/Const","shape":[4],"dtype":"float32"},{"name":"Postprocessor/Slice/size","shape":[3],"dtype":"int32"},{"name":"Postprocessor/Slice/begin","shape":[3],"dtype":"int32"},{"name":"BoxPredictor_5/ClassPredictor/biases","shape":[12],"dtype":"float32"},{"name":"BoxPredictor_5/ClassPredictor/weights","shape":[1,1,128,12],"dtype":"float32"},{"name":"BoxPredictor_4/ClassPredictor/biases","shape":[12],"dtype":"float32"},{"name":"BoxPredictor_4/ClassPredictor/weights","shape":[1,1,256,12],"dtype":"float32"},{"name":"BoxPredictor_3/ClassPredictor/biases","shape":[12],"dtype":"float32"},{"name":"BoxPredictor_3/ClassPredictor/weights","shape":[1,1,256,12],"dtype":"float32"},{"name":"BoxPredictor_2/ClassPredictor/biases","shape":[12],"dtype":"float32"},{"name":"BoxPredictor_2/ClassPredictor/weights","shape":[1,1,512,12],"dtype":"float32"},{"name":"BoxPredictor_1/ClassPredictor/biases","shape":[12],"dtype":"float32"},{"name":"BoxPredictor_1/ClassPredictor/weights","shape":[1,1,1024,12],"dtype":"float32"},{"name":"BoxPredictor_0/ClassPredictor/biases","shape":[6],"dtype":"float32"},{"name":"BoxPredictor_0/ClassPredictor/weights","shape":[1,1,512,6],"dtype":"float32"},{"name":"Preprocessor/map/while/add/y","shape":[],"dtype":"int32"},{"name":"Preprocessor/map/while/ResizeImage/resize_images/size","shape":[2],"dtype":"int32"},{"name":"Preprocessor/map/while/ResizeImage/resize_images/ExpandDims/dim","shape":[],"dtype":"int32"},{"name":"FeatureExtractor/MobilenetV1/zeros_6/packed/2","shape":[],"dtype":"int32"},{"name":"FeatureExtractor/MobilenetV1/zeros_6/Const","shape":[],"dtype":"float32"},{"name":"FeatureExtractor/MobilenetV1/zeros_6/packed/3","shape":[],"dtype":"int32"},{"name":"FeatureExtractor/MobilenetV1/zeros_6/packed/1","shape":[],"dtype":"int32"},{"name":"FeatureExtractor/MobilenetV1/strided_slice/stack_1","shape":[1],"dtype":"int32"},{"name":"FeatureExtractor/MobilenetV1/strided_slice/stack","shape":[1],"dtype":"int32"},{"name":"FeatureExtractor/MobilenetV1/zeros_4/packed/3","shape":[],"dtype":"int32"},{"name":"FeatureExtractor/MobilenetV1/concat_6/axis","shape":[],"dtype":"int32"},{"name":"FeatureExtractor/MobilenetV1/zeros_5/packed/1","shape":[],"dtype":"int32"},{"name":"FeatureExtractor/MobilenetV1/zeros_3/packed/1","shape":[],"dtype":"int32"},{"name":"FeatureExtractor/MobilenetV1/zeros/packed/3","shape":[],"dtype":"int32"},{"name":"FeatureExtractor/MobilenetV1/zeros/packed/2","shape":[],"dtype":"int32"},{"name":"FeatureExtractor/MobilenetV1/zeros_2/packed/2","shape":[],"dtype":"int32"},{"name":"FeatureExtractor/MobilenetV1/zeros_4/packed/2","shape":[],"dtype":"int32"},{"name":"concat_1/axis","shape":[],"dtype":"int32"},{"name":"Postprocessor/Decode/transpose/sub_1","shape":[2],"dtype":"int32"},{"name":"Postprocessor/Decode/get_center_coordinates_and_sizes/transpose/sub_1","shape":[2],"dtype":"int32"},{"name":"Postprocessor/Decode/transpose_1/sub_1","shape":[2],"dtype":"int32"},{"name":"ConstantFolding/Postprocessor/BatchMultiClassNonMaxSuppression/ones/packed_const_axis","shape":[],"dtype":"int32"},{"name":"Postprocessor/BatchMultiClassNonMaxSuppression/map/while/MultiClassNonMaxSuppression/ClipToWindow/Area/split/split_dim","shape":[],"dtype":"int32"},{"name":"Postprocessor/BatchMultiClassNonMaxSuppression/map/while/PadOrClipBoxList/strided_slice/stack_1","shape":[1],"dtype":"int32"},{"name":"Postprocessor/BatchMultiClassNonMaxSuppression/map/while/PadOrClipBoxList/strided_slice/stack","shape":[1],"dtype":"int32"},{"name":"Postprocessor/BatchMultiClassNonMaxSuppression/map/while/MultiClassNonMaxSuppression/SortByField/Gather/GatherV2_3/axis","shape":[],"dtype":"int32"},{"name":"Postprocessor/BatchMultiClassNonMaxSuppression/map/while/MultiClassNonMaxSuppression/non_max_suppression/score_threshold","shape":[],"dtype":"float32"},{"name":"Postprocessor/BatchMultiClassNonMaxSuppression/map/while/MultiClassNonMaxSuppression/non_max_suppression/iou_threshold","shape":[],"dtype":"float32"},{"name":"Postprocessor/BatchMultiClassNonMaxSuppression/map/while/MultiClassNonMaxSuppression/FilterGreaterThan/Reshape/shape","shape":[1],"dtype":"int32"},{"name":"Postprocessor/BatchMultiClassNonMaxSuppression/map/while/MultiClassNonMaxSuppression/add/y","shape":[],"dtype":"float32"},{"name":"ConstantFolding/Postprocessor/BatchMultiClassNonMaxSuppression/map/while/MultiClassNonMaxSuppression/ClipToWindow/unstack-folded-1","shape":[],"dtype":"float32"},{"name":"ConstantFolding/Postprocessor/BatchMultiClassNonMaxSuppression/map/while/MultiClassNonMaxSuppression/ClipToWindow/unstack-folded-2","shape":[],"dtype":"float32"},{"name":"Postprocessor/BatchMultiClassNonMaxSuppression/map/while/MultiClassNonMaxSuppression/FilterGreaterThan/Greater/y","shape":[],"dtype":"float32"},{"name":"Postprocessor/BatchMultiClassNonMaxSuppression/map/while/Reshape/shape","shape":[3],"dtype":"int32"},{"name":"Postprocessor/BatchMultiClassNonMaxSuppression/map/while/stack_1/1","shape":[],"dtype":"int32"},{"name":"Postprocessor/BatchMultiClassNonMaxSuppression/map/while/Slice/begin","shape":[3],"dtype":"int32"},{"name":"Postprocessor/BatchMultiClassNonMaxSuppression/map/while/Reshape_1/shape","shape":[2],"dtype":"int32"},{"name":"Postprocessor/BatchMultiClassNonMaxSuppression/map/while/Slice_1/begin","shape":[2],"dtype":"int32"},{"name":"Postprocessor/BatchMultiClassNonMaxSuppression/map/while/PadOrClipBoxList/Greater/y","shape":[],"dtype":"int32"},{"name":"Postprocessor/BatchMultiClassNonMaxSuppression/map/while/MultiClassNonMaxSuppression/Reshape/shape","shape":[1],"dtype":"int32"},{"name":"Postprocessor/BatchMultiClassNonMaxSuppression/map/while/MultiClassNonMaxSuppression/stack/1","shape":[],"dtype":"int32"},{"name":"Postprocessor/BatchMultiClassNonMaxSuppression/map/while/MultiClassNonMaxSuppression/Slice/begin","shape":[2],"dtype":"int32"},{"name":"Postprocessor/BatchMultiClassNonMaxSuppression/map/while/PadOrClipBoxList/cond/GatherV2/axis","shape":[],"dtype":"int32"},{"name":"Postprocessor/BatchMultiClassNonMaxSuppression/map/while/PadOrClipBoxList/cond/range","shape":[100],"dtype":"int32"},{"name":"Postprocessor/BatchMultiClassNonMaxSuppression/map/while/PadOrClipBoxList/cond/ExpandDims/dim","shape":[],"dtype":"int32"},{"name":"Postprocessor/BatchMultiClassNonMaxSuppression/map/while/PadOrClipBoxList/cond/zeros/Const","shape":[],"dtype":"float32"},{"name":"Postprocessor/BatchMultiClassNonMaxSuppression/map/while/PadOrClipBoxList/cond/Greater","shape":[],"dtype":"bool"},{"name":"Postprocessor/BatchMultiClassNonMaxSuppression/map/while/PadOrClipBoxList/cond/strided_slice/stack_1","shape":[1],"dtype":"int32"},{"name":"Postprocessor/BatchMultiClassNonMaxSuppression/map/while/PadOrClipBoxList/cond/strided_slice/stack","shape":[1],"dtype":"int32"},{"name":"Postprocessor/BatchMultiClassNonMaxSuppression/map/while/PadOrClipBoxList/cond/sub/x","shape":[],"dtype":"int32"},{"name":"Postprocessor/BatchMultiClassNonMaxSuppression/map/while/PadOrClipBoxList/cond_1/GatherV2/axis","shape":[],"dtype":"int32"},{"name":"Postprocessor/BatchMultiClassNonMaxSuppression/map/while/PadOrClipBoxList/cond_1/range","shape":[100],"dtype":"int32"},{"name":"Postprocessor/BatchMultiClassNonMaxSuppression/map/while/PadOrClipBoxList/cond_1/ExpandDims/dim","shape":[],"dtype":"int32"},{"name":"Postprocessor/BatchMultiClassNonMaxSuppression/map/while/PadOrClipBoxList/cond_1/zeros/Const","shape":[],"dtype":"float32"},{"name":"Postprocessor/BatchMultiClassNonMaxSuppression/map/while/PadOrClipBoxList/cond_1/cond/switch_f","shape":[],"dtype":"bool"},{"name":"Postprocessor/BatchMultiClassNonMaxSuppression/map/while/PadOrClipBoxList/cond_1/strided_slice/stack_1","shape":[1],"dtype":"int32"},{"name":"Postprocessor/BatchMultiClassNonMaxSuppression/map/while/PadOrClipBoxList/cond_1/strided_slice/stack","shape":[1],"dtype":"int32"},{"name":"Postprocessor/BatchMultiClassNonMaxSuppression/map/while/PadOrClipBoxList/cond_1/sub/x","shape":[],"dtype":"int32"},{"name":"Postprocessor/BatchMultiClassNonMaxSuppression/map/while/PadOrClipBoxList/cond_3/GatherV2/axis","shape":[],"dtype":"int32"},{"name":"Postprocessor/BatchMultiClassNonMaxSuppression/map/while/PadOrClipBoxList/cond_3/range","shape":[100],"dtype":"int32"},{"name":"Postprocessor/BatchMultiClassNonMaxSuppression/map/while/PadOrClipBoxList/cond_3/ExpandDims/dim","shape":[],"dtype":"int32"},{"name":"Postprocessor/BatchMultiClassNonMaxSuppression/map/while/PadOrClipBoxList/cond_3/zeros/Const","shape":[],"dtype":"float32"},{"name":"Postprocessor/BatchMultiClassNonMaxSuppression/map/while/PadOrClipBoxList/cond_3/cond/switch_f","shape":[],"dtype":"bool"},{"name":"Postprocessor/BatchMultiClassNonMaxSuppression/map/while/PadOrClipBoxList/cond_3/strided_slice/stack_1","shape":[1],"dtype":"int32"},{"name":"Postprocessor/BatchMultiClassNonMaxSuppression/map/while/PadOrClipBoxList/cond_3/strided_slice/stack","shape":[1],"dtype":"int32"},{"name":"Postprocessor/BatchMultiClassNonMaxSuppression/map/while/PadOrClipBoxList/cond_3/sub/x","shape":[],"dtype":"int32"},{"name":"Postprocessor/BatchMultiClassNonMaxSuppression/map/while/PadOrClipBoxList/cond/cond/concat/axis","shape":[],"dtype":"int32"},{"name":"Postprocessor/BatchMultiClassNonMaxSuppression/map/while/PadOrClipBoxList/cond/cond/strided_slice/stack","shape":[1],"dtype":"int32"},{"name":"Postprocessor/BatchMultiClassNonMaxSuppression/map/while/PadOrClipBoxList/cond/cond/strided_slice/stack_1","shape":[1],"dtype":"int32"},{"name":"Postprocessor/BatchMultiClassNonMaxSuppression/map/while/PadOrClipBoxList/cond_1/cond/ExpandDims/dim","shape":[],"dtype":"int32"},{"name":"Postprocessor/BatchMultiClassNonMaxSuppression/map/while/PadOrClipBoxList/cond_1/cond/sub/x","shape":[],"dtype":"int32"},{"name":"Postprocessor/BatchMultiClassNonMaxSuppression/map/while/PadOrClipBoxList/cond_3/cond/ExpandDims/dim","shape":[],"dtype":"int32"},{"name":"Postprocessor/BatchMultiClassNonMaxSuppression/map/while/PadOrClipBoxList/cond_3/cond/sub/x","shape":[],"dtype":"int32"},{"name":"Postprocessor/BatchMultiClassNonMaxSuppression/map/while/PadOrClipBoxList/cond/cond/ExpandDims/dim","shape":[],"dtype":"int32"},{"name":"Postprocessor/BatchMultiClassNonMaxSuppression/map/while/PadOrClipBoxList/cond/cond/sub/x","shape":[],"dtype":"int32"},{"name":"Postprocessor/BatchMultiClassNonMaxSuppression/map/while/PadOrClipBoxList/cond_1/cond/concat/axis","shape":[],"dtype":"int32"},{"name":"Postprocessor/BatchMultiClassNonMaxSuppression/map/while/PadOrClipBoxList/cond_1/cond/strided_slice/stack","shape":[1],"dtype":"int32"},{"name":"Postprocessor/BatchMultiClassNonMaxSuppression/map/while/PadOrClipBoxList/cond_1/cond/strided_slice/stack_1","shape":[1],"dtype":"int32"},{"name":"Postprocessor/BatchMultiClassNonMaxSuppression/map/while/PadOrClipBoxList/cond_3/cond/concat/axis","shape":[],"dtype":"int32"},{"name":"Postprocessor/BatchMultiClassNonMaxSuppression/map/while/PadOrClipBoxList/cond_3/cond/strided_slice/stack","shape":[1],"dtype":"int32"},{"name":"Postprocessor/BatchMultiClassNonMaxSuppression/map/while/PadOrClipBoxList/cond_3/cond/strided_slice/stack_1","shape":[1],"dtype":"int32"}]}]}